PPO_multiagent_LunarLander-v2.pth (torch_old, 41340 bytes, 11 tensors)

actorNet.0.weight f4 [64, 8]
00000000: 7721 eebe fc2c 8d3e 8487 c9be 8441 ce3e
00000010: 0c2e 3e3f e390 cb3e 1506 a8be 5ad4 633e
00000020: b65e b3bd e723 3c3d d999 ca3d 2bdc acbe
00000030: fa76 153e 7042 163e ce1f 443e 2e18 0b3f
00000040: 284c 21bd be71 123e fc4c 033e 414f 863e
00000050: 3fbb 08bf a06c f0be 7234 a1bc 7d51 963e
00000060: f92b 62bd 5cdf a7be 6a01 4d3e 9abe a1be
00000070: f5f8 b4be e93f 3bbe 6027 41be cced 933d
00000080: 5c6e 14bd 29f6 c2be 01cb d1bc 251a 95be
00000090: 5f90 afbe 25b4 10bf 89ff 5e3c 48ef a33e
000000a0: 8f08 c63e 2f20 2d3e 3f86 85bd 6c09 d03e
000000b0: 7ebf 54be e41b 6b3c 9b00 85be 2b08 67be
000000c0: 5627 533e d59c 83be 1a2d 893e 8b0c 94be
000000d0: 6855 42bf f0f0 48bf 00fe 1fbe 666b 4dbd
000000e0: 06b1 d63d 5d6c 963e 0a5e 563e ca3c ea3e
000000f0: cb41 f5be e383 863d 31fd a63e ee9e a4be
00000100: bc02 0d3c d15f 18bd 498b 223e 615b c9be
00000110: 719a 5f3e 813b f4bd 4c1c 893e 5af5 f43d
00000120: 24fe f5bc bf89 95be d293 1ebe 0036 3cbe
00000130: 240c 7b3e e473 983e 75b8 50be fb90 95be
00000140: 9652 aabd a475 63be 9039 3abe 2db2 24bd
00000150: ad7c 113f 2ffe 493e 6b7c 433d 5130 06be
00000160: ffed c33c 9fed 4cbe 9cb4 93bd ef4b 7cbe
00000170: 7cd8 adbe 0900 84be cd37 7e3e b996 6ebe
00000180: 861d cbbb df54 a0be d4aa cebe 6e84 68be
00000190: baaa 203f bc49 113f bae3 9bbc c556 133e
000001a0: de7e 9ebe 09d3 c93d a69c 39bd abc4 88be
000001b0: cca0 6b3e cab8 183e 96b4 263d 28ec 653e
000001c0: df12 a03c 460b 003f edc8 593e bcd5 8f3e
000001d0: 831d a3be acb7 e53d 4905 fbbd c60c adbe
000001e0: d027 7fbe 8a8f 7a3e 2841 8fbe 0cbf 173e
000001f0: ff82 493f 2110 023f 0a3b 203e d940 583e
00000200: 40cd 553e 07f7 1cbe 2f55 72be be1a 00bf
00000210: 0f23 d1bb d6fb 6d3e 0b94 b0bd 4592 a33e
00000220: b495 033e 8c42 36bd 22cc 513e 5018 2cbe
00000230: 55a1 0ebf 7c4f 77be 8ce1 f33d afb5 f6bc
00000240: cebb b3bd 2614 213e 7c77 56bd 5931 823e
00000250: 14fb ce3e 7e86 18bd f8ee e8bc bf07 5bbe
00000260: 0680 ea3c 1e05 b3bd ae89 983e a6d9 453d
00000270: 2605 d1bd ff69 e0be bdc9 4e3e 6337 57bd
00000280: 26a0 3b3e 9147 ea3e 3d34 6a3c b8f6 5d3e
00000290: 64b1 b53e 4d70 383e 67c1 373d 7c11 acbe
000002a0: ce2d 47be 2f8a f63c bcf1 3cbc fed4 06be
000002b0: 8efa f93d cb67 813e 4348 7a3d 1ee6 583e
000002c0: 0ebe adbe 9796 8a3d 752b 90bc 70d4 bebd
000002d0: 1823 603f 7f87 e43e 43de 9cbd e5fb bebd
000002e0: 37b7 cd3d 987c 913e 7bc1 0abe 12fa e43e
000002f0: fa4f 85be 6f79 a03e 7727 b73d 9c90 3e3e
00000300: 0d0f 5cbe 66b0 99be 48ad 30be 8f42 79be
00000310: c997 ba3d 03ba 1f3e 4497 c03d f00f 8b3e
00000320: c054 b13e 0946 c23e 2de4 1d3e 6b16 de3e
00000330: aaa5 c0be 4898 bf3d 03c9 83be 3408 793e
00000340: 102f 243d 778b 843e d9ab c13e 5d84 523e
00000350: f4e6 4dbf da81 ccbe e1fe 35be 9067 36be
00000360: b840 86bc 23aa 87be 6d2f bebe a524 01bf
00000370: 12b4 1f3f a0d1 bc3e 28a3 233e d773 113e
00000380: 9b32 ad3e e1ca 9abe 7518 2d3d 532e d2be
00000390: 59db f4be 3a3c e4be 7380 f6bd 3f32 c93d
000003a0: f624 043d f76c 053e bc54 8f3d 0243 db3e
000003b0: 6f39 28bf e212 d2be 891b 4ebe ae90 5b3e
000003c0: 650a adbe 5c1e c5be cbfd 0cbe 09ee debe
000003d0: 4a70 3c3f 4957 f43e 6c81 c13d 1b09 f7bd
000003e0: 6a48 68bd 0499 56be fcad f43d 0258 a6bd
000003f0: 0a97 0cbf 8834 97be 3476 103e e75f 633c
-0.46509907 0.27573383 -0.39361203 0.4028436 0.7428901 0.39758977 -0.3281714 0.22248974
-0.08758299 0.045932677 0.09892625 -0.33761725 0.14596167 0.14673781 0.19152758 0.5433377
-0.03937927 0.14301202 0.12822336 0.2623234 -0.53410715 -0.46957874 -0.019678328 0.29359046
-0.055217717 -0.32787597 0.2002007 -0.3159073 -0.3534619 -0.18286099 -0.18862677 0.072230905
-0.03623806 -0.3807843 -0.025609495 -0.2912151 -0.34289834 -0.5652488 0.013610729 0.32018495
0.38678405 0.16906808 -0.06519746 0.40632188 -0.20776173 0.014349911 -0.25977024 -0.2256171
0.20620474 -0.2570559 0.26792222 -0.2891582 -0.7591157 -0.7849264 -0.15624237 -0.05015125
0.10482983 0.2937955 0.2093431 0.45749503 -0.4790176 0.06568124 0.32615045 -0.32152504
0.008606609 -0.037200753 0.15873446 -0.3932753 0.21836258 -0.11925412 0.267794 0.119608596
-0.03002841 -0.29206654 -0.15486076 -0.18379974 0.2451635 0.29775918 -0.20382865 -0.29212174
-0.08316533 -0.22212845 -0.18186021 -0.040208984 0.56830865 0.1972587 0.047726076 -0.13104369
0.023917196 -0.2001252 -0.07212183 -0.24638341 -0.33954227 -0.25781277 0.24825974 -0.23299684
-0.006198588 -0.31314752 -0.40364707 -0.22706768 0.6276051 0.56753135 -0.019029487 0.14388569
-0.30956167 0.09854705 -0.045315407 -0.26712546 0.23010558 0.14914241 0.040699564 0.22453368
0.019540248 0.500172 0.21268053 0.28092754 -0.31858453 0.11216673 -0.122568674 -0.33798808
-0.24917531 0.24468818 -0.27979398 0.14818972 0.7871551 0.5080586 0.15647522 0.21118487
0.20879078 -0.15328608 -0.23665307 -0.50040805 -0.006382353 0.23240599 -0.08621987 0.31947532
0.12850076 -0.044497058 0.20488027 -0.1680615 -0.55714923 -0.24151415 0.11908254 -0.03011593
-0.08776055 0.15730342 -0.052360043 0.25428274 0.40425932 -0.037237637 -0.028434262 -0.21389674
0.0286255 -0.087412104 0.2979254 0.04830327 -0.1020606 -0.4383087 0.20194145 -0.052543055
0.1832281 0.45757726 0.014294681 0.21676147 0.354869 0.1801159 0.044862177 -0.3360709
-0.19451067 0.030095188 -0.011532243 -0.13167188 0.12205993 0.252745 0.06110407 0.21181533
-0.33934063 0.06767004 -0.017598847 -0.09317863 0.8755355 0.44634625 -0.076595806 -0.09325389
0.10044711 0.2841537 -0.1355037 0.44722039 -0.2603758 0.31342646 0.08943074 0.18609852
-0.21490116 -0.30017394 -0.17253602 -0.24341796 0.09110982 0.15598302 0.09403852 0.27160597
0.34634972 0.37944058 0.15419073 0.4337648 -0.37626392 0.09355217 -0.25739297 0.24319535
0.040083945 0.25887653 0.37826422 0.20558305 -0.8043053 -0.3994282 -0.1777301 -0.17812943
-0.016388282 -0.26496992 -0.37145558 -0.5044654 0.6238414 0.3687868 0.15980208 0.14204346
0.3382767 -0.3023291 0.042259652 -0.41050968 -0.478236 -0.445772 -0.120362185 0.09824037
0.03226181 0.13029848 0.06998584 0.4282456 -0.65712637 -0.4103003 -0.20127691 0.2144191
-0.33796993 -0.38499725 -0.1376869 -0.4354098 0.7360884 0.47722843 0.094485134 -0.120622836
-0.056709684 -0.20956808 0.119472474 -0.08122255 -0.5491797 -0.29532266 0.14107591 0.013877845

actorNet.0.bias f4 [64]
00000000: 37a8 463e 62af cbbd b177 0e3e 610a e2bd
00000010: 4dc7 553e 3c30 b6bd 9cf5 ca3d 12e0 4d3e
00000020: 38b2 29be fbe6 d43c c79e 583d 493a cf39
00000030: 9d5e f33d a572 15be 11ef 37be 1720 15be
00000040: b307 28be 2979 1a3d 6aad 0bbe b23f a83d
00000050: 31ba 0dbe 8a70 0bbe 9438 12be dfee 993d
00000060: 3e00 473e 9f02 0c3d c80c 0bbe 1d7d 2dbe
00000070: be5a 00be ffe9 323e b575 1bbd 8622 8c3c
00000080: b1da 863d fea2 423d 1806 dfbd 3ad3 6fbd
00000090: a430 d7bc 4050 07be 3c69 243d 0a78 013e
000000a0: 49c3 9ebd bf4d 2fbe 7cb5 0d3d c985 c3bd
000000b0: 2ad3 763c 9067 1b3e 3136 afbd 12f2 113e
000000c0: fd66 61bb 6485 47be 686c 14bd 6191 cfbd
000000d0: e8bd 69be f383 42be dc54 3dbe c6a2 91be
000000e0: afbf 63be 5184 03be a08b 3c3b bb57 f7bc
000000f0: c68c 8f3d 9ac2 02be 28ad 013e 6d03 17bd
0.19400106 -0.09945561 0.13912846 -0.11037136 0.20876808 -0.08895919 0.099101275 0.20105007
-0.16571891 0.025989046 0.052885797 0.00039525543 0.118832804 -0.14594515 -0.1796229 -0.14563023
-0.16409187 0.037713204 -0.13640371 0.08215274 -0.13840558 -0.13617149 -0.14279395 0.07516264
0.19433686 0.034182187 -0.13579094 -0.16942258 -0.12534615 0.17472075 -0.03795405 0.017106306
0.06584681 0.047518723 -0.10889834 -0.05855105 -0.02626831 -0.13214207 0.04013942 0.12643448
-0.077520914 -0.17119502 0.034596905 -0.09547002 0.015064994 0.15176225 -0.08555258 0.14252499
-0.0034393661 -0.19484478 -0.036236197 -0.10135151 -0.2282635 -0.18995647 -0.18489403 -0.284445
-0.2224109 -0.12843443 0.0028769746 -0.0301932 0.07009272 -0.12769547 0.1266371 -0.0368685

actorNet.2.weight f4 [64, 64]
00000000: 6a2f 593e aa1f 89bd 2179 26bd 5faf 8bbd
00000010: 3062 3fbe f7bc fc3d b62a cdbe b570 9ebd
00000020: db61 d3bd 1775 f9bd 0188 f43d f5e0 56bd
00000030: a023 32bc 790a 80bd ce4c 9dbd 9b7c a43e
00000040: 829a 28bd 7657 17be d650 1e3e 2579 15be
00000050: 7a3b 1fbd 032a 453d fcb1 71bd 61f7 8c3e
00000060: 5992 e23b 98f5 873e e1ff 0fbe a851 073d
00000070: 18a3 4ebe af66 3f3d d773 7d3d df01 5d3d
00000080: fe74 36be 1b59 033e 54f4 31be d787 fcbe
00000090: 19db 723d 2b94 693e 6311 87be c5b6 68bd
000000a0: cc24 a5be 4c0a a93d b096 a9bc 339b bf3d
000000b0: 54ba 73be bfc9 34be 9254 fe3d 128e 2f3e
000000c0: 3ed9 dfbd 5c83 22bc 7d9c 24bc a74a 0abe
000000d0: 28fb 193e c6ce 47bd 1b4e 09be 840c a93d
000000e0: d746 de3e df56 e13d 5c5f 723a 3429 83bd
000000f0: c88c 21be 86e6 84be 1e52 90bd 8619 6d3d
00000100: 3934 973e 1f00 f13d f28d 26be a8fd 71bd
00000110: 0f41 933c d2ef 8d3d 1dbd 91be cdda 26be
00000120: ed6c 0d3c 47f0 db3c a189 1c3e 9ff8 e5bd
00000130: 964c a03e abd2 81bc d4a8 a8bd 08f6 893e
00000140: 6966 f83d 0edf 333d 766f 4c3d d68d d1bd
00000150: ed25 643d bf1f 403e 9787 2e3e 4347 10be
00000160: 8ff3 513d 0527 5cbc 4c98 8abe dbcc 033e
00000170: 897b 33be 46c3 89be a151 853e 3f5e 2fbe
00000180: 6821 5cbd ac51 e43d 5682 fd39 11b0 2abe
00000190: 8912 8f3d 7c7e 0f3e 1691 8bbe a89e 26bd
000001a0: 7ef5 d0be bf54 6ebc 1ace 9e3d 993f a73e
000001b0: 87a3 be3d 4fc5 79be 91db ad3d bc84 bd3b
000001c0: 04a2 95bd 7e20 823d e108 413e 3e5e d7be
000001d0: 5683 2d3d 8352 aabc 3e8e 443a d8ef e43c
000001e0: 0588 123e f401 1d3e 2895 cf3c b44d 67be
000001f0: 423a 263e 14c0 41be 053f 00be 2ea5 873d
00000200: 163f 9e3e fa5d 3a3d 913e 5cbb dcf3 11bd
00000210: 407b 1dbe 6ebd edbd 4af9 bcbe 8c3f c1bc
00000220: de1e df3d a90a bc3c 9739 b43c 6df8 403c
00000230: 2033 913e 92f9 3b3e fe97 01be b3f0 003f
00000240: aaa0 1e3e a2ca b0bd bdb5 153b 7bc0 70bd
00000250: d4a9 ff3d 3ea5 30bd 24a6 9b3e 502f 713c
00000260: ad0b 023e d006 55bd 3f97 57be 414b 6e3e
00000270: 63f4 aabe 5b42 dfbc 65ef 5b3e 1629 10be
00000280: 3b77 0fbd 4d19 dcbd 7673 86be ad09 c2be
00000290: 4e75 a13b 9553 7e3e 461c 8dbe a05c 4d3d
000002a0: 9101 edbe c8fb 153e 316a 45bd 016d e73d
000002b0: 405f 6f3d 075a 10be fbc0 173d e30f 643e
000002c0: f000 6ebc 5c62 a8bc 8d8d 3e3e fbe2 97be
000002d0: 3c1c 6e3e 81f7 043e aba7 823d 0b75 cb3d
000002e0: c8eb d53e 011f a93d 8e98 ef3d 8288 aebe
000002f0: 4525 ea3d 0883 81be 5f59 293b 8698 673d
00000300: 0249 36be cf88 4b3d 595c 673c 1eef 22bd
00000310: 2b1d a03e b6d6 06be 0e76 103e 1db6 51be
00000320: 6558 ea3d c476 dd3d 8788 953e e0d5 b53d
00000330: 8062 5f3e 2232 c33d 707d a5be 7ac7 f33c
00000340: 7955 973e b006 9c3d 5889 11bd ef0e bc3d
00000350: 6924 b1be 1bd9 533d d945 a8bd 2693 e4bc
00000360: ab29 593e 2b54 91be 9e57 8bbe 83eb ab3e
00000370: 8080 e73d aa65 18be 9758 453e 1d0b e93d
00000380: 0c92 1ebd 4bb1 043e b2f9 663e 0002 273e
00000390: 42cf 89bd 765d 8f3e 22bd de3b 93ac adbc
000003a0: 3e9b 4dbd 351c 8c3c 2254 653e 9db1 3e3e
000003b0: 1bc0 383e f1b6 5f3c fccf 9d3d 8b71 33bc
000003c0: 8906 ebbd 4035 4c3d 75a3 c63d 0683 d3bc
000003d0: 96b9 13be 5754 f0bd 99bf d93d 5ff1 2fbc
000003e0: 8965 86bd 45b1 203e 2159 33be 8356 4e3d
000003f0: 8812 a03e 967b 053e 0550 733d 684e 973d
0.21209493 -0.066954926 -0.04064286 -0.06820559 -0.186898 0.1234073 -0.40071648 -0.07736341
-0.10321399 -0.12180536 0.11940003 -0.05246063 -0.0108727515 -0.062519975 -0.07680665 0.32126316
-0.041162975 -0.14779457 0.15460524 -0.14596994 -0.03887508 0.04813577 -0.05900763 0.27532485
0.0069144187 0.2655456 -0.14062454 0.033036858 -0.20179403 0.046728786 0.06187805 0.053956863
-0.17818066 0.1282696 -0.1737836 -0.49322388 0.05929098 0.22810428 -0.26380453 -0.056814928
-0.32254636 0.08253917 -0.020701736 0.09355774 -0.23801547 -0.17655085 0.12418474 0.1714404
-0.109301075 -0.009919014 -0.010047075 -0.1350504 0.15037215 -0.04878118 -0.13408701 0.0825434
0.43413422 0.110028975 0.0009245777 -0.06404343 -0.1577636 -0.25957125 -0.070469126 0.05788567
0.2953203 0.11767601 -0.16265085 -0.059079796 0.017975358 0.06930508 -0.28464594 -0.16294403
0.008631927 0.026847972 0.15286876 -0.11229061 0.3130843 -0.015847525 -0.082353264 0.2694552
0.12128908 0.043913893 0.049910985 -0.10232131 0.05570023 0.1876211 0.17043911 -0.14089684
0.051257666 -0.013437037 -0.27069318 0.12871115 -0.17527594 -0.26906794 0.2603884 -0.17125796
-0.053742796 0.1114839 0.00048353028 -0.16668727 0.06985957 0.14013094 -0.2725913 -0.04067865
-0.40812296 -0.014546572 0.077541545 0.3266571 0.09308534 -0.24391674 0.084891446 0.0057836454
-0.07306293 0.06353854 0.18851043 -0.4206409 0.04236158 -0.020791298 0.00074980024 0.027946398
0.143097 0.15332776 0.025339678 -0.22588235 0.16233161 -0.18920928 -0.1252404 0.066233024
0.30907506 0.04549978 -0.0033606628 -0.035632953 -0.15379047 -0.116083965 -0.36908942 -0.023589872
0.10894559 0.022954302 0.022000117 0.011777979 0.28359318 0.18356922 -0.12655637 0.5036728
0.15490976 -0.08632399 0.002284392 -0.058777314 0.12483564 -0.043126337 0.30400193 0.014720753
0.12699766 -0.05200845 -0.2105379 0.23270895 -0.33389577 -0.02725332 0.2147804 -0.14078173
-0.035025816 -0.10747013 -0.26259965 -0.37898007 0.004927314 0.24836572 -0.27560633 0.050137162
-0.46290258 0.14646828 -0.048196975 0.11300088 0.058440447 -0.14096843 0.037049275 0.22271685
-0.014526591 -0.020554714 0.18608685 -0.2966536 0.23252958 0.1298504 0.063796364 0.099344335
0.4178145 0.08257867 0.11699019 -0.34088522 0.1143289 -0.2529528 0.0025840623 0.056541942
-0.17801288 0.049691018 0.0141211385 -0.03977882 0.31272253 -0.13167843 0.14107534 -0.20479627
0.11442641 0.10813668 0.29205725 0.08878684 0.21814919 0.095310465 -0.32322264 0.029758204
0.29557398 0.07618463 -0.03553137 0.09182536 -0.3459809 0.05172072 -0.082164474 -0.027902197
0.21207301 -0.28384528 -0.27215284 0.3357812 0.11303806 -0.14882532 0.19272076 0.11379073
-0.0387135 0.12958257 0.22556189 0.16309357 -0.067289844 0.28000993 0.0067974487 -0.021200454
-0.05019688 0.017103294 0.22395375 0.18622442 0.18042032 0.0136544565 0.077056855 -0.010952364
-0.11475856 0.04985547 0.09699146 -0.025819313 -0.14426264 -0.117348365 0.106322475 -0.0107387
-0.06562335 0.15692623 -0.17514469 0.050375473 0.31264138 0.13035426 0.059402484 0.07388002

actorNet.2.bias f4 [64]
00000000: 9eba 08be d469 a63d 7eda 35bd 0e13 8abc
00000010: b844 d73c 14a6 ed3d c78c 8cbd 780b 293e
00000020: 8ecd aa3d 52b8 93bd 2709 803d e167 953d
00000030: 011c aebc 7918 50bd 530f 703d 4935 bc3d
00000040: 9dbc 123d 7c14 22bd 2e35 83bd 3650 71bd
00000050: b735 3fbd 1e00 d03d 57de 753d e6d7 cb3b
00000060: 3b85 003d ca62 c0bd 5598 04bd 5118 363d
00000070: 714b 103d bce6 3cbe 4b07 febd a2ae 48bd
00000080: f0ae ecba af4c 3c3b 530a a1bc 95e7 a8bd
00000090: 62f6 b03d 3ada dabd 7483 023e 9194 cbbd
000000a0: eb14 863d d7c0 e7bd a242 413c b99d 3fbd
000000b0: fdc5 ce3d dce3 2c3d 3d2d 37bc cc7a 85bd
000000c0: 02d8 d43d b04b 2dbc 2c01 f8bd 8c12 50ba
000000d0: 60e0 afbd cf06 bdbd 8293 2b3d 19ed 093d
000000e0: 7f91 97bc 9741 833d deaf a6bb 418e eabc
000000f0: 1f6a 8dbd cee4 9ebc a860 f03d f1df 65bd
-0.13352439 0.08125654 -0.044397824 -0.01685479 0.026277885 0.116039425 -0.06862789 0.16508281
0.08339988 -0.07212891 0.06251746 0.07295204 -0.021253588 -0.05080459 0.058608364 0.09189851
0.035824407 -0.039570317 -0.064066276 -0.058914386 -0.046682086 0.10156272 0.060026493 0.0062208055
0.03137706 -0.093938425 -0.032371838 0.044456784 0.035228197 -0.18447393 -0.12403735 -0.048994668
-0.0018057507 0.002873223 -0.019658243 -0.08247296 0.08640744 -0.10686155 0.12745458 -0.09940446
0.065469585 -0.11316078 0.011795672 -0.046781275 0.10096357 0.04220949 -0.011180219 -0.06517562
0.10392763 -0.010577127 -0.121095985 -0.0007937334 -0.08587718 -0.09229814 0.04188872 0.03367338
-0.018501995 0.06408995 -0.005086883 -0.028632285 -0.069050066 -0.019396212 0.11737186 -0.05612177

actorNet.4.weight f4 [4, 64]
00000000: d38b 843d 9163 0a3e 63be 6e3e 08a1 0f3e
00000010: 8a2b f3bd 3541 1ebd b366 ddbd 96c9 543e
00000020: 59a0 26be 86db 0ebe f2f4 03be 2d50 083e
00000030: 2b1d 7c3d 6632 acbd f69e e43d 60f4 053e
00000040: 1bab 94bd bc75 343e 81f6 13be 6e22 743e
00000050: aa6e 803e f64e 573d 4535 3c3e ad6b 1dbe
00000060: 74ad 333e f58d 37be db84 05bd 1777 353e
00000070: 12fb 513e 68d7 94be 5283 8bbe 9288 2fbe
00000080: 1bb1 573e a292 c4bc d8b0 9ebc 9e9a 1bbe
00000090: 52e7 9f3d fb66 9bbe 12b3 393e 1b9a a83b
000000a0: f653 123e 9ca5 dabc 7e49 a7bd 3e57 e0bd
000000b0: 4509 523e e767 943c 8780 623e 548a c6bb
000000c0: 69a6 34be e045 ac3d f34b 403e 4643 3fbe
000000d0: 3950 01be edfa 72bd 8791 753d 83af 4fbe
000000e0: ffbb 86bd 6f59 1ebe 95ef 39bc 4862 07be
000000f0: 143a 843d 71b9 21be 052f ed3b 5704 1ebe
00000100: 8b2e dabd 0495 8ebe 546c 91be 683a 5cbe
00000110: e32e 57be e622 b93d 2456 603e 7dba 4b3e
00000120: ad96 123e 4517 85be 01b8 9c3e 9143 183e
00000130: 2e65 92bc 94d2 d9bd 5c1b 263e 53f5 0d3e
00000140: 96c3 f7bd 4e67 893d 7135 a73e b232 9d3d
00000150: ac15 8dbe 2cf3 2fbe 0750 97bc e3b6 ed3d
00000160: 1a79 9bbe 3e6c 90be e842 edbc 006f 9b3e
00000170: 0417 1ebe d6f8 9fbe 413b 893d ad29 aa3e
00000180: 4904 e9bd 35c4 f93d aa9b 2d3e b27c b53e
00000190: 88de b4be e2cf aabe 8594 753e 1e2c 033e
000001a0: c009 7c3d 4cdb 973e afdd 003e cbc0 a63d
000001b0: e4f4 f63d 5499 8f3e 4351 b1be ed60 09bd
000001c0: cada 473e 329c b53d 970f ba3d 1a8d e33d
000001d0: 5ed3 90bb 43bc 503e b892 c13d 1f0a 123e
000001e0: 895d 423e 1241 463d a1ed e8bc 9b2c c9bd
000001f0: cfb2 acbc e3a7 debd db23 70be 608c f6bd
00000200: a4b9 82be 8bdc b7bd ae2b 63be e0b4 623e
00000210: 5d1e 41bb c701 403e 8522 70be 554e 93be
00000220: 9a3e 573e 8133 013e 23e2 333e 1615 91be
00000230: 5b0a e63d 6ea6 163a 3ba8 813c 4371 803e
00000240: d481 c3bd 577a 95be 3b20 283e 3493 9bbe
00000250: 41a8 30bd 2c12 bf3d bc1c a4be dfe0 773e
00000260: 7496 3fbc 122c ba3d 2674 37be 1863 00be
00000270: 2eb6 98be 4c33 123e 9af0 d53e 6281 6fbe
00000280: 4496 e2bc b00b 6c3e f6e4 bf3d dc22 0bbe
00000290: c5b9 db3c 4507 583e 8e6b e2ba 8271 a0bd
000002a0: ff99 8dbe f3bb 2f3e 75cc 5c3e ea91 913e
000002b0: 5014 a9be 90aa 3dbe d743 e53d 3c0d cd3d
000002c0: 5f13 85bd f7b6 6a3e c8de 333d 0593 683e
000002d0: 1de0 003e f5a9 03be 8cdf 16be 6550 47be
000002e0: 87c8 d0bd d275 903e 45f6 5d3e 3aac 2c3e
000002f0: 7ca2 95bd dd3d 7d3e 6dfb 033e cdd7 ac3e
00000300: fdaa 86bb 88ed 073e f761 6a3e cfe8 48be
00000310: 44a9 acbd 601c cbbd 8355 973d e4ac b7be
00000320: 7c06 81be ec11 693e 061b 86be e0f7 9d3d
00000330: d9d9 193d 0590 843e 6e4d 42be dde0 89be
00000340: 78e7 323e 5b5f 0d3e dbe1 b8be 6255 ca3d
00000350: fc78 983e 69f9 36be 0e60 513e 0adf 57be
00000360: 307e 463e 060b bb3e 6e8c 4b3e 82e4 b9be
00000370: b133 8a3e f79b 403e 4989 1bbe 7178 0c3d
00000380: 2cc3 693e 4738 7cbd 6b41 6abe 028c 823d
00000390: 0fd7 d8bd 737c c23e 04e5 88be 8637 b83c
000003a0: f34a 3bbe e84b d5bd c9ee 59be 356c 42be
000003b0: a4da 103e bcb4 bc3d 951a 513e 86b2 fe3c
000003c0: 258d f03b 6b60 6a3d a179 e4bd 73a2 36be
000003d0: f596 40be c26b ebbd 9d48 8a3d 8cf0 053e
000003e0: 0336 dbbc b5ce 55be 10c4 4bbd 3227 ed3d
000003f0: 1714 a83b 4ef0 ec3c e976 e2bd 87ed a7bd
0.06471982 0.13514544 0.23314814 0.14026272 -0.11873539 -0.038636405 -0.10810604 0.20780024
-0.16272105 -0.13950929 -0.12886408 0.13311835 0.061551254 -0.0840805 0.11163132 0.13081503
-0.07259198 0.17623037 -0.14449503 0.23841259 0.2508443 0.052565537 0.18379696 -0.15373106
0.17546636 -0.17925246 -0.032597404 0.1772121 0.20505932 -0.29070592 -0.27248627 -0.17141941
0.21063654 -0.023995701 -0.019371435 -0.151957 0.07807793 -0.30352005 0.18134716 0.005145324
0.14289841 -0.026690297 -0.081683144 -0.1095414 0.20511349 0.01811595 0.22119342 -0.0060589705
-0.17641605 0.08411765 0.18778972 -0.18678007 -0.12628259 -0.059321333 0.05995324 -0.20281796
-0.06578826 -0.15463804 -0.011348625 -0.13221085 0.0645639 -0.15793397 0.007238271 -0.15431343
-0.106534086 -0.27848065 -0.2840296 -0.21506655 -0.2101398 0.090398595 0.2190786 0.19895358
0.14315291 -0.25994316 0.30609134 0.14869525 -0.017870512 -0.10635868 0.16221374 0.13863115
-0.12097852 0.06709157 0.3265796 0.07675685 -0.27555597 -0.17182606 -0.018470777 0.116071485
-0.3036583 -0.28207582 -0.028962567 0.30358124 -0.15438467 -0.31244534 0.06700755 0.3323492
-0.113777705 0.12195627 0.16953912 0.35446697 -0.35326028 -0.33361727 0.23982437 0.12809798
0.061532736 0.29659498 0.12584566 0.08142241 0.12058428 0.28046668 -0.3463231 -0.0335397
0.19517055 0.088676825 0.09085005 0.11110897 -0.004419728 0.20384316 0.094518125 0.14261673
0.18980993 0.0484019 -0.028433623 -0.09822961 -0.021081356 -0.108718656 -0.23451178 -0.12038493
-0.25532258 -0.08977612 -0.22184631 0.22139311 -0.002946756 0.18750678 -0.23450668 -0.287707
0.21019974 0.12617303 0.17566733 -0.283364 0.11232444 0.0005746846 0.015827289 0.25086412
-0.09546247 -0.291949 0.16418545 -0.30385745 -0.04312921 0.09329638 -0.32053173 0.24206875
-0.011693586 0.09090437 -0.17915401 -0.12537801 -0.29826492 0.1427738 0.41785127 -0.233892
-0.027659543 0.23051333 0.09369843 -0.13587517 0.02682198 0.21096523 -0.0017274485 -0.0783415
-0.27656552 0.1716154 0.21562369 0.28431636 -0.3302331 -0.18522096 0.1119458 0.1001229
-0.06497835 0.22921358 0.043913633 0.22712334 0.12585492 -0.12857802 -0.14733714 -0.19464262
-0.101944976 0.2821489 0.21675976 0.16862574 -0.07306382 0.2473063 0.1288888 0.33758393
-0.004109739 0.13274205 0.22888933 -0.1962006 -0.08430722 -0.099175215 0.07389357 -0.35874093
-0.2520026 0.22760743 -0.26192492 0.07713294 0.03756127 0.25891128 -0.1897485 -0.2692937
0.17471111 0.13805906 -0.36109814 0.09879567 0.29779804 -0.1786858 0.20446798 -0.21081176
0.19384074 0.36531848 0.19877788 -0.3630715 0.26992562 0.18809496 -0.15189089 0.03429455
0.22828358 -0.061577108 -0.22876517 0.063743606 -0.10587894 0.37985572 -0.26737225 0.022487413
-0.1829031 -0.104148686 -0.21282496 -0.1898659 0.14145905 0.0921416 0.20420296 0.031090986
0.0073410445 0.057220858 -0.111560114 -0.17835407 -0.18807586 -0.114951625 0.06752131 0.13080043
-0.026759153 -0.20879634 -0.049747527 0.115797415 0.005129348 0.02892318 -0.110578366 -0.081996016

actorNet.4.bias f4 [4]
00000000: 1067 9a3d 8a4b 613d 7368 bdbc 4c63 8dbc
0.07539189 0.05500368 -0.023121094 -0.017259263

criticNet.0.weight f4 [64, 8]
00000000: 71b1 b4be bac7 693e fe6a e2be 089d 1fbe
00000010: a261 d83d 7964 d6be cb01 79be 361c a63e
00000020: e6b8 813f 9d3e 1f3e 8b1f b53e 9780 aabe
00000030: a7fc bebd cc36 413e 9b3f 7e3d 848c d6bc
00000040: aaa6 d9be e65a 233e b846 d7bc dfb4 9dbe
00000050: f987 0a3d 6914 aa3c adcf 98be d290 d1bd
00000060: e551 8ebd 4f23 303e 032d 843e 4c92 d63e
00000070: f658 aabe 7059 0bbf 3419 9bbe 2819 603e
00000080: d16d 41be 0232 933d 74b7 e4bd 4d41 0abf
00000090: edc6 873e 3bf0 7cbe 8a9c c9be d633 afbd
000000a0: 2105 6a3e cc6c 0d3f bb1c 18be d025 9d3e
000000b0: bebd c5be 934e b8be 6591 c83d 58a2 1bbe
000000c0: 1603 babe 32dc b3bd 4855 023f 2011 95be
000000d0: 75c4 57be b608 123d 3f76 ce3d 5a04 d03d
000000e0: 18b9 2bbf 89c1 c73c 4e17 49bc cd1a d2be
000000f0: a455 db3e a155 b03e 8880 433d aa3e 3d3e
00000100: c640 843f 83f1 80be 8767 ef3e 5086 a03e
00000110: 3913 95be 3a5d 92be 147b 2a3e ebf4 9bbe
00000120: 0266 72be 6c5e f73e 73f0 f73e 7038 a33d
00000130: a179 99be e513 d53d b9c6 6ebe 46f8 0b3d
00000140: 6526 35bf 3cf9 a9be 2231 9abe 073d cdbe
00000150: 0661 303e 87ea cc3c 48be 183e 3b72 963c
00000160: 1fd1 5e3f 4741 51be f165 1bbe e3d0 babe
00000170: cb3f f1bc e473 51bd 2f85 84bd 1619 3a3e
00000180: 205f 47bf 1d73 b9be 15cb 313e 7620 9e3d
00000190: 528b d73e b3c6 343e eec5 cdbd e4dc 503d
000001a0: a4e7 8d3e 29ae 3bbd ef65 2b3e 480d 04bf
000001b0: c322 2abe da7c c83e c2e5 3abd 71fc 733e
000001c0: b1d3 12bf e8bc 9e3e 9762 cf3d 4692 89be
000001d0: a93d cb3e 1ed6 b1bd 2c56 8bbe 121a 23be
000001e0: 64f8 213e 90fb 6abd 7523 2cbd 2a50 55be
000001f0: 5ab6 a9be ecb1 0bbf be4d 8fbe d87a 20bd
00000200: b9cc 27bf da45 023e d434 75be 448a a13d
00000210: df45 a33d 87c7 6dbe 341e b23d 679d 4ebe
00000220: 47ef d7be fd19 1c3e cc43 8e3c c987 803e
00000230: 2747 983e 4c54 b5be 4bb8 fcbd 1fb1 ea3d
00000240: a9c8 8bbe d219 94be 8f8f 63be 2ced fcbe
00000250: dbf5 953c 9e87 c13e 5791 80bd b6ca 813e
00000260: 0d01 9fbe 861a 25be 7b27 e7be d244 2c3f
00000270: 9ad7 85bd 0502 a0bd 4f04 63bd b64e 85be
00000280: 0ee8 16bf d8f8 babe 797d cd3d c223 adbe
00000290: 42a4 c13e 6093 17bf b429 fcbd 4863 25be
000002a0: fc6a 6e3f 78c2 1a3f b42f 933e 2d21 63bb
000002b0: 87e8 bfbe 7935 c5be a204 023e cff2 be3c
000002c0: ad22 663d 3add 643c 2b31 a7bd acee 24be
000002d0: 6fb0 8ebd 5c4e 32be 9828 8abe ac53 9d3e
000002e0: 17a9 bd3d c9ea f9be 3c18 883e 1b58 81be
000002f0: 22e5 ec3c 4de9 493f 7998 6cbe 61b1 893e
00000300: 6164 943e 5952 333e 3ccc bcbd 1ecc e93d
00000310: abb3 1fbd ce33 12bd d730 dabd 3840 b53d
00000320: e19b cebe 1645 493e cc46 ea3c b90b 93be
00000330: c193 623c f109 14be d142 df3c 815b 9fbe
00000340: 3c1d 573f 22b0 893e 7433 b63e 0f02 093f
00000350: d65d a1be d35e 8f3c 53d5 a03d b531 32bd
00000360: f216 0cbf c850 3abf a5f1 6c3d 810f aebd
00000370: c030 83bd e959 f33e a280 3cbe c8dc 443e
00000380: 58c8 093f 1d28 013f cbdc 993e 07f2 423e
00000390: 71a4 d5be 6dd7 a1bd dfc1 8bbe 0e0e 8c3e
000003a0: 7be8 dc3e 57c4 08bf 38d2 e13d 7dc8 25be
000003b0: 24dd 4e3d 21e3 403f 6b10 763e 3052 9cbe
000003c0: 9923 55bf 148a 05bd 53f9 4fbd 7220 72be
000003d0: fa70 a13e 331b 87be e4aa 2e3d 72bd 3cbd
000003e0: 6ae9 fbbe 0971 22be 92af 0dbe 2f46 693d
000003f0: 17ef e93e 48fb 6ebd 4e2f 9a3b 072b 5abe
-0.35291627 0.22830096 -0.44222254 -0.15587246 0.10565497 -0.4187353 -0.2431709 0.32443398
1.0134552 0.15551229 0.35375628 -0.3330123 -0.09325533 0.1886856 0.062072378 -0.02619005
-0.42509967 0.15952644 -0.026278839 -0.30802056 0.03382108 0.020761685 -0.29845944 -0.102327004
-0.06949214 0.17200969 0.2581559 0.4190849 -0.33270997 -0.54433346 -0.30292666 0.21884596
-0.18889548 0.071872726 -0.111678034 -0.5400589 0.26518956 -0.24701016 -0.39377242 -0.08554809
0.22853519 0.55244136 -0.1485471 0.3069291 -0.38621324 -0.35997447 0.09793357 -0.15198648
-0.3633048 -0.08782233 0.5091138 -0.29114628 -0.21071036 0.03565284 0.100811474 0.1015708
-0.67079306 0.024384277 -0.012273623 -0.41036072 0.42838776 0.3444033 0.04773 0.18480936
1.0332267 -0.2518426 0.46758673 0.31352472 -0.29116228 -0.2858675 0.16648513 -0.30460295
-0.23671725 0.48314226 0.48425636 0.07969749 -0.29975608 0.10404185 -0.23317994 0.03417232
-0.7076171 -0.33197963 -0.3011561 -0.40085623 0.17224512 0.025014175 0.14916337 0.018365016
0.87037843 -0.20435058 -0.15175606 -0.36487493 -0.029449364 -0.051135913 -0.06470715 0.18173632
-0.77879524 -0.36220637 0.17362626 0.07721035 0.4209848 0.17653923 -0.10047518 0.050991908
0.2771579 -0.04582039 0.16738103 -0.51582766 -0.16614823 0.39157754 -0.04562927 0.23826768
-0.57354265 0.310035 0.101262264 -0.2686941 0.3969548 -0.08683418 -0.2721418 -0.15927914
0.1581741 -0.057368815 -0.042026002 -0.20831361 -0.33146936 -0.5456836 -0.27989 -0.039179653
-0.65546757 0.12721959 -0.23945934 0.078877 0.07972311 -0.23220645 0.08697167 -0.20177232
-0.42174742 0.15244289 0.017366312 0.25103596 0.29741785 -0.35415876 -0.123398386 0.114595644
-0.2730153 -0.2892595 -0.22222732 -0.49399698 0.01830571 0.3779878 -0.062777214 0.2534997
-0.3105549 -0.16123399 -0.4514731 0.6729251 -0.06535263 -0.07812885 -0.05542403 -0.26036614
-0.5894784 -0.36517978 0.10033698 -0.33816344 0.3782063 -0.5920925 -0.12312642 -0.16151154
0.93131995 0.60452986 0.28747332 -0.0034657225 -0.37482092 -0.3851736 0.1269708 0.02330914
0.056185413 0.01396876 -0.08163675 -0.16106671 -0.06967246 -0.17412704 -0.26984096 0.307279
0.09260767 -0.4881194 0.2658099 -0.25262532 0.028917853 0.78871614 -0.23105039 0.26893142
0.28982833 0.17511882 -0.09218642 0.114158854 -0.038989704 -0.035693936 -0.10653847 0.088501394
-0.403533 0.1965526 0.028598212 -0.2871988 0.013829173 -0.14456917 0.02725354 -0.311245
0.84028983 0.2689219 0.3558613 0.53518766 -0.31516904 0.01750127 0.07853188 -0.043504436
-0.5472251 -0.7277951 0.057847638 -0.08499051 -0.06405783 0.47529534 -0.18408445 0.19224846
0.53821325 0.50451833 0.30051264 0.19037639 -0.4172702 -0.07902417 -0.2729635 0.27354473
0.4314612 -0.5342459 0.11026424 -0.16189761 0.050503865 0.7534657 0.240297 -0.30531454
-0.8325744 -0.032602385 -0.050774883 -0.2364519 0.31531507 -0.2638794 0.042643443 -0.046079107
-0.49201518 -0.15863432 -0.13836506 0.056951698 0.45690224 -0.05834511 0.004705346 -0.21305476

criticNet.0.bias f4 [64]
00000000: 4bec 82bd 910d 71be 7a8f 6ebe e230 5abc
00000010: ac0a 91be 1f0d 243e e552 2ebe 52e4 6fbe
00000020: 3db2 d43c b1c3 bc3d aac7 e1bd 5648 a8be
00000030: da83 92bc 3777 31be 7abf 32be c0b7 2ebe
00000040: f6d5 9a3d 2135 1d3d 544b acbe 7e9b e83e
00000050: 1747 b3be b172 d1bd c972 60be c779 fbbd
00000060: 459c 293d b259 79be f33f 743d a29b 2d3c
00000070: 28f2 963b ccac 85be c959 5cbe a278 56bd
00000080: 7e70 c53e b633 77be 47b3 683e 08bb 7a3d
00000090: f845 af3e 58f5 b3be 9a41 293e 1ac0 c63e
000000a0: f0f4 473e bb82 6a3d ce27 d03e a825 853d
000000b0: 5e66 6f3e 802d 7cbe cb2e 1dbe 01b3 ebbc
000000c0: 76c6 f7be 570a 933e c843 2c3e 59e1 8cbe
000000d0: 8e22 97be ec03 f93e c9bb e1be ce2d 273e
000000e0: 5328 ae3d e2f0 3dbc 0dad 86bd 6d48 013e
000000f0: 2f77 d33d 145d 88be 9b47 b4be 90c3 923e
-0.063927256 -0.23540331 -0.2329692 -0.013317319 -0.28328454 0.1602063 -0.17023809 -0.23426941
0.025963897 0.09217013 -0.11024411 -0.32867688 -0.017885137 -0.17330633 -0.17455855 -0.17062283
0.07560341 0.038380746 -0.3365122 0.4543113 -0.35015175 -0.10226954 -0.21918787 -0.122790866
0.041408796 -0.24350622 0.0596313 0.010596188 0.004606504 -0.26108396 -0.21518625 -0.05236114
0.38562387 -0.2414082 0.22724639 0.061213523 0.3423307 -0.3514812 0.16528931 0.38818437
0.1952703 0.05725358 0.4065537 0.06501323 0.23378894 -0.24626732 -0.15349881 -0.02877188
-0.483936 0.28718826 0.16822731 -0.27515677 -0.2951855 0.48635805 -0.4408858 0.16326067
0.08503785 -0.0115930755 -0.065759756 0.12625284 0.10325467 -0.26633513 -0.3521088 0.28664827

criticNet.2.weight f4 [64, 64]
00000000: a3d9 b93d 4a9b 6b3e 1e11 bd3e 80c0 47be
00000010: 3dd5 193f 84eb 0c3e 1bbf 81bb 5e8a aa3e
00000020: 44f7 94be 3b15 ed3d bd63 353d fd59 703d
00000030: 481a 99bb 1bb0 8c3e af13 783e 7591 f33d
00000040: 16b3 de3d de18 2abd 0d26 dc3c 076c 9cbe
00000050: b21f 193d f754 ba3d e615 adbc 0730 e5bd
00000060: 52c4 ea3c c6b1 993e 5b59 8bbe cdb5 67bd
00000070: 2305 81bd 329f c3bd 53ed 433e f66b 293d
00000080: 8a70 4abe e201 a03e 959a 8fbd 2acc 15be
00000090: 68b6 1ebe 9578 0d3f 85d9 2bbe f7fc 0abf
000000a0: 4c54 0e3d 153f 69be 4394 86be 08b4 82bd
000000b0: 8b4d a0bc 0ed6 163f 977e 043e d8a5 c73d
000000c0: cabd af3d 7b24 83bd 2d2f 3dbe 8073 6ebc
000000d0: 1f05 ac3e 9c3c 0bbf 8068 993e dfe4 58bd
000000e0: 2fc1 f3bd 852f 7ebd 217e e5bd 92c9 9cba
000000f0: 7525 5e3d 6723 f63d 3254 02bd e93a 14be
00000100: ff1c aabc a35a 01be ca90 083d 37f7 293d
00000110: 6806 1f3d a76b c03d ef96 f33d 1bf7 c9bd
00000120: 3a0b cc3d 2b74 613e c90c 893d 065a d6bd
00000130: 379e 293d 1fa8 283e 397c d7bd 7e34 183e
00000140: 0ac8 ef3d 8aa5 ff3c 3ffc 79bd c92a f0bd
00000150: 3c3a bf3c 56c5 d2bd f3e0 25bd 3511 893d
00000160: 8e27 673d 8e84 dabd 57b4 f23c 4e81 543e
00000170: bada 393d 40d4 97bc 4246 b7bc c78e 843d
00000180: 0178 72bc 4fe0 023e d194 a03d 9f7c 85bc
00000190: dd34 0c3d 8a6e 02bc 49a9 113d 1eec 9c3d
000001a0: 2063 1b3c c543 c2bd a439 a73d 73e4 06be
000001b0: 6e70 833c bfab a7bd d28e c4bc 334e 0d3d
000001c0: db5c 563d d641 943d 9fbe d53c e52a a1bb
000001d0: 3184 0ebe 76b1 04be fece 17be 43f0 9dbd
000001e0: 5749 5d3d 0ec3 973d 95bf 3cbd 0d4c 2a3d
000001f0: 8d5e ddbd 314a 6fbc 88c7 823d 2331 0abe
00000200: 7129 cf3d 0aed 2b3e 352b 1f3e b435 9d3e
00000210: 1b8a 8d3e 5a15 923e c58d 59be aa9c 76be
00000220: 92a7 a53d 21ba 263d c640 5cbc c1ca 0b3e
00000230: b106 62be 258a 8fbe ac47 403e 1c0e af3e
00000240: cf98 913d e22b 773e 3f5e 33be fcbf 21be
00000250: 3801 6f3e ab60 c03e c1df 693e f825 06bf
00000260: fd88 9ebc 34fe a33d b4c1 9a3d a12d ecbe
00000270: b290 d13d bf28 87be 83c8 103e 9fed 103e
00000280: 7f67 6dbe 2699 943e 1721 4d3c 337e ea3d
00000290: fbe0 4dbe 44c6 d73d 588e 3e3e fe41 7dbe
000002a0: c75a 1dbe 007d 7abe 5b60 083e f001 9c3d
000002b0: e3fb 353e 8a38 e23d 9d27 ddbd 34d4 02be
000002c0: e99d 4e3e 6da7 793e f6bd adbe 3934 55be
000002d0: 1719 e9bb a071 ffbd 1995 453d 7f3c 51be
000002e0: 34a7 33be 8203 2fbd 921d 2abe fe83 d6bd
000002f0: 6590 7fbe 4a63 e33e d0f7 473e 0666 c8be
00000300: 202e 5dbd 6ac9 b6bc 3841 a0bd 9ac6 21bd
00000310: d2e3 e33d a620 c43d cb4d 4e3c a7b4 aebc
00000320: 6195 aebc 98d3 5d3d 76ce c1bd 7c56 633d
00000330: 9fce e5bc bdb2 9f3d b4bc fcbb 9dc8 193d
00000340: 84b4 0b3d 6c8a a73c 41dc 47bd 8cc5 84bc
00000350: fdee 9abc 6498 8b3c 77a5 1fbd cc5c 623d
00000360: 56d1 db3c fd03 03be e322 a1bb 798f e739
00000370: 7137 9b3a 3dc7 eabd 1ed9 14bd 49ce 0e3d
00000380: ca9d 9abd cf20 bebd 3606 e53d 1db2 9b3a
00000390: e695 083e 7280 4dbd 5d54 663c 7294 2e3d
000003a0: 579f 65bd 8644 253c 2e0c 2cbd 7e5d 553d
000003b0: c7eb 683d 2540 8d3d 09bc f5bd 2b10 a4bd
000003c0: 0bcb b6bb d671 c4bd edd7 95bd c0e1 ff3d
000003d0: e6bc 53bd 60a1 b4bd 20f6 c13d 1fcf 9fbb
000003e0: 4bb9 003e 053a 023e 7224 dabd 7c58 6d3d
000003f0: 09f8 f9bd ed33 443d fa46 2b3e 5a50 55bd
0.09074714 0.23008457 0.36927122 -0.19507027 0.60091 0.13761717 -0.003959549 0.3330869
-0.290949 0.11576315 0.04428457 0.05867957 -0.0046723224 0.27478108 0.24226259 0.11892978
0.10874002 -0.04152762 0.026873613 -0.30551168 0.037383743 0.09098237 -0.021128606 -0.11190801
0.028658066 0.30018443 -0.2721661 -0.056569863 -0.06299808 -0.095518485 0.19133501 0.041362725
-0.19769493 0.31251436 -0.07011906 -0.14628664 -0.1549927 0.5526212 -0.16782196 -0.54292244
0.03474836 -0.2277797 -0.2628499 -0.063819945 -0.019568225 0.5892037 0.12938915 0.09748429
0.08581121 -0.064034425 -0.18475027 -0.0145539045 0.33597657 -0.5438936 0.2996254 -0.052952643
-0.11902081 -0.062057037 -0.11205698 -0.0011961928 0.05423494 0.12018471 -0.031818576 -0.14475597
-0.02076578 -0.12632231 0.033341207 0.041495528 0.03882447 0.09395533 0.11894023 -0.09861585
0.09963079 0.22016971 0.06691892 -0.10466389 0.04141065 0.16470383 -0.105217405 0.14863774
0.11708076 0.031206865 -0.061031576 -0.117269106 0.023343198 -0.10291545 -0.04049773 0.06692735
0.056434207 -0.10669814 0.029627008 0.20752451 0.04537461 -0.018533826 -0.022372369 0.06472545
-0.014799119 0.1278088 0.078408845 -0.016294776 0.0342301 -0.007960925 0.035561834 0.07662223
0.009484082 -0.09485582 0.08165291 -0.13173084 0.016044822 -0.08187055 -0.023993883 0.034498405
0.052334648 0.0723912 0.026091872 -0.0049184435 -0.13917615 -0.12958321 -0.14825055 -0.07711842
0.05402502 0.074102506 -0.046081144 0.041576434 -0.1080905 -0.014605091 0.06385714 -0.13495307
0.10115326 0.16789642 0.15543826 0.30705035 0.2764443 0.28531915 -0.21245487 -0.240832
0.08088602 0.04070485 -0.013443178 0.13651563 -0.22072865 -0.28035083 0.1877734 0.34190452
0.07109224 0.24137834 -0.17516421 -0.15795892 0.23340309 0.37573752 0.22839262 -0.52401686
-0.01935243 0.0800747 0.07556477 -0.46128562 0.102326766 -0.26398274 0.14138989 0.14153145
-0.23184012 0.29023093 0.012520096 0.11449852 -0.20105354 0.10535863 0.18608987 -0.24732205
-0.1536666 -0.24461746 0.13318007 0.07617557 0.17771868 0.1104594 -0.10798571 -0.12776262
0.20177425 0.24380274 -0.3393399 -0.20820703 -0.0071135866 -0.12472844 0.048237894 -0.20433234
-0.17544252 -0.042727955 -0.16612843 -0.10474394 -0.24957426 0.4441169 0.19528127 -0.39140338
-0.053999066 -0.022312839 -0.078249395 -0.03949604 0.11127438 0.0957654 0.0125917895 -0.021326376
-0.021311464 0.05415687 -0.094632074 0.0555024 -0.028052626 0.077977635 -0.007712925 0.037544835
0.0341077 0.020451747 -0.048794035 -0.016207479 -0.018912787 0.017040439 -0.03897616 0.05526428
0.026833218 -0.1279449 -0.004917489 0.0004416665 0.0011842084 -0.11463783 -0.03633987 0.034864698
-0.07549627 -0.092836015 0.11182825 0.0011878643 0.13338432 -0.050171323 0.0140582 0.042622037
-0.05606016 0.010087138 -0.042003803 0.052091114 0.05686548 0.06897 -0.119987555 -0.08010896
-0.005578404 -0.09592025 -0.07316575 0.1249423 -0.05169382 -0.08819842 0.09470773 -0.0048769857
0.12570684 0.12717445 -0.10651483 0.057945713 -0.12205512 0.047901083 0.16726294 -0.052078582

criticNet.2.bias f4 [64]
00000000: 994c 3ebe 061b d9bc b522 1abe 1e54 a8bc
00000010: 5f7e 2dbd 7992 c43c 523c 16bd 9318 6dbd
00000020: ea20 5cbd b7c8 903c 4079 913e 79f6 e93d
00000030: 45f9 80bd b3b7 06be ba8e bc3e 2ec1 043e
00000040: 9ede 593d 8201 0f3e 7ca5 debd 7cc2 4abe
00000050: 44b6 ac3e 9c4f 2f3d 7e6f 8ebe df0c adbe
00000060: 9351 1d3c bc16 c53b a8f0 f1bd 9fd0 c63d
00000070: c3a2 b4ba 3e1a 963c 7e46 3bbe 345f 4dbd
00000080: 54d6 e9bd b846 b53d f863 2eba 5283 bcbd
00000090: 9bb6 9abe 1e25 35bd 5834 36be ec8c d33e
000000a0: 340d 77bd 90aa 0c3d de50 01be 3f22 25bc
000000b0: e87b e33d e3d0 9939 8e74 16bd a29d 28bd
000000c0: cb70 36be a0d7 383d f166 15be 9a91 e1bc
000000d0: 55fe d93d f5a0 dabe 4e86 da3d 3073 f13c
000000e0: 8742 653d 7994 e83d 8629 983d 207d 153d
000000f0: 5130 5a3d 6877 95bd 15cf f43d d863 2d3e
-0.18583907 -0.026502144 -0.15052302 -0.020547923 -0.042356845 0.023995625 -0.03667862 -0.057884764
-0.053742327 0.017673833 0.2841282 0.11423964 -0.062975444 -0.13156013 0.36827642 0.12964317
0.05319082 0.13965419 -0.108714074 -0.19800752 0.33732808 0.04280053 -0.27819437 -0.33798882
0.009601968 0.006014673 -0.1181348 0.0970776 -0.0013781417 0.01832306 -0.1828861 -0.05013962
-0.11417833 0.08851379 -0.000665247 -0.09204735 -0.30217442 -0.04422485 -0.17793405 0.41318452
-0.060315326 0.03434235 -0.12628505 -0.010078966 0.111076176 0.00029338067 -0.03673225 -0.041165955
-0.17816465 0.04512751 -0.1459005 -0.027535249 0.10644213 -0.42700925 0.10670148 0.029473871
0.05597165 0.11356444 0.07429795 0.03649628 0.053268734 -0.072981656 0.1195356 0.16932619

criticNet.4.weight f4 [1, 64]
00000000: 3195 9c3e 4fe9 083c cc9c 8cbd 94e7 afba
00000010: 7e30 113b 13c1 46bc 6497 0a3c 7bde 5b3b
00000020: c6f0 e83b 13d2 fe3b 3a85 80be 4786 ce3e
00000030: 115e 8cbb 8579 e4bc 5932 d5bd 53df 9a3c
00000040: 9810 28bb 7b9b fc3b 596b 82bc f63e 08bf
00000050: 1e36 a53d 54a2 4cbb 06ba 373e 436b 983d
00000060: e5f6 c4b9 c80f 9b3b 7192 5fbc 371d 543b
00000070: e09b dfbb 98e5 613a ef90 32be 58f4 a4bb
00000080: ef3a dcbb 0197 55ba 6ed0 723c bd07 ffbb
00000090: da6b 833d 873e ce3b 5415 683e 1eb2 32be
000000a0: 8ef7 adbc 7fbb 96bc 50d3 65b9 704e 4e3a
000000b0: d0e3 163c 47f8 1dbb 227d 1ebc 6452 b1bb
000000c0: 2359 823b 9a60 a43c ed86 0bbc b46e 203b
000000d0: 4746 413c b9cb b6be dab7 a03c f4bb e6bc
000000e0: 9de2 163c 5383 34bb 4378 c8ba 8fc4 683c
000000f0: 1c2f 603a 9209 04bb 00b0 22bb 0e0b 2f3c
0.30582574 0.008356406 -0.06865844 -0.0013420456 0.0022154148 -0.012130993 0.008458946 0.0033549357
0.0071087806 0.0077765076 -0.25101644 0.4033682 -0.0042836745 -0.027889976 -0.10409994 0.018905317
-0.0025644656 0.0077089644 -0.015920328 -0.5322107 0.08066963 -0.0031224685 0.17942056 0.074423335
-0.00037567984 0.004732106 -0.013645754 0.0032366046 -0.0068240017 0.0008617281 -0.174381 -0.005034011
-0.0067208926 -0.00081478065 0.014820201 -0.007782905 0.064170554 0.006294075 0.22664386 -0.17450759
-0.021236207 -0.018399952 -0.00021917862 0.00078699645 0.009209588 -0.0024104284 -0.009673389 -0.005411433
0.003977911 0.020065594 -0.0085160555 0.0024480047 0.011796541 -0.35702303 0.019618917 -0.028165795
0.009209302 -0.0027544096 -0.001529463 0.0142070195 0.0008551942 -0.0020147306 -0.0024824142 0.010683788
