PPO_multiagent_BipedalWalker-v3.pth (torch_old, 32251 bytes, 11 tensors)

actorNet.0.weight f4 [64, 24]
000000 1d be 5c 3e 93 eb 96 3b 82 f0 69 be aa be 27 bf
       0.21556897 0.0046057194 -0.22845653 -0.65525305
000010 ac 58 74 3f d1 aa b2 bd 11 ef d8 3e 01 fb 94 3e
       0.954478 -0.08723987 0.42369893 0.2909775
000020 b0 3f fb 3e 6f 18 02 bf 3f 66 3f 3e b9 e0 f7 be
       0.49072027 -0.5081853 0.18691348 -0.48413637
000030 92 41 ab bd 21 67 b9 be f9 79 18 be 64 cf 64 3d
       -0.08362116 -0.36211494 -0.14890279 0.055861846
000040 0d 2f 11 3e bd 90 f1 3c 4e 8b 2f 3e 0a 61 72 3e
       0.14178105 0.029487962 0.17142984 0.2366983
000050 d1 67 a2 3c a7 08 35 3e fb 2c 84 3e 67 7c 56 be
       0.019824894 0.17679082 0.25815567 -0.20945893
000060 fe fe ec 3e 59 bb 2d 40 db cf a6 be 52 b3 ea 3f
       0.46288294 2.7145598 -0.32580456 1.8335974
000070 62 a5 1a 3f 8b 94 4c bd 20 86 60 be e7 3c 57 bf
       0.60408604 -0.04994635 -0.21926165 -0.84077305
000080 26 0d 3f be 17 8e 91 3d 44 69 14 bf 69 df 82 bf
       -0.1865736 0.071071796 -0.5797312 -1.0224429
000090 01 2b 8d be ed c1 d4 bc 98 dd c0 3e 01 ef 8e 3e
       -0.27571872 -0.025971377 0.37669063 0.2791672
0000a0 68 e9 06 3f da a3 d1 3e 24 b4 0e 3f 60 3d 86 3e
       0.526999 0.4094532 0.5574362 0.262187
0000b0 4d 4e a5 3e e8 a3 a9 3e db 1d a7 3d f0 7e 2a be
       0.322863 0.33132863 0.08159991 -0.16649985
0000c0 4b d7 10 3f 74 ac d4 3f 25 21 f5 bc fe 47 fc 3d
       0.5657851 1.6615129 -0.029923031 0.12318419
0000d0 4f 5b 35 bc 68 95 4e 3f 83 24 23 3f d1 db b6 be
       -0.011069133 0.80696726 0.6372759 -0.35714582
0000e0 69 40 78 bd a6 64 30 be 4c b7 85 3e c0 23 b3 3d
       -0.0606083 -0.17225894 0.26116407 0.08747053
0000f0 0b f1 15 be 02 b0 36 be b0 55 a1 3e 09 4a d3 3c
       -0.14642732 -0.17840579 0.31510687 0.025792139
000100 4f 50 d3 3e 36 eb a3 3e b0 12 e2 3e 3c d7 ad 3e
       0.41272208 0.3201539 0.44154882 0.33953273
000110 4d 16 42 3e 5d a4 f3 3d 18 06 be 3d 35 63 80 be
       0.1895382 0.11896584 0.09278506 -0.2507569
000120 78 1d 1e bf a9 e8 22 bf 9d 69 98 3e fc 8f 13 3e
       -0.61763716 -0.6363626 0.29768077 0.14410394
000130 1e eb 36 3f a7 d2 f8 3e 82 11 85 bf 7d 6b d2 b9
       0.7145251 0.48598215 -1.0395968 -0.00040134406
000140 bb d1 fb bb f2 7f 01 bd f0 18 71 bf b3 85 83 bd
       -0.007684914 -0.03161616 -0.94178677 -0.064219855
000150 8a 37 13 3f 26 de da be 93 82 f2 bb d3 be ed bd
       0.5750662 -0.4274761 -0.0074008196 -0.116086625
000160 05 5a 4e be 48 fb b4 bd 75 18 99 bd 6c dd 18 be
       -0.20151527 -0.088369906 -0.07475368 -0.14928216
000170 5a e8 21 be 2d 17 e2 3d 11 8f 57 3d 9c 88 0d bd
       -0.15811291 0.11039577 0.052626673 -0.03455411
000180 4f d4 f9 be 5a 8b ca bf 75 52 02 3f ed cb 35 3f
       -0.4879479 -1.5823777 0.5090707 0.7101429
000190 fa 24 3b bf 77 24 25 3f 50 79 ba 3e f1 d7 9f 3c
       -0.73103297 0.64508766 0.3642068 0.019512149
0001a0 54 9d 05 bf 6b e0 6b 3e 0e 8e 63 3f 3c 51 2e 3f
       -0.5219319 0.23034827 0.88888633 0.68092704
0001b0 b7 80 8e 3c 67 84 1c bf af 89 89 be 38 94 2b be
       0.01739536 -0.6113953 -0.26862857 -0.1675576
0001c0 a6 c8 5e be dd 7e 87 be 5e e3 07 be 84 5f 5b be
       -0.21756229 -0.26463977 -0.13270327 -0.21423155
0001d0 70 78 7b be 61 8a 00 be eb a6 c9 bc f4 99 c3 3c
       -0.24557662 -0.12552787 -0.024615726 0.023877122
0001e0 55 85 0a 3e 10 5a 7f 3f 51 60 23 bf 49 ac 26 3f
       0.13527425 0.997468 -0.6381884 0.65106636
0001f0 d0 cc b3 bd 2d 6d 3e 3f 7b 07 ac 3e a8 cc 18 bc
       -0.08779299 0.7438534 0.33599457 -0.009326138
000200 05 a8 80 3e b6 74 ef be 39 0b 45 3f 8e 7d e0 3e
       0.2512819 -0.4676873 0.7697025 0.4384579
000210 89 32 da be 39 a4 99 be 0e cd 91 3e 35 6a d3 bd
       -0.4261668 -0.30008104 0.28476757 -0.10322992
000220 c6 8d 85 3d 35 3b 61 3e 30 c6 3b 3e b0 b5 35 3e
       0.06521182 0.21995242 0.18337321 0.1774509
000230 e2 76 3b 3e 86 36 e9 3d 22 15 46 3e 60 e4 4f 3e
       0.18307069 0.11387353 0.19343999 0.20301962
000240 83 07 10 3f 65 a5 da be 85 7c 1a 3e 3e da ed bf
       0.5626146 -0.4270431 0.15086563 -1.8582227
000250 cd d8 46 3f f6 66 b8 be 4b 3c aa be 2c 17 23 3f
       0.7767456 -0.36016053 -0.33249125 0.6370723
000260 76 34 61 3f bf 79 1f be 73 62 06 bc 9b c9 37 bf
       0.87970674 -0.15573786 -0.008202183 -0.71792
000270 37 4f e2 3e 7f d5 55 bf 6f 44 ae 3e 27 48 82 3e
       0.4420106 -0.83528894 0.34036586 0.25445673
000280 39 ea 5e 3e 4a be 5b 3d d3 db 14 3e 62 db ae 3e
       0.21769036 0.05364827 0.14536981 0.3415175
000290 76 c3 71 3e 4a f7 4a 3e 94 9a b8 3d 18 34 00 be
       0.23609719 0.19820896 0.090138584 -0.12519872
0002a0 40 da ae be be cc bb bf d8 32 8b 3f 0f 75 84 bf
       -0.34150887 -1.4671857 1.0874891 -1.0348223
0002b0 c1 ab 4b bf f8 8b 80 bd a7 37 d1 3d d4 c3 85 3e
       -0.7955895 -0.06276697 0.10215693 0.26125968
0002c0 06 65 72 ba 5a e7 2f 3e 51 4e 9b 3c 5d 0d 6b 3e
       -0.0009246621 0.17178097 0.018958243 0.22954316
0002d0 97 4a af 3e b2 63 b9 3e cc 60 e7 3b 81 61 57 3d
       0.34236595 0.36208874 0.0070610996 0.05258322
0002e0 ff 01 88 be 36 f8 a0 be 40 e9 1c be 28 2f a1 be
       -0.26564023 -0.3143937 -0.15323353 -0.3148129
0002f0 56 d9 34 be 82 82 9c be ff 75 28 3e e6 92 af bd
       -0.17661032 -0.3056832 0.16451262 -0.085729405
000300 a0 bb 8f 3e 75 d3 9a 3f 3e 27 a2 be 2c 71 85 3f
       0.28072834 1.2095782 -0.31670564 1.0425162
000310 29 3b f6 3d 62 30 b4 be 31 49 ce 3f 52 9d af 3e
       0.12023003 -0.35193163 1.6116086 0.34299713
000320 be 37 e1 3e b1 cf d6 be 4f 9f 67 3e 81 ae e9 3d
       0.4398784 -0.4195533 0.22619365 0.11410237
000330 4a 3a a9 bd 8e 04 e6 be 14 85 d3 3d 2a 49 28 3e
       -0.08263071 -0.4492535 0.10328117 0.1643416
000340 b1 c5 1e 3d 88 e1 36 bd 00 94 ff 3d 7b 97 9e 3b
       0.038762752 -0.044648677 0.12479401 0.004839835
000350 ba f1 0a 3c 01 cb 92 3e 70 ec 25 3e be 3e 94 be
       0.008480484 0.28670505 0.16203475 -0.28954118
000360 6f 80 11 bf 5c 0b 71 3d e8 aa d4 3e bd 13 a1 3f
       -0.568366 0.058848724 0.4153664 1.2584149
000370 25 ba fa be a8 61 de 3e 31 b2 9e 3d aa 3a d6 3c
       -0.48970142 0.4343388 0.07748831 0.02615102
000380 fa b4 63 bf 7b 56 f2 3e 15 b9 4f bf dd 1a ce 3e
       -0.88948023 0.47331604 -0.8114179 0.4025487
000390 c5 57 c3 bd f8 32 83 3f dd 3b a2 3d 42 19 62 3e
       -0.09538225 1.024993 0.07921574 0.22079948
0003a0 70 b4 2e 3e 5b f1 b2 3d 2f 62 9a 3d 6f f5 db 3d
       0.17061019 0.08737441 0.07538258 0.10740172
0003b0 f3 1a 18 3e 93 b6 98 bc 42 4a f1 bc c2 94 a9 3e
       0.1485403 -0.018641746 -0.029454354 0.33121306
0003c0 8e 53 88 bf e2 b9 79 be 33 86 0d 3f 5d 75 31 bf
       -1.0650499 -0.24387315 0.55282897 -0.6931971
0003d0 00 72 22 3f 73 6f a6 3e cd aa 1f 3f ab cc 8e 3c
       0.634552 0.32506904 0.62369996 0.017431578
0003e0 75 5c 56 3f 87 d6 72 be 47 f0 7c 3e f7 7d 00 3f
       0.8373483 -0.23714648 0.24701034 0.5019221
0003f0 bd fa cb 3e a5 df 4b bf 72 c2 80 3d af 6a 82 3e
       0.39839736 -0.7963813 0.062870875 0.25472018

actorNet.0.bias f4 [64]
000000 9a 74 af be 33 85 99 bb 91 63 39 bd fa 1d 25 3e
       -0.34268647 -0.004685068 -0.04526097 0.16124716
000010 1f 65 52 be 98 b4 8e 3c 63 b9 bb 3d 2a 9a 10 3e
       -0.20546387 0.017420098 0.09166219 0.14121309
000020 b8 df 31 be c9 c7 9b 3e dd 21 54 be df 66 53 3d
       -0.17370498 0.3042586 -0.20716043 0.051611777
000030 16 a1 6a be 0c c8 07 3d ea 93 5e 3d 65 cd 2a be
       -0.22913012 0.033149764 0.05434028 -0.16679914
000040 fc fd 9e be 28 92 8a 3c 41 fd 0f 3e bb 59 d3 3e
       -0.3105315 0.016915396 0.14061452 0.41279396
000050 87 f1 a3 bd 7e 42 83 be 1e 44 8a bc 1a d4 9c 3d
       -0.08005052 -0.25636667 -0.016878184 0.07657643
000060 9f 00 0e 3c a7 e1 6b 3e fd 80 18 3e 6b 48 d6 3d
       0.00866714 0.23035298 0.14892955 0.104630314
000070 3d 66 c7 3e 3c 25 21 be 55 52 29 3e 57 39 9c 3e
       0.3894519 -0.1573686 0.16535313 0.30512497
000080 16 9d 56 3e fe ea bb bd 28 ce f6 3c dc 6c c4 3d
       0.20958361 -0.091756806 0.0301276 0.09591076
000090 6b fd 90 3e a1 f6 b8 3d b0 d5 fc bc 1f 99 70 be
       0.28318343 0.09031416 -0.030863613 -0.23495911
0000a0 44 b2 4a be fd 0f 92 3e 24 88 55 be 8d 2c ac 3e
       -0.19794565 0.28527823 -0.20852715 0.3362774
0000b0 59 9d 11 be b8 92 9f 3d 33 76 92 3e a9 be 77 be
       -0.1422018 0.07791656 0.28605804 -0.24193825
0000c0 c6 46 ef bc 36 49 64 bd 20 80 e6 bd fd 5f 97 bd
       -0.029208552 -0.055733882 -0.11254907 -0.07391355
0000d0 d1 ac 92 3d 1e 7a 9c be 46 44 ee 3d f5 0c 4f be
       0.07161868 -0.30561918 0.11634116 -0.20219786
0000e0 c0 09 ab be 69 e2 97 3e 45 26 49 be d0 82 9c bd
       -0.33405876 0.29664925 -0.19643505 -0.07642138
0000f0 9a ce 3d 3e 9b 4c 1c be 10 0d 79 3e 48 3e 0d 3e
       0.18535843 -0.15263598 0.24321389 0.1379329

actorNet.2.weight f4 [32, 64]
000000 78 44 34 3e ba 95 0c 3f f6 5c 0b 3f 77 cc 0d be
       0.17604244 0.54915965 0.5443872 -0.13847528
000010 eb c1 1d bf d8 fa df 3e 8d a0 45 3e 28 b4 d7 be
       -0.6162402 0.43746066 0.19299527 -0.42129636
000020 f7 0b 9b be 76 08 af be e6 7a 15 3f 6c da a7 3d
       -0.30282566 -0.34186143 0.58390653 0.081959575
000030 7e 2c ec 3e 9a db c9 3d d6 1f 0a bf b7 08 2c 3e
       0.46127695 0.09856339 -0.5395483 0.168002
000040 ee 28 09 bf ac 93 f3 be 33 02 11 bf d2 e4 06 be
       -0.5357808 -0.47573602 -0.5664398 -0.13173226
000050 3c 99 03 3f 83 5d 18 3f 32 0c d5 be 67 f9 c2 3e
       0.5140569 0.5951769 -0.41610867 0.38080904
000060 61 58 16 bf 24 4e ed 3d 89 25 69 3f ab b4 fc bd
       -0.58728606 0.1158717 0.910729 -0.12339147
000070 1a f3 e9 3e 9a f1 29 bf 6c 59 05 bf ba 9d 56 be
       0.45693284 -0.6638428 -0.5208957 -0.20958605
000080 37 c6 59 bf 7a e3 88 bd 47 d3 a5 3e 7c 81 ff bd
       -0.85068077 -0.06684013 0.32387754 -0.12475869
000090 a3 be 0e bf 78 b9 f6 3d 3c 78 25 bf 12 e4 3e 3e
       -0.5575964 0.12047094 -0.6463659 0.1864169
0000a0 b1 e8 b5 3e 6e 17 46 bf cd 81 b2 3d 9e 0a 22 3f
       0.35529092 -0.773795 0.08716164 0.6329745
0000b0 b1 6b 71 bd e3 23 ca be 58 15 f7 bd b1 1f 02 3d
       -0.058940593 -0.39480504 -0.12064618 0.031768505
0000c0 2c 3f 1c 3f d5 f3 fb 3d 19 19 c5 bd 4e c7 b4 3e
       0.6103389 0.12302367 -0.096239276 0.35308307
0000d0 ed 75 33 bf 9e 1b c3 3e 41 74 60 3e 8d f1 d6 3e
       -0.70101815 0.38107008 0.21919347 0.41981164
0000e0 40 53 4e 3e 73 ee f8 be 29 7f f1 3e eb 10 83 bf
       0.20148945 -0.48619422 0.47167328 -1.0239538
0000f0 57 9a 5c bd 40 5e 0d 3d b2 b4 15 3f e3 70 6d 3f
       -0.053858127 0.034513712 0.58478844 0.92750376
000100 86 3f 3f 3e e9 49 e3 bd a8 87 72 3d 77 53 67 3d
       0.18676576 -0.110980816 0.059211403 0.056476083
000110 16 aa be 3e 7a de 23 be 05 e1 37 3f 07 ed 89 3e
       0.3723914 -0.16002837 0.7182773 0.2693865
000120 c4 2e 33 be 86 20 50 bf 05 09 42 3d 83 1d f4 3d
       -0.17498308 -0.81299627 0.047371883 0.119196914
000130 2e e5 83 3f d4 80 40 bf bb 0f 0d 3f c9 da 16 3f
       1.0304315 -0.75196576 0.5510213 0.5892759
000140 b4 ff 70 bf a4 b4 82 be 06 11 24 3e 39 e9 a5 3f
       -0.9414017 -0.25528443 0.16022119 1.2961799
000150 d9 9f cb bd 70 e6 12 bf 26 f7 32 bf dc 57 07 bf
       -0.09942598 -0.5738287 -0.6990837 -0.5286844
000160 a8 af 36 be 53 ae 8d be eb 3a 92 3c 20 57 6b be
       -0.17840445 -0.2767206 0.01785036 -0.22982454
000170 15 c6 c2 bd 07 8c a9 bb 59 72 cc be 37 4c f5 3e
       -0.095104374 -0.0051741633 -0.3993099 0.4790971
000180 7d 22 d7 be 46 ef 6c 3d fe 17 bc 3d b0 f8 72 3c
       -0.420185 0.057845376 0.09184264 0.0148297995
000190 70 61 cc 3e f6 27 f2 3e 4b 96 85 bd ef 81 93 3e
       0.3991809 0.47296113 -0.06522807 0.2881007
0001a0 80 00 01 bf a1 b8 18 bf 7b ff 42 be c0 9d db be
       -0.5039139 -0.5965672 -0.1904277 -0.4289379
0001b0 8d bd 58 bf 52 82 05 3f d6 31 f8 3e 38 15 96 3e
       -0.8466423 0.5215198 0.48475522 0.29313064
0001c0 47 f5 c9 3e 33 12 6e bc fc d2 34 be 47 05 ac be
       0.39444944 -0.014530706 -0.17658609 -0.33597776
0001d0 3c fd a3 be f6 00 62 3f b8 9a 98 3f b5 98 ec be
       -0.3202914 0.88282716 1.1922216 -0.46210256
0001e0 ea a0 cf be 0e 9b 70 bd 6a 00 96 be b9 f3 87 be
       -0.40552455 -0.05874162 -0.2929719 -0.26553133
0001f0 00 b1 41 bd c2 58 2b 3d 1a 8a 46 bd 4c 07 ad be
       -0.04728794 0.041832693 -0.048471548 -0.3379463
000200 90 a9 a2 3e 9e f9 72 3d 13 74 20 be 8d c8 9f 3e
       0.3176999 0.059320085 -0.15669279 0.31207696
000210 ac 6a b2 bc 5c 35 01 3f 33 16 c8 3e 00 46 86 3e
       -0.02177938 0.50472045 0.39079437 0.2622528
000220 e5 65 a3 3d 5f d8 d2 bd 5c 28 96 bd 4c 46 85 3f
       0.07978419 -0.10295176 -0.07331917 1.0412078
000230 18 e5 24 3c 54 40 75 be 95 31 86 bf 90 e3 4e be
       0.010064386 -0.2395032 -1.0483881 -0.20203996
000240 cb d0 f6 3d 24 5c 2c 3e 0b e8 38 3f 8e 2e 30 be
       0.12051543 0.16832024 0.7222907 -0.17205259
000250 93 7d 16 bd d0 b4 8b 3c 73 ee de 3e 2b db e9 3c
       -0.03674085 0.017053992 0.43541297 0.02854689
000260 8a 58 f6 3e 52 e2 3d be d6 52 48 3f 14 f4 c4 3e
       0.48114425 -0.18543366 0.782514 0.38467467
000270 2f 0a 26 3f 7a d4 00 3e b1 8d d4 be b3 7b 94 be
       0.6485929 0.12581053 -0.41514352 -0.29000625
000280 1c b9 b8 bd 3a 51 8a 3e a4 8f da 3e 52 33 75 3c
       -0.09019682 0.27015096 0.42687714 0.014965849
000290 4d e4 f0 3c 0b d2 61 bd 45 c2 c4 3d 29 14 17 be
       0.029405737 -0.055131953 0.096073665 -0.14753784
0002a0 59 29 bf be cf fe 2a 3f 8d 11 79 bf 0b af 42 be
       -0.37336233 0.6679506 -0.97292405 -0.19012086
0002b0 23 09 de 3e 8f c1 89 3d fc dc 05 3f dd 7a 7b be
       0.43366346 0.067263715 0.5229032 -0.24558587
0002c0 f1 0c 2d bd c7 b2 d8 be 6c 6c 27 be 09 b4 e1 3d
       -0.04224867 -0.42323896 -0.16349953 0.11020667
0002d0 f7 49 29 3b 3d 61 65 be 2b 07 10 3e fe 90 49 3d
       0.002583144 -0.22400375 0.14065234 0.04921054
0002e0 a1 de b2 bd ab b3 85 3e f3 74 fc 3e f3 e7 df be
       -0.08733869 0.26113638 0.49307975 -0.4373165
0002f0 6c 0c 1e 3f dd 1d c9 3e e9 c9 13 3d 2c 42 55 3e
       0.61737704 0.39280596 0.03608123 0.20826024
000300 8a a0 11 3d 37 b6 26 3f 16 93 1a 3f 77 ac 0c be
       0.035553493 0.6512179 0.60380685 -0.13737665
000310 ba c8 94 be e5 37 cc bb 57 02 41 be 56 24 c7 3c
       -0.29059392 -0.006232249 -0.18848549 0.024309319
000320 c9 ac 5e bd 88 19 cf 3e 31 e0 4f 3e a0 a1 85 3e
       -0.054364 0.40449166 0.20300366 0.26099873
000330 4d 52 02 3f 36 55 90 3e 97 c7 84 3e 8b dc 7a 3f
       0.5090683 0.2819001 0.25933525 0.9799277
000340 95 e9 18 3f 63 5e 14 bf fd 28 a5 be a0 e6 0e be
       0.5973142 -0.5795652 -0.32257834 -0.13955164
000350 c1 5c 31 3f 0e 2b 10 bf 09 3b 0d 3f a1 25 be 3e
       0.69282156 -0.56315696 0.55168205 0.37138084
000360 b5 84 0b 3c d9 f2 74 bd 18 64 a5 be 18 e8 80 3e
       0.008515527 -0.05980191 -0.32302928 0.25177073
000370 63 2f 47 3e bf bd 38 bf 6e 5c 41 3d a6 26 4a bf
       0.1945167 -0.7216453 0.04720729 -0.7896522
000380 bb 97 05 3f 45 d0 49 bf 1a 00 37 bf 94 8d 91 3e
       0.5218465 -0.7883342 -0.7148453 0.28428328
000390 2a 3c 45 bf a1 b8 6f be c7 40 60 bf 66 e7 65 3f
       -0.7704493 -0.23410274 -0.8759884 0.8980621
0003a0 c2 69 8c 3f 0c 29 88 be 7e 35 b9 bd be f3 e2 3e
       1.0969775 -0.26593816 -0.09043406 0.44326586
0003b0 ea da d5 3e ef 39 c3 be 73 65 e8 be bf 58 b8 3e
       0.4176858 -0.38130137 -0.453899 0.36005208
0003c0 8d c1 87 be e7 0e 63 3f b5 d7 10 bf aa bd 25 3f
       -0.26514855 0.88694614 -0.5657914 0.6474253
0003d0 b9 1b 3f bd 67 ce 28 3e b9 b6 0d bf aa 99 18 3e
       -0.046657298 0.16484986 -0.5535694 0.14902368
0003e0 38 d5 b4 be a0 2b ad 3d 81 bf 3c 3e 34 ad b9 bd
       -0.35318923 0.084555864 0.18432428 -0.09066239
0003f0 bb c0 ca be 14 a1 cb 3e 8e dc 11 bf 46 2b ee bc
       -0.39600167 0.3977133 -0.56977165 -0.029073369

actorNet.2.bias f4 [32]
000000 d2 95 69 bd 05 4e 88 3e 4a 21 88 3e a3 75 ec 3d
       -0.057027645 0.26622024 0.26587898 0.11545875
000010 d1 55 17 bd 22 ae 8b be d2 28 53 be 13 54 1c be
       -0.036947075 -0.2728129 -0.2062104 -0.15266447
000020 21 8d 44 3d b7 70 f1 3d 4f fd 86 3e 2f f2 3a bd
       0.047986154 0.11789077 0.26365134 -0.04564112
000030 4c 6c b0 bd 31 7b d6 3d 1b 4b cd 3d c5 d5 ba be
       -0.08614406 0.10472716 0.10024091 -0.36491218
000040 72 a1 14 3e dd 66 8b bd 68 38 1b 3e ab ea 3e 3e
       0.14514711 -0.06806729 0.15158236 0.18644206
000050 4c 45 19 be 94 27 d5 bd 47 20 45 3e 8a 29 f8 3d
       -0.14967841 -0.104079396 0.19250594 0.12117298
000060 45 1e b3 3d ea 1a 1e 3e 0c a0 2d be 34 61 c4 be
       0.08746008 0.15439954 -0.16955584 -0.3835541
000070 fc ea 74 be 0a 25 c7 3c 20 cb 3c 3f aa ae b5 bd
       -0.23917764 0.024309654 0.73747444 -0.08871205

actorNet.4.weight f4 [4, 32]
000000 29 01 41 3f 30 9e d9 3e 36 00 18 bf e9 51 9a 3f
       0.75392395 0.425035 -0.5937532 1.2056247
000010 43 3e 78 bd 1d fe 38 bd 51 3d 03 3f f8 34 40 3f
       -0.060606252 -0.045164216 0.51265436 0.75080824
000020 54 50 26 3f 25 3b 85 3f 38 80 41 3f 73 f2 93 bf
       0.6496632 1.0408674 0.7558627 -1.1558365
000030 b4 e4 8e bf 45 5e 13 3f 3f de 82 be 01 10 e9 be
       -1.1163545 0.5756572 -0.25560185 -0.45520023
000040 f3 b7 06 3e f2 0b 79 3f 3b 3f 24 bf af a4 11 3e
       0.13156109 0.9728385 -0.6415898 0.14222978
000050 07 29 74 be 45 3d 19 bf 76 b0 c5 be 5e 5a 48 be
       -0.23843776 -0.59859115 -0.38611192 -0.19565722
000060 c2 8d 50 3f 3b 5b 0c bf 59 f4 10 bf 1d b3 87 bd
       0.81466305 -0.54826707 -0.56622845 -0.0662596
000070 03 10 66 bf d7 31 41 bf d9 7d c6 3e 92 e8 7c 3e
       -0.8986818 -0.75466675 0.3876789 0.24698094
000080 84 ff 2b bf b9 69 86 bf 0d e5 d1 be 96 1e 12 bf
       -0.6718676 -1.0501014 -0.40995064 -0.5707792
000090 4d 63 fb 3d 16 99 1f bf 57 e4 a0 bf e0 ae 3d 3f
       0.122747995 -0.62342966 -1.2569684 0.74094963
0000a0 67 17 a0 bf f2 6b 3c be 66 ea e6 3e 85 53 c7 be
       -1.2507142 -0.18400553 0.45100707 -0.38930908
0000b0 cb f0 29 be 59 fa a9 3e a3 4a 38 3f fb 6c 17 bf
       -0.16595761 0.33198813 0.71988887 -0.59150666
0000c0 d6 3e 52 bf ac e1 e7 be 58 9e 42 3f 60 81 62 3f
       -0.8212713 -0.4528936 0.76022863 0.8847866
0000d0 65 95 15 40 b6 d4 97 be 1b 71 d4 3b cb 0a 78 bf
       2.3372433 -0.29654473 0.00648321 -0.9689147
0000e0 b4 1f 47 bf d5 19 85 3f e6 ad e0 be 84 51 32 bf
       -0.7778275 1.0398508 -0.43882674 -0.6965563
0000f0 66 a5 16 be b8 eb 6e bf 4b 97 ae 3d 95 15 b6 bc
       -0.14711532 -0.9332843 0.085249506 -0.022227088
000100 95 34 33 3f 1b 2b 17 be 9f 8b 1a 3f b7 61 21 3f
       0.7000211 -0.14762537 0.60369295 0.63039726
000110 46 ea 84 bf 57 7d 82 bf 43 de ab bf 16 47 d7 3e
       -1.0383995 -1.0194501 -1.3427204 0.42046422
000120 3e 71 52 3e 4a db cf bc 03 11 03 bf e1 ee 0c bf
       0.20551011 -0.02537312 -0.5119783 -0.55052
000130 bf 54 cf 3d 24 33 7b 3f 50 4f 07 3f f2 05 b5 3e
       0.10123586 0.9812491 0.52855396 0.35356098
000140 d6 7c 93 3e a6 ad 02 bf 1a e3 2a bf 54 cc 47 3f
       0.2880618 -0.51046216 -0.6675278 0.78046155
000150 43 b3 93 3e bd 7d 72 3f 0e 23 e6 3f 56 1b d0 be
       0.28847703 0.9472311 1.7979448 -0.40645856
000160 b2 d9 91 bf 0b ff 88 3f 67 15 57 3f 9c b1 4c 3f
       -1.139456 1.0702833 0.8401703 0.7995851
000170 71 02 2f 3f 1c d2 99 3e 0f ab 8e 3e aa 4a 86 bf
       0.683631 0.30043113 0.27864882 -1.0491536
000180 13 eb aa 3f 23 53 f5 3e 56 e4 74 bf f5 3d 95 be
       1.3352989 0.4791499 -0.95660913 -0.29148832
000190 a8 c7 68 3f db 0a c4 3e 69 5d 49 3d d6 c5 14 3f
       0.9092965 0.38289532 0.04916135 0.58114374
0001a0 ed 61 fa 3e 44 f0 d4 3c 21 c8 28 3f e2 9b 80 3e
       0.48902836 0.025993474 0.6593037 0.2511893
0001b0 ae da 88 3f 82 a3 46 be 55 04 60 3f d0 8c f0 3e
       1.0691736 -0.19398311 0.8750661 0.4698243
0001c0 6f 27 9d bf e7 f0 80 bf f0 e4 f3 3e 66 1f 38 3f
       -1.2277659 -1.0073518 0.47635603 0.7192291
0001d0 e2 ee 51 3f 43 58 31 bf 1c b6 4c bf 8f b0 6f 3f
       0.8200513 -0.692753 -0.79965377 0.9362878
0001e0 52 38 4e be e6 e9 02 3e c7 b0 b9 be 49 62 5e 3f
       -0.20138672 0.12784538 -0.36267683 0.8686872
0001f0 4a d7 9c be 6f a7 0a bf 52 fb 58 bf f1 13 8c bf
       -0.30633003 -0.54161733 -0.84758484 -1.0943586

actorNet.4.bias f4 [4]
000000 58 ec 75 3b dd f3 8e 3e cd 04 73 3e a2 cf 23 3e
       0.0037524905 0.27920428 0.237323 0.15997174

criticNet.0.weight f4 [64, 24]
000000 0b 7f 81 be 47 2d 62 bd aa 03 5c 3f a2 af 24 40
       -0.2529224 -0.05521896 0.8594309 2.5732198
000010 3a 01 c6 be a0 be a6 3e 3a 09 92 3f 60 47 95 3d
       -0.3867281 0.3256731 1.1409066 0.07289004
000020 de f4 b0 be c7 c6 27 bd 27 2b b6 be d7 ba 1f be
       -0.3456182 -0.040961053 -0.35579798 -0.15598617
000030 cc cd 55 be f7 cc 50 3e b3 82 c4 be 47 c6 bc be
       -0.20879287 0.20390688 -0.38380966 -0.36870024
000040 f8 ee 85 be 6c a0 9b 3d 5e 39 8d bd 90 c4 3b bd
       -0.2615888 0.075989574 -0.068957075 -0.045841753
000050 6b 52 43 bb 61 d7 39 3e 5b ea b3 3e 5e 4d 74 be
       -0.0029803764 0.18148567 0.35139737 -0.23857638
000060 50 ae 0f 3f b5 61 eb 3e 14 42 d3 3e af 07 ca 3f
       0.56125355 0.45972982 0.4126135 1.5783595
000070 32 9c 86 3e a3 89 d6 be 2e 58 12 be 28 92 9b 3c
       0.26291043 -0.41901883 -0.1429145 0.018990591
000080 4b cc ad 3d af c2 76 be 1f 94 f8 be e8 2b 2e bf
       0.084862314 -0.24097703 -0.48550507 -0.68035746
000090 d1 fa 58 3f 78 49 57 be e7 42 38 be a9 b8 c6 bd
       0.84757715 -0.2102412 -0.17994271 -0.0970319
0000a0 98 40 cc bd 79 72 59 be ea 0f 4c be 3e a9 81 be
       -0.09973258 -0.21235074 -0.19927946 -0.25324434
0000b0 15 3d 49 be ac e7 74 bd e5 a3 51 bb 2c 91 c2 be
       -0.19652207 -0.059791252 -0.0031988558 -0.38001382
0000c0 65 c4 3e bf 2c 43 90 bf fe 1f f5 3f 49 bb 21 c0
       -0.74518424 -1.1270499 1.9150388 -2.527056
0000d0 03 38 9f be ca 04 24 3e 09 57 45 bf 88 c3 0f be
       -0.3109742 0.16017452 -0.7708593 -0.14039433
0000e0 4d 13 46 bd 28 f5 da bd 33 f1 9c 3d 73 6e 81 3e
       -0.04835825 -0.10691291 0.076631926 0.2527958
0000f0 9b 53 aa be d3 62 68 3e 5c 45 e3 bd fd 2b 60 bd
       -0.3326691 0.22693948 -0.110972136 -0.05472945
000100 32 d8 27 3e 88 fe 36 3d e0 ab cc 3c 36 76 c5 bd
       0.16391066 0.044676334 0.0249843 -0.096416876
000110 5e 63 0d 3e 0b 1e 8b 3e 53 1e ea 3e 04 40 02 3e
       0.13807437 0.27171358 0.4572626 0.12719733
000120 6e 04 53 3f 22 ad 59 40 3c 30 eb be d5 6a c6 3f
       0.82428634 3.4011922 -0.45935237 1.5501353
000130 05 a0 84 bc 56 71 c5 bd 60 18 17 3f 49 e0 a0 be
       -0.016189585 -0.09640758 0.5902157 -0.31421116
000140 ea bc 66 3e 6d b5 87 3f 23 6c 29 3e 5b 58 51 3f
       0.22533002 1.0602242 0.16545157 0.81775445
000150 9e 62 b9 bd 32 26 fe 3d d8 b3 90 be 72 16 4e be
       -0.09052013 0.12409629 -0.2826221 -0.2012575
000160 df 46 ae bd 96 c2 3e 3e 52 5d 31 3d 72 4a 2b 3e
       -0.08509611 0.18628916 0.043301888 0.16727617
000170 c6 b1 18 3e 9f 75 3d 3e c6 17 87 3e c1 ad 19 3e
       0.14911565 0.185019 0.26385325 0.15007688
000180 63 08 e6 be 91 32 07 bf 85 3b e9 be 68 e6 10 be
       -0.44928274 -0.52811533 -0.45553222 -0.14150393
000190 9c 5d 90 be 87 ab 5f be 31 c2 8c be ff 05 bf bd
       -0.28196418 -0.21842776 -0.27491906 -0.093273155
0001a0 c9 e6 da 3d 04 55 0f be 8c f9 f3 bd d2 7f 90 bd
       0.1068855 -0.13997275 -0.11912832 -0.0705563
0001b0 37 03 44 bd cb 1e c7 be 6f a9 1d 3f 5f b7 99 3e
       -0.04785463 -0.3889068 0.6158666 0.30022714
0001c0 e6 79 6e 3e e2 97 ea 3d c8 79 05 3e 33 28 1f be
       0.23288688 0.114547506 0.13034737 -0.15542679
0001d0 07 e6 a0 be 7f 32 f7 be 65 2e e1 be a0 5a 95 3d
       -0.31425497 -0.48280713 -0.4398071 0.07292676
0001e0 5f 75 bb 3e 07 91 32 3f 74 50 0d 3e dc 3f a1 3d
       0.36612985 0.69752544 0.13800222 0.07873508
0001f0 66 c4 00 3e b5 af ee 3d 1c 03 06 3f 9b 6f 1a 3c
       0.1257492 0.11654607 0.52348495 0.009426023
000200 d3 88 87 3d c0 d1 c1 3e 77 47 00 be 7f cd 57 be
       0.06617894 0.3785534 -0.12527262 -0.21074484
000210 e9 e3 6a bd 55 90 2e be 68 2e df bd 9c 8a 9d be
       -0.05734626 -0.17047246 -0.10897523 -0.30769813
000220 c7 e7 a1 be 56 1a 87 bd 4f 88 54 be 49 46 28 3e
       -0.31622145 -0.0659682 -0.20755123 0.16433062
000230 44 17 30 bd d4 ab 90 3e a5 2d 95 3e d6 09 98 bb
       -0.042990938 0.28256094 0.29136387 -0.0046398444
000240 2e 3a b4 be f4 78 42 3e d5 1b 6f bf e6 b4 32 3f
       -0.35200638 0.18991452 -0.93401843 0.6980728
000250 4d ff 38 be c7 0b ef 3c 55 71 ab be a3 8d 85 3e
       -0.1806614 0.02918042 -0.33484903 0.26084623
000260 2e 1b 71 bd cf 6d 27 bf 26 05 33 3e 9d 52 3e bf
       -0.05886381 -0.6540193 0.17482433 -0.7434481
000270 a6 79 d3 bc 91 87 24 be a5 f0 e2 3e 70 00 ba 3e
       -0.025814842 -0.1606734 0.44324222 0.3632846
000280 0a ee 0a 3f 6f a2 bb 3e cc 1e 9d 3d 73 e6 cb bd
       0.5426947 0.36647364 0.0767189 -0.09956064
000290 2a 60 30 be 93 ad 65 3c 1a c3 5a 3e 34 8e ce 3d
       -0.17224184 0.014018434 0.21363488 0.10085717
0002a0 28 d8 56 bf 92 68 e6 bf 53 28 ae 3f 1b 22 a8 bf
       -0.8392358 -1.8000662 1.3606056 -1.3135408
0002b0 f5 58 86 bf 56 7f 9c 3b 94 f9 3b be 35 39 23 bd
       -1.0495898 0.004775922 -0.18356925 -0.03984948
0002c0 4b 88 3a 3d 3a 14 4f bd 5d 9e b0 be f4 c7 41 be
       0.045540135 -0.0505564 -0.34495822 -0.18923932
0002d0 a4 4d 60 be 1d 38 7c 3e 18 d5 91 3d b2 43 52 be
       -0.21904618 0.2463078 0.071207225 -0.20533636
0002e0 10 18 61 be 53 7b 9e be 42 c0 e9 bd 84 00 cd bd
       -0.21981835 -0.30953464 -0.114136234 -0.10009864
0002f0 0f fc 81 be c2 20 3d be 81 31 92 3e 64 d1 b9 3e
       -0.25387618 -0.18469527 0.28553393 0.36292565
000300 ff 5e 0e bf a2 aa a8 bf fc 90 2b 3f eb 6b 6c bf
       -0.556137 -1.3177073 0.67018104 -0.9235217
000310 cc f8 b5 be cd 57 b1 be 17 28 6c be a2 a9 91 be
       -0.3554138 -0.346373 -0.23062168 -0.28449732
000320 10 07 cd 3d be fc 75 bf 2b a7 95 3c ae 21 8b be
       0.10011113 -0.9608878 0.018268188 -0.27174133
000330 ae 35 c2 bd 39 4f 84 3e 98 4a ca 3e c2 57 d2 3e
       -0.09482895 0.25841692 0.39510036 0.4108258
000340 5d 32 ec 3e 1d d1 13 3e c8 61 da 3b 5d 68 bb bd
       0.46132174 0.14435239 0.0066644885 -0.09150765
000350 ec 51 b9 be f7 6c d5 be ed 9d a8 bd 43 6b f3 bd
       -0.36195314 -0.41684696 -0.08233247 -0.11885693
000360 75 c0 a0 3f 76 ff 0e bf 48 1d 6e be c4 fd 20 c0
       1.2558733 -0.5585855 -0.23253357 -2.5154886
000370 4b 19 0e bf 70 83 84 be ba 1d c4 3e 3a ff 4a 3d
       -0.55507344 -0.2588153 0.3830393 0.04955981
000380 cc e1 0a 3e b2 ca 49 3f f1 ad 29 3e 20 45 f2 3e
       0.13562697 0.78824914 0.1657026 0.47318363
000390 d8 dd 1e 3c 87 7d 7d 3e 76 43 01 bf af 9b af be
       0.009696446 0.24754916 -0.5049356 -0.34298465
0003a0 41 54 e7 be 2c da 0a bf 19 aa 99 be 36 ee 10 be
       -0.45181468 -0.54239154 -0.30012587 -0.1415337
0003b0 db 61 28 3e 4b 0f eb 3d ed 08 32 be af f0 86 3d
       0.16443579 0.11477526 -0.17386217 0.065888755
0003c0 d2 90 3d bf b6 6e 4a c0 f8 70 29 3f cc fc 26 c0
       -0.74049103 -3.1630073 0.66188 -2.6091795
0003d0 45 e7 9d 3e 4e 7b 2f 3e f0 3a 04 bf d7 39 6e 3e
       0.30840507 0.17136881 -0.5165243 0.23264252
0003e0 8b 4b 20 bf b6 4b 89 bf c3 23 f8 bd 7b a8 76 bf
       -0.6261527 -1.072623 -0.12116196 -0.9635083
0003f0 e1 1f 42 3d fa a5 de 3d 02 ec 52 3e e6 91 72 bd
       0.047393683 0.10871501 0.20597842 -0.05922117

criticNet.0.bias f4 [64]
000000 6d c9 ce be fc ef 32 be 19 f2 7b 3b 7e 7e b1 3c
       -0.4038805 -0.1747436 0.0038443862 0.021666761
000010 1f 21 07 3f 61 77 04 bf 8d e4 06 bc 5b 8e 00 3f
       0.52784914 -0.5174466 -0.008233202 0.5021722
000020 2a ac 12 3e 94 cd 43 3d 61 49 8e 3e ab 6e c2 3d
       0.14323488 0.047803476 0.2779036 0.094937645
000030 cb bd dc bc d1 d7 e8 3d 48 21 f3 3d e3 79 3f 3e
       -0.02694597 0.11369289 0.11871582 0.1869884
000040 d0 08 96 3e 0a 99 7d 3d 0f 05 86 3e 09 b2 03 3e
       0.29303598 0.061913528 0.26175734 0.12860884
000050 c3 10 16 bf df 4d c5 bc c6 15 ba 3e f0 5a 15 3e
       -0.58619326 -0.024084983 0.36344737 0.14585471
000060 2b 54 c3 3e a4 09 a8 3e cd 48 eb 3e 27 cf 18 3f
       0.38150153 0.32819855 0.4595398 0.5969109
000070 57 0b bc 3d a0 07 b8 3e 7f f5 e8 be 13 b2 16 3f
       0.091818504 0.35943317 -0.454998 0.5886547
000080 d0 e8 92 be df 9f bd bf 92 a6 aa be f5 ea b1 3e
       -0.28693247 -1.4814414 -0.33330208 0.3474957
000090 a8 99 3b bf 50 15 85 3d a0 29 7a bc 10 12 1e 3e
       -0.73281336 0.06498206 -0.015268713 0.15436578
0000a0 ee cd 07 bf 04 8c 89 bd a0 ef e1 be 9b 93 89 3e
       -0.530486 -0.06716159 -0.44128132 0.26870427
0000b0 bc f7 b0 3e 35 fc 0c bf 58 52 3c bf 82 fb 21 3f
       0.34564006 -0.5507234 -0.73563147 0.63274395
0000c0 e5 96 de bd 95 2e 78 3e 16 40 bd 3d 94 1e 49 be
       -0.108686246 0.2423652 0.09240739 -0.19640571
0000d0 a9 53 7b be 43 92 c0 3e 28 43 ba be f3 60 b3 bf
       -0.24543633 0.3761159 -0.3637936 -1.4013962
0000e0 96 08 0d 3d 31 16 56 be 36 32 9a 3d d6 b9 9f 3e
       0.034432016 -0.20906903 0.07529108 0.3119647
0000f0 a4 66 f4 bf 55 e8 05 be 01 b0 1b bf dd cb 8d bd
       -1.9093823 -0.13076909 -0.60815436 -0.069236495

criticNet.2.weight f4 [32, 64]
000000 e3 6b b0 3e 07 f2 8b be ff 02 16 be f7 5f 53 3f
       0.3445731 -0.2733309 -0.1464958 0.82568306
000010 ef 12 92 be bd 09 9d bd b5 04 20 be 74 9c 1f bf
       -0.2853007 -0.07667873 -0.15626796 -0.62348104
000020 cb 5e 1c bf 12 5b 84 3f 09 ee 9c bf 1e b7 d9 3e
       -0.6108214 1.0340292 -1.2260143 0.4252252
000030 d1 4b f5 3e 6f f4 bb bd 2e 3b 8b 3e 19 68 05 bf
       0.47909406 -0.091774814 0.27193588 -0.52111965
000040 c7 d2 58 3e 76 a5 89 bf 04 af 57 be 72 bc 7d be
       0.21174155 -1.075362 -0.21062857 -0.24778917
000050 31 5c 90 3d 7d 07 e8 3e a5 3d 99 be b9 3e 1d 3f
       0.07048834 0.45318213 -0.29929844 0.6142383
000060 40 7d e6 3d 91 88 c1 be d8 63 61 be 93 77 93 be
       0.11254358 -0.37799504 -0.22010744 -0.28802165
000070 9b f9 19 be 62 44 ba bf a3 0f b4 be 76 06 3d be
       -0.15036623 -1.4552119 -0.3516818 -0.18459496
000080 18 11 95 be 73 50 31 be a8 b9 ab 3f fe 9a c3 3e
       -0.29114604 -0.17315845 1.3416033 0.38204187
000090 2d 3a d7 be 98 06 b9 be 54 7a be 3d 8b 8e 25 be
       -0.42036572 -0.36137843 0.09300676 -0.16167657
0000a0 48 cc e4 3c 04 d4 16 bf 24 5f 46 3e f3 2f a6 be
       0.02792944 -0.5891726 0.19372231 -0.32458457
0000b0 ad 2f a9 3e a7 67 67 3f c2 74 1d be ee 17 98 3e
       0.33044186 0.90392536 -0.15376571 0.29705757
0000c0 3e 6b e2 3d 1c 30 ba 3d 85 c7 1e 3f 50 c4 98 bd
       0.11055611 0.090912074 0.6202319 -0.07459319
0000d0 74 77 31 3f 2f 52 b9 be 61 69 0c bf 05 95 3e be
       0.69322896 -0.36195514 -0.54848295 -0.18611534
0000e0 8c 75 3b bd 0d 42 ec 3c 34 df 63 bf 90 4e 11 bf
       -0.0457664 0.02884009 -0.89012456 -0.567605
0000f0 d9 4b 15 be d6 15 97 be d5 a6 c7 3e 3e 7b 96 bf
       -0.14579715 -0.29508847 0.3899447 -1.175636
000100 df 70 8c 3d 35 66 5d 3c 12 89 28 bf fb fe b8 bc
       0.06857466 0.013513138 -0.6583415 -0.022582522
000110 4e 9b cb be 40 4f 1a 3d fb bc 81 be fc 10 c8 bf
       -0.39766926 0.037673235 -0.25339493 -1.5630183
000120 4f 7a 55 be 82 84 41 3f fd 17 9d 3d 3c a5 24 3f
       -0.20847438 0.75592816 0.07670591 0.6431463
000130 50 11 b4 3d 2c a5 02 bf bf 97 87 3c 9a 82 8f be
       0.087923646 -0.5103328 0.01655185 -0.2802933
000140 6e 2b e4 3d f5 e3 c2 bd c7 60 f4 bd bc f7 47 3e
       0.11141096 -0.095161356 -0.11932521 0.19528097
000150 8c 69 df 3e 11 3c 63 3e 32 62 81 bf d1 ee 3f bd
       0.43635213 0.22190882 -1.0108092 -0.046858612
000160 77 c3 60 bc 85 b8 d8 be e7 34 a7 be b3 4f c9 be
       -0.013718477 -0.42328277 -0.3265755 -0.39318618
000170 a8 cd 9e be 96 3b 99 bf 38 66 ea 3d 33 a5 6b be
       -0.31016278 -1.1971309 0.11445278 -0.23012237
000180 66 37 75 3e 65 7b 54 3d 92 2f 77 3f 1a 5a 04 be
       0.23946914 0.05187549 0.9655696 -0.12924996
000190 cf b9 21 3f c9 a1 ee 3e 07 23 75 3d 48 05 28 3d
       0.63174146 0.46607807 0.059847858 0.04102066
0001a0 00 cd 9b 3d 2f e5 d7 be 28 fa 8a 3f 2d 08 ab be
       0.0760746 -0.4216704 1.0857592 -0.33404675
0001b0 de bb bb 3c d8 f6 69 3e 64 12 0c bd c8 42 70 bd
       0.02291673 0.2284807 -0.034197226 -0.058657438
0001c0 4c f8 33 3f 64 a1 e6 be ae f1 ab 3e 38 30 99 3f
       0.70300746 -0.45045006 0.33582824 1.196784
0001d0 2f 1a bc 3e 31 85 9d be ee be ca 3e 6d 43 3a 3e
       0.36738726 -0.3076568 0.39598793 0.18189783
0001e0 2c c1 2a bf 76 1e db 3c 0b cb 3d be f3 f1 24 be
       -0.66701007 0.026747923 -0.18534486 -0.16107921
0001f0 ef 2c fd 3d 22 73 c6 3d c5 50 63 3f 21 94 ff bd
       0.12362086 0.096899286 0.8879512 -0.12479425
000200 eb 15 e1 be 41 a2 fa be e6 c4 0c 3e 70 c7 a2 3e
       -0.43962035 -0.48951915 0.13746986 0.31792784
000210 9e 25 b7 bd 05 f6 7a 3c ab 6b 94 3e d2 8f 46 3e
       -0.08942722 0.015317445 0.28988394 0.193908
000220 dc 58 9f be f4 43 86 bd 4c 3b 4b be 38 2e 74 3d
       -0.31122482 -0.0655593 -0.19846839 0.05961439
000230 03 f4 c4 be e3 55 74 3e 5c 38 68 be 0c 13 df bd
       -0.38467416 0.23860888 -0.2267775 -0.10892305
000240 65 9d 22 3e dd 25 b7 be 4a ed fe 3d bf d8 e5 be
       0.15880354 -0.35771075 0.12447603 -0.44891927
000250 1b 9b be be aa 8f 95 3e dd dc 82 be 1c 48 ab bd
       -0.3722771 0.2921117 -0.2555913 -0.08363363
000260 0f e9 e5 3e 1e df 17 3e 53 33 b2 be a9 34 03 be
       0.44904372 0.14831206 -0.34804782 -0.12813057
000270 e8 87 9f 3c 93 d3 2c bd e8 13 86 be 54 ce 0e 3f
       0.019473985 -0.04219396 -0.26187062 0.5578358
000280 7f 75 e1 bd 89 11 19 bf a4 0a 5c 3d 6b 9b d0 3d
       -0.11008739 -0.5979238 0.053721085 0.101858936
000290 1c d5 82 bd f1 06 50 3e 2b 1d 07 3d 02 44 ac be
       -0.06388304 0.20315148 0.0329868 -0.33645636
0002a0 e5 95 2c bf c5 be 13 be eb aa 33 be a1 c0 79 3e
       -0.6741622 -0.14428242 -0.17545669 0.24389888
0002b0 47 ba ba 3e 93 fc 0d 3e d1 76 da be 81 95 ac 3e
       0.36470243 0.1386588 -0.42668775 0.33707812
0002c0 40 2f 4b be 14 5c 84 3e 62 31 5a 3e 93 29 36 3b
       -0.19842243 0.258515 0.213079 0.0027795776
0002d0 b2 87 7f 3d 98 ed 77 3e ad 40 86 be 35 54 26 bf
       0.06238527 0.24211729 -0.2622122 -0.6497224
0002e0 48 bc fa bd c8 c6 d1 bd 6d e1 71 be 39 be d6 3c
       -0.12242943 -0.10242993 -0.2362115 0.026213752
0002f0 1a 21 51 bf f3 0f 04 bf bf b9 9c 3e 1e 98 38 be
       -0.81691134 -0.51586837 0.30610463 -0.18026778
000300 54 e5 e2 be e2 95 4f 3e 22 b5 85 bd 2d dd 2f bf
       -0.44315588 0.2027202 -0.06528689 -0.6869686
000310 ce 0a 12 3e 98 03 85 be 4d ce a8 3f cd b8 8f 3e
       0.14261934 -0.25979304 1.3187958 0.2807068
000320 f3 da 3b 3f eb 83 f9 be ce e8 22 3f eb 10 e9 bd
       0.73380965 -0.48733458 0.6363648 -0.1138018
000330 16 01 90 be 69 c7 cb be 01 8e 3a bc c0 5c 34 3e
       -0.28125829 -0.39800575 -0.011386395 0.17613506
000340 2e f9 d7 3e 81 f0 d7 3e 1b 50 09 3e 45 40 65 bd
       0.42182297 0.42175677 0.13409464 -0.055969495
000350 2e 9d a8 3d 66 57 52 bf ad a5 a2 bb 81 4f 86 be
       0.08233105 -0.8216461 -0.0049635977 -0.26232532
000360 97 89 2d 3e 38 63 94 bc 1a 8e cf 3b b9 24 95 3e
       0.16947018 -0.018113717 0.0063340785 0.2912958
000370 d0 f2 e3 3e 06 7b 9b 3e b4 87 7f be ca 49 6b be
       0.4452119 0.30367297 -0.2495411 -0.22977367
000380 fd 69 10 bf a2 59 75 3d c5 da 9d 3d d1 fe e5 3e
       -0.56411725 0.059899934 0.077077426 0.44920972
000390 38 d6 1e bc c2 a4 a6 be 28 7b 01 be 94 10 f3 bd
       -0.009694628 -0.32547575 -0.12644637 -0.118683964
0003a0 86 5c 29 be b5 c0 82 3d 25 33 14 3e e3 1b 68 bd
       -0.16539201 0.06384412 0.14472635 -0.05666722
0003b0 3e a8 3f bf cc cc 1e be 0d a7 de bd 76 a8 cc 3e
       -0.7486609 -0.15507811 -0.10871706 0.39972275
0003c0 47 f8 cb be e3 ea 44 3f b2 18 a6 3d 6e 1b 76 bd
       -0.39837858 0.7692091 0.08110179 -0.060084753
0003d0 a5 ba c3 3d 35 7b ac bd d7 58 a7 bd 83 01 f8 3d
       0.09557084 -0.084219374 -0.08171242 0.12109663
0003e0 f7 40 30 3f b0 51 59 bf c5 c4 f4 3e 8a f8 b1 3e
       0.6884913 -0.8489027 0.47806373 0.34759933
0003f0 6b 91 58 3d b6 1c 98 bd 45 eb 3c bf 44 76 aa 3e
       0.052873056 -0.07427351 -0.7379649 0.33293355

criticNet.2.bias f4 [32]
000000 a3 88 51 bb e1 02 a1 3d eb 25 3b 3f 5b ea b8 3c
       -0.003197231 0.07861877 0.73104733 0.022572687
000010 b7 e3 1e 3f de 26 9c 3d 30 bc aa 3e 2c b6 7f bd
       0.62066215 0.07624601 0.333467 -0.062429592
000020 2d 36 d4 3e 3d 1b db be 25 bb 08 be 67 5b 36 bc
       0.41447583 -0.4279422 -0.1335264 -0.01113019
000030 3a a0 3f 3d c0 4c 0b be c7 e1 84 be 08 15 4d 3e
       0.046783663 -0.13603497 -0.25953504 0.20027554
000040 9f 59 ce be f4 86 21 bf c6 a9 8c be b3 52 93 be
       -0.4030275 -0.6309655 -0.27473277 -0.28774032
000050 e1 11 17 3f 2c 79 17 be 3f 22 bc 3d ab c9 77 3e
       0.59011656 -0.14792317 0.091862194 0.24198024
000060 2a f4 2c 3f af b4 b3 3e 71 cf 64 be b7 99 91 be
       0.67560065 0.35098788 -0.22344758 -0.28437588
000070 bd a5 0a 3d d7 a8 08 bf 17 d6 c1 be 37 be 42 3e
       0.033849467 -0.5338263 -0.3785865 0.19017874

criticNet.4.weight f4 [1, 32]
000000 d0 d6 02 3f 7b dd 34 bf 60 e9 28 bf 7f ef 3e 3e
       0.5110903 -0.7065045 -0.659811 0.18646048
000010 b6 04 27 bf ed e6 cc 3e f0 0a 82 be 8b 42 7d be
       -0.65241563 0.40019932 -0.2539897 -0.24732415
000020 b3 17 56 be 7b 49 2d 3e 57 a8 d7 be da 4e 13 3d
       -0.20907478 0.16922562 -0.4212062 0.03596387
000030 73 0c 41 3f 10 b6 95 bd 76 b7 f6 3d e3 98 8d be
       0.7540962 -0.07310116 0.12046711 -0.27655706
000040 3f ce a2 3e 99 a2 55 3f ba d3 6c 3e 74 85 cc 3d
       0.31797978 0.8345123 0.23127642 0.09986392
000050 af 8f 35 bf 7c bb ef be a7 10 3f 3d be 96 8e be
       -0.7092237 -0.46822727 0.04664674 -0.27849382
000060 2a 16 47 bf be 89 71 be f6 f6 2b 3e 38 7c ec 3d
       -0.77768195 -0.235877 0.16793427 0.1154713
000070 69 de e6 be 75 42 33 3f 09 6c a1 3e 8c 2e 1a bf
       -0.4509156 0.7002328 0.31527737 -0.60227275
