PPO_multiagent_BipedalWalker-v3.pth (torch_old, 32251 bytes, 11 tensors)

actorNet.0.weight f4 [64, 24]
000000 05 8f 5c 3d f2 c1 ef bd 8d c9 cb 3d 9d 1d fa bd
       0.05384733 -0.11706914 0.09950552 -0.122126795
000010 34 3c 5b 3d 9a 8f 91 bc 52 65 77 3d 05 e3 f8 bd
       0.05352421 -0.01776867 0.06039936 -0.121526755
000020 8a 3d 28 bd aa 7f eb 3c 6c 61 0c 3e ef 51 1d 3e
       -0.041074313 0.028747398 0.13709038 0.15363286
000030 12 28 40 3d 57 6b 99 bd 27 09 f9 3c 88 f8 9a bb
       0.046913214 -0.074911766 0.030399872 -0.0047293343
000040 63 5b 1a 3e 3d 26 00 be f9 6a c5 3d 6d d9 10 3d
       0.15073924 -0.12514587 0.09639544 0.035363603
000050 f5 84 ec 3d c1 91 d0 3d a9 85 d3 3d 88 7a e1 3d
       0.11548797 0.1018405 0.10328228 0.11009699
000060 74 21 f1 3d ff 02 f5 bd ce 63 d5 bd 8f 8d 12 be
       0.11773959 -0.11963462 -0.10419427 -0.14311813
000070 32 8f dd bd b7 88 5f 3c b6 67 96 3e 47 cd 2e 3d
       -0.10818328 0.013643435 0.29376 0.042676236
000080 12 bd 02 be 74 8f 3d be ac 94 53 bd 8f 3d 90 3c
       -0.12767437 -0.18511754 -0.051655456 0.017607478
000090 a9 cf aa bd fa 18 5e 3d 1b 8d 91 bb 47 cb 63 3e
       -0.08340389 0.05422304 -0.00444187 0.22245513
0000a0 77 45 3f 3e 65 1d a6 bd f3 18 93 bc c6 a3 4e 3e
       0.18678842 -0.08111075 -0.017956233 0.20179662
0000b0 ea fe 64 3e 64 7b 8e 3d 3f 99 09 3e 66 4f 87 3a
       0.22362867 0.06957129 0.13437365 0.0010323345
0000c0 a2 c4 7c 3c 41 7b d1 3c 3f e0 44 be 4e 32 89 bd
       0.01542774 0.025571467 -0.19226168 -0.06699048
0000d0 56 f9 ad bd da 1c 33 3d 85 48 82 bd 23 22 98 bd
       -0.08494823 0.043728687 -0.06361488 -0.07428386
0000e0 77 b1 80 be ca 10 28 3e fc f2 44 bd e8 3c 7a bd
       -0.25135395 0.16412655 -0.04808329 -0.06109324
0000f0 34 0b cd 3d 37 63 1c bc 61 ba a1 bd b6 35 b8 bd
       0.100119025 -0.009545139 -0.07896877 -0.089946195
000100 43 eb 30 be 37 fb fa 3d 24 cb 4e bd 9e c3 55 be
       -0.17277245 0.12254947 -0.0504867 -0.20875403
000110 ca 3a c4 3d df d6 1c be b5 18 d4 bd da 31 73 bd
       0.095815256 -0.15316342 -0.10356275 -0.059373714
000120 60 fc 58 be c0 38 13 3d 75 17 d0 3d 3c 6c 83 3e
       -0.21190023 0.035942793 0.10160724 0.25668514
000130 f3 f6 38 be 1f d9 cf bd e2 3d 82 be 2d 28 e6 3d
       -0.18062954 -0.101488344 -0.25437838 0.11238132
000140 fa 2e 85 be 9b 54 19 bc 09 9f 10 3e 08 c5 aa 3d
       -0.26012403 -0.00935855 0.14123167 0.08338362
000150 9a 21 c7 3c 85 82 8c be 50 c0 5b 3c 99 8e 85 be
       0.024308015 -0.27443328 0.01341255 -0.26085356
000160 f3 2a 80 be ea 31 8f be 25 ac df bb 73 df 79 3d
       -0.25032768 -0.2796777 -0.006825941 0.061004113
000170 70 ad c0 3b fd e6 8e bd 6e 02 6f bd 72 41 7e 3c
       0.0058800504 -0.06977651 -0.058351927 0.015518533
000180 16 62 d1 3c 71 e9 51 be 63 cc 5f 3e a3 b5 9f bd
       0.025559466 -0.20499207 0.21855311 -0.07798316
000190 d0 59 34 3e b8 a7 a3 3d 1d 2c 8f bc 01 e6 63 3d
       0.17612386 0.07990974 -0.01747709 0.05563927
0001a0 73 b4 19 3d 18 f9 4c bd 4b d8 a6 bd 03 0a 6d be
       0.037525605 -0.05004224 -0.08146723 -0.2314835
0001b0 dc 85 0f be cf 03 0e 3e 48 e1 71 bd b8 cd 09 3e
       -0.14015907 0.1386864 -0.059052736 0.13457382
0001c0 ec 60 2c 3e f3 5c 2f 3e 09 b8 01 3d 51 c9 e6 bd
       0.16833848 0.17125301 0.03166965 -0.11268867
0001d0 8f d7 e9 bd f3 b0 7e 3e c9 95 2c 3e 5c cc ba 3d
       -0.11418068 0.24872188 0.16854014 0.0912101
0001e0 4f e1 10 3e f9 37 42 3d bd f1 3f be ce 13 13 bd
       0.14148448 0.04741666 -0.1874456 -0.03590756
0001f0 61 8a 47 bd 97 90 04 3c 4d 47 dd bd 24 1e 0f 3e
       -0.048715953 0.0080911135 -0.10804615 0.13976341
000200 2a 1f 3a be 49 ef 69 3e 9d c1 61 3c 4c b4 12 3e
       -0.1817595 0.22845186 0.013779071 0.1432659
000210 9b 52 15 be 5d 95 54 be 1e 86 47 be f8 e8 da bd
       -0.14582293 -0.20760103 -0.19484755 -0.106889665
000220 60 1d 0c be 2f 77 75 be fd 51 0d 3e 55 30 38 bd
       -0.1368308 -0.23971246 0.13800807 -0.044967968
000230 d2 01 62 be e9 b6 eb bd 62 ed e0 bd 88 07 09 be
       -0.22071007 -0.11509497 -0.10982777 -0.13381779
000240 ae 71 1a 3e a2 68 3b bd ba 81 dd 3d b7 fe df bd
       0.15082428 -0.045754083 0.10815759 -0.10937255
000250 5f 67 17 be d6 f5 53 3d 65 97 87 3e 01 c9 f3 3d
       -0.14785527 0.05174812 0.26482692 0.11903573
000260 ce 0e 0d bb 67 d5 80 bd a0 a5 c4 3d 63 2c bc bd
       -0.0021523717 -0.06290703 0.09601903 -0.091881536
000270 c0 c1 cb 3b 3e 45 33 3e 66 81 93 bd 2b bd 84 bd
       0.006218165 0.17506883 -0.07202415 -0.064813934
000280 91 70 9e bc bb 79 45 bd 1b eb 4d 3e 39 6f be 3d
       -0.019340785 -0.048211794 0.20109217 0.09298558
000290 36 c0 ff 3d 0a fa 56 3d 08 8a ec bd 6b 40 32 3e
       0.12487833 0.05248455 -0.11549765 0.17407386
0002a0 30 e9 2c 3d 22 32 e7 3d 30 7d 3b 3e 8e bb 5e be
       0.042214572 0.11288859 0.18309474 -0.21751234
0002b0 e9 ac e8 3d 56 fa 72 3d 72 15 72 bd 42 09 0f 3c
       0.11361105 0.05932077 -0.059102483 0.008730235
0002c0 94 42 84 3e 84 06 73 be 6a 35 29 be 60 d5 9d 3d
       0.25832045 -0.23732954 -0.16524282 0.07706714
0002d0 1f 46 a6 3d f8 d6 88 3e 3a 0b 3f 3e b0 d8 ec 3d
       0.08118843 0.26726508 0.18656626 0.11564767
0002e0 bd 72 e3 3d 4c 99 d6 bd ce ed 4a 3e 50 23 55 3c
       0.11105869 -0.10478458 0.19817278 0.013008907
0002f0 d3 08 e9 bd 2a 20 dd bc dd b2 1f 3e ad e0 74 3e
       -0.11378636 -0.026992876 0.15595575 0.23913832
000300 de 67 46 be 95 09 fa 3d d6 d3 47 be 18 24 ce 39
       -0.1937556 0.12208859 -0.19514403 0.00039318274
000310 e1 43 29 be 51 a4 d5 bd 93 9a a3 bd aa 0e 1e be
       -0.165298 -0.104317315 -0.07988467 -0.15435281
000320 8d 9a 3c be 1e f8 b6 3d d2 7f f5 bd c8 3d 0e be
       -0.18418331 0.08934043 -0.119872704 -0.13890755
000330 57 db f3 3d 9c 58 29 3d dd 9d a7 3d bf 37 4a be
       0.1190707 0.04134427 0.08184407 -0.19747828
000340 3c 90 98 3c 47 51 58 be 78 ad e0 bc 85 49 06 be
       0.018623464 -0.21124755 -0.027426466 -0.13113983
000350 f5 5b 71 bd b6 63 62 be 1d f4 d5 bc b7 e7 2d be
       -0.058925588 -0.22108349 -0.026117379 -0.16982923
000360 f2 98 0f be b4 b2 37 be 9d 01 ae bd 03 c1 e2 bb
       -0.14023188 -0.17939264 -0.084964015 -0.0069199814
000370 1f 0c 6b bd da a9 33 be e8 b3 ce 3d d2 ab 70 3d
       -0.057384606 -0.17545262 0.10092908 0.05875761
000380 e0 4f 87 3b cb 12 31 be 86 fa a4 bd dc aa 21 3d
       0.004129395 -0.17292325 -0.08055596 0.039469585
000390 cf a3 15 3e 6c ef 51 3e f7 e1 2f 3e 6a fa 00 3d
       0.1461327 0.20501488 0.17176042 0.031488813
0003a0 4a 34 b3 3d e4 fa 41 3e a4 a8 5b 3e cb 3d f9 3d
       0.08750208 0.18943363 0.2145105 0.12169989
0003b0 b7 85 a5 3d c6 3f 6c 3b 3d ab 07 3d ca 3b c9 3d
       0.08082145 0.0036048754 0.03312229 0.09825857
0003c0 98 b0 00 3e b5 03 1e bc 8c 47 5f 3d db 26 6f 3c
       0.12567365 -0.0096444385 0.05451159 0.014596666
0003d0 b7 2a 1f 3d 86 2c c6 3d f0 ca 2d 3e 47 7f 42 3d
       0.038859095 0.09676461 0.16971946 0.047484662
0003e0 74 b2 15 3e 3b 00 0e 3d eb 9c 3e 3d a8 f4 72 be
       0.14618856 0.03466819 0.046536367 -0.23726141
0003f0 6c 83 d5 bd 5e 07 0f be 14 19 7f bd 1d d0 39 3e
       -0.10425457 -0.13967654 -0.062279776 0.18145795

actorNet.0.bias f4 [64]
000000 39 57 f6 bc c3 84 24 3e 4b 05 42 be dc 34 c8 3c
       -0.030070888 0.1606627 -0.18947332 0.024439268
000010 75 43 53 3d a6 7e f5 3d 24 80 98 3d b5 70 53 3e
       0.051578004 0.11987047 0.07446316 0.20648463
000020 3d 45 1b be 85 c8 2d 3e 1c e8 f7 3d e9 44 5f 3d
       -0.15163131 0.16971023 0.12104818 0.054509077
000030 a7 41 75 be db 3f 5c be 6a 76 6a 3d 99 31 18 3e
       -0.23950826 -0.21508734 0.057241835 0.1486267
000040 23 29 9b be d2 45 57 be b7 5c 41 be 90 19 56 be
       -0.30304822 -0.21022728 -0.18883024 -0.20908189
000050 20 32 3f 3e c7 02 ec bd 6e 69 96 3e 32 b9 96 3d
       0.18671465 -0.11523967 0.2937731 0.07359542
000060 a3 88 1a 3e 1a 00 bb bd 66 da 27 bc 0d 9f 9e bd
       0.15091185 -0.09130879 -0.010244941 -0.0774518
000070 09 0f ac 3e 88 45 0e 3e c0 43 24 bc c3 e5 6d bd
       0.3360522 0.13893712 -0.0100259185 -0.058080446
000080 7b c4 25 3e f9 55 e7 bd d6 2c ce bd e8 f9 9c be
       0.16188233 -0.11295695 -0.100671455 -0.30659413
000090 c1 22 0d 3e 1e e8 6a 3e 5d b1 aa 3d 23 e7 ba bd
       0.13782789 0.22940108 0.083346106 -0.09126117
0000a0 da 92 c0 3d fa 23 23 3d a0 db 67 3d a6 6b 81 3e
       0.0940301 0.03982923 0.056605935 0.25277442
0000b0 da 85 40 bd 6b bf 77 be 0f 4c 33 3e 6e ef 5c 3d
       -0.04700265 -0.24194114 0.17509483 0.053939275
0000c0 5d ef 5f 3e b5 47 0f 3e e3 c8 8b 3e 98 3f 3c be
       0.21868654 0.13992198 0.27301702 -0.18383634
0000d0 bb d6 a0 bd fd b1 30 be 20 7e 83 be 4d 20 e4 3c
       -0.078534566 -0.17255397 -0.25682163 0.027847433
0000e0 83 fc 66 3e 4a 11 95 bd e5 7f 1b bd 46 a0 39 3e
       0.22557263 -0.07278688 -0.037963767 0.18127546
0000f0 59 89 46 3e 1f 8b 8a bd cb a5 4c 3e 88 13 36 be
       0.19388331 -0.067648165 0.1998512 -0.17780888

actorNet.2.weight f4 [32, 64]
000000 c7 6a bc 3d fa 19 29 3d c3 18 9a 3c bc a1 97 3d
       0.09200054 0.04128454 0.018810635 0.07403895
000010 1f f4 18 3e 96 b3 f3 bd 8c c6 13 3e 0e ee 74 3d
       0.14936875 -0.11899488 0.14431208 0.05979734
000020 23 6a dd 3b 74 bb 1d 3e c3 7e 9d 3d be 57 4e 3c
       0.0067570372 0.15403539 0.076901935 0.012594162
000030 dc 34 b4 bd 8b b6 06 bd 2c f5 f8 bc 3e 00 64 bd
       -0.087991446 -0.03288893 -0.030390345 -0.055664293
000040 89 eb e4 bd 27 e4 0a be 39 e9 e5 bc e3 94 76 bd
       -0.11177737 -0.13563596 -0.02806531 -0.060200583
000050 36 49 19 3e ca 30 d5 3c 0c 6f cb 3d cb 53 30 bc
       0.14969334 0.026024241 0.0993329 -0.010762165
000060 04 c3 20 3e b8 13 59 bd fc 96 b8 bd 86 5a 19 be
       0.15699393 -0.05299732 -0.09013173 -0.14975938
000070 05 4a 84 bc 78 8b 28 3e 17 2f 40 bc cb 72 23 be
       -0.016148577 0.16459453 -0.011729977 -0.15961759
000080 68 73 ae 3c 71 ef 3e 3e 44 d1 b9 bb 33 4a 0a bd
       0.021295264 0.18646027 -0.0056706984 -0.03376217
000090 2b 14 f6 3b ba 6f 9a bd 21 db 04 bc 0a a4 6a be
       0.0075097284 -0.075408414 -0.008108885 -0.22914138
0000a0 af d2 41 3d 6e 1d 71 bc 05 ee 29 bd 89 3a 1b 3e
       0.047320064 -0.014716489 -0.04148676 0.15159048
0000b0 a5 9e 36 bc 89 08 61 bd 11 f3 c3 3c 6a 80 54 3d
       -0.011146222 -0.05493978 0.023919614 0.051880278
0000c0 6d 9b c1 3c b3 86 08 3e ee 26 57 3d 9b 74 3b be
       0.023633683 0.13332634 0.05252736 -0.183062
0000d0 18 3f 29 3e 66 55 96 bc a2 d8 6e bb 7d 6a db 3d
       0.16527975 -0.018351268 -0.0036445041 0.107136704
0000e0 11 6e 3d 3e 4f c8 3a bb d3 2c 2d 3d c3 79 fd 3d
       0.18499018 -0.002850074 0.042279076 0.1237674
0000f0 2d 3a 1a 3d 88 16 92 3a 22 8e 53 3e 91 ed f2 bd
       0.037653137 0.0011145631 0.20659688 -0.118617184
000100 ae d9 40 bd b8 e3 49 bd 9a 6c f8 3c 29 31 e9 3d
       -0.047082596 -0.049289435 0.030325223 0.1138633
000110 9b 0b 15 be 7d a6 38 bd 2f 5f a3 bd 1b c7 ee 3b
       -0.14555208 -0.04508065 -0.07977139 0.007286919
000120 2a 1a b3 3d 77 fb 48 bd b6 be 28 be f6 ea 71 bd
       0.08745225 -0.04906794 -0.16479 -0.059061967
000130 fe 39 48 3e 23 73 ea 3d aa f6 b3 3b 33 4e be bb
       0.19553372 0.11447742 0.005492051 -0.005807662
000140 b0 3c 3b 3e 0e 0f 00 bd 6e 73 de 3a 53 ba 87 3d
       0.18284869 -0.031264357 0.0016971657 0.066273354
000150 03 81 b1 bd d7 da a1 3d 3b 19 0f be 06 c0 4b bd
       -0.08667185 0.079030685 -0.13974468 -0.049743675
000160 2f c4 aa 3a cf bb 73 bc c5 d8 5e 3d 88 00 02 3d
       0.0013028438 -0.01487632 0.054405946 0.031738788
000170 55 ef b4 3c 80 67 b0 bd e4 57 8b bc cb a5 27 3e
       0.022086779 -0.08613491 -0.017009683 0.16371839
000180 0c c8 96 bc 54 d6 02 be 4f d6 a0 3d e6 f9 16 3d
       -0.018405937 -0.12777072 0.07853376 0.036859415
000190 86 26 34 be d5 4a 74 bd 0f fc 71 be 0b 39 5d 3e
       -0.1759282 -0.059641678 -0.23631309 0.21603791
0001a0 78 6f 9c bd 98 42 19 be f1 c1 08 be d4 d3 0c bd
       -0.076384485 -0.1496681 -0.13355233 -0.034381703
0001b0 ce 2e 41 3d 78 de 6c 3e a8 c5 14 be 83 f2 08 be
       0.047163777 0.2313174 -0.14528525 -0.13373761
0001c0 53 05 1f be e4 8a 90 3c 3c 1e 6a bc 21 3d 95 bd
       -0.15529375 0.017644353 -0.014289435 -0.0728705
0001d0 83 50 0d be 2c d3 a1 bd f3 74 16 3e 33 cb 4f 3d
       -0.13800244 -0.07901606 0.1469305 0.050730895
0001e0 3d cb 51 be 03 c5 56 3e 67 d4 ab 3d fa 65 c2 3c
       -0.20487686 0.20973592 0.08390122 0.023730267
0001f0 ef 94 0e be f3 ef 19 be d4 02 86 bd ff ad 32 3e
       -0.13924001 -0.1503294 -0.06543508 0.17449187
000200 e8 f9 a1 bd 01 dd 0a 3e 79 36 d3 3b 78 c3 5a bd
       -0.07908994 0.13560869 0.0064457026 -0.05340907
000210 2d ad f7 3d 46 6c 05 be 5f 9b 34 3e 41 78 47 3e
       0.120935775 -0.13029584 0.17637394 0.19479467
000220 20 25 74 3b d4 ab ec bc 3d a4 9c bc 6f 20 3f 3e
       0.0037253574 -0.028890528 -0.019121284 0.18664716
000230 70 03 11 bd 19 19 42 be 6a 6b d0 3b bd 89 28 3a
       -0.03540367 -0.18954886 0.006360461 0.0006429216
000240 cf 79 3d be 65 fc e2 bd ce 08 49 3d 0f 13 8f 3a
       -0.18503498 -0.11083297 0.049080662 0.0010915714
000250 34 a2 fe 3d 15 72 23 be b7 52 54 3c 17 76 b2 ba
       0.124332815 -0.15961488 0.012959174 -0.0013615516
000260 e5 f7 a8 3d 4e ed f5 bd 67 6e 0f bd 46 d7 9f bd
       0.08250407 -0.12008153 -0.035017397 -0.07804732
000270 58 9f 51 3e d4 7c 72 3e 5d 76 5e bd a4 ef be bd
       0.20470941 0.2368043 -0.0543121 -0.093230516
000280 64 f9 81 bb 23 af 9e 3d ed 8d b2 bc 35 e0 45 bd
       -0.0039664973 0.077482484 -0.021796191 -0.048309524
000290 54 11 0b bd 84 4b 8c 3d f8 cb 54 3e 0f a4 0a be
       -0.033952072 0.06850341 0.20780933 -0.13539146
0002a0 6c 9f a2 3d b8 74 2c 3a 18 59 69 3d 2b ef fd 3d
       0.079405636 0.0006578672 0.056969732 0.12399133
0002b0 64 7c 2f 3d 3d 27 72 be 26 de 18 3e 6d ef 88 bb
       0.042843238 -0.2364778 0.14928493 -0.0041789324
0002c0 6d 62 bb 3d 68 06 88 3e 82 d9 3a bd eb d1 a7 bd
       0.091496326 0.26567388 -0.045617588 -0.081943356
0002d0 53 f5 37 3e 99 fe 8c 3d 89 42 1f be 57 5a 1e 3e
       0.17964678 0.06884498 -0.15552725 0.1546415
0002e0 49 26 4e 3e cc 27 72 bd 44 f9 ac bd 93 4c f2 3d
       0.20131792 -0.059119985 -0.08445981 0.118310116
0002f0 96 40 83 3e 69 83 be 3d d1 c6 b6 3b 1e cc 4d be
       0.25635213 0.09302408 0.0055779 -0.20097396
000300 1f 55 56 3d ac 30 ca 3b 06 2f d0 bd 80 62 1d be
       0.05232727 0.006170353 -0.10165219 -0.15369606
000310 be af 29 3e 2a a6 84 bd be 46 0b 3e 0b 0a ce 3d
       0.16570947 -0.06477006 0.13601205 0.10060509
000320 bc e1 d3 bd 4c fc 0c 3e 02 f9 28 3e cc dc cc 3d
       -0.1034579 0.13768119 0.16501239 0.10003051
000330 ec 23 b8 bc 1a e7 f2 bd bf 65 22 3d cd 38 19 bd
       -0.022478066 -0.118604854 0.039647814 -0.037407685
000340 8d 6a 09 bd 6f f5 0d be fd 73 81 3d fc fa 9b 3d
       -0.03354888 -0.13863157 0.06320951 0.07616231
000350 76 0e a1 3d 5f 22 0a be e9 a0 3f 3d 8d 9e 5e bd
       0.07864086 -0.13489674 0.046784315 -0.054350425
000360 32 01 73 3d 08 ed da 3c 4d 65 4c bd c8 e9 01 bd
       0.05932731 0.026724353 -0.049901295 -0.03171709
000370 6a 40 97 3d 13 19 8b 3d 6b 6b 30 be 78 21 44 bd
       0.07385333 0.06791892 -0.17228477 -0.04788348
000380 2f 1e 4c 3d 64 17 93 3c ff 48 06 bd 7a 59 02 be
       0.049833473 0.01795549 -0.03278446 -0.12729445
000390 e9 0c 5d 3d 24 18 cd 3d 04 c9 87 3e c0 0e 58 be
       0.05396739 0.1001437 0.2652055 -0.21099377
0003a0 35 1d be 3d 36 97 c7 3d f4 0c 7e bd 52 7f 14 bd
       0.092829145 0.09745638 -0.06202407 -0.036254235
0003b0 4a 1c 7f bd fd e3 2f be 82 ff 32 bd bf 4e df 3c
       -0.062282838 -0.17176814 -0.043700702 0.027259229
0003c0 a1 6a 9d 3d 9b cb 96 3d ab ac 0f 3e ca ab 8a bd
       0.076863535 0.073630534 0.14030711 -0.067710474
0003d0 76 34 3c 3e ad 09 2e 3d 03 eb 87 3d ae f1 69 3d
       0.18379387 0.042489696 0.06636622 0.05711525
0003e0 29 5a 08 3e e4 80 84 be a6 ed aa 3d 57 54 b9 3d
       0.13315643 -0.25879586 0.08346109 0.0904929
0003f0 78 b1 84 3e ef 36 03 3d ac 4a 33 3e 31 45 d5 bd
       0.25916648 0.03203481 0.17508954 -0.10413588

actorNet.2.bias f4 [32]
000000 80 69 b9 3d 6e 2a 24 be 69 1a 5e bd 51 35 41 3d
       0.09053326 -0.1603181 -0.054224405 0.047169987
000010 cf 74 ba bd 25 da 89 3d 6f 94 cf 3b 04 25 96 3c
       -0.09104311 0.06731061 0.0063348333 0.018328197
000020 6a 04 dd bd f7 b4 01 3e ba 07 28 3e 5e 70 35 3d
       -0.107918575 0.12666689 0.16409197 0.044296615
000030 cc a4 df bc a7 c6 11 3d 5d 35 23 be f6 f5 00 bc
       -0.027300261 0.03558984 -0.15938325 -0.007871142
000040 09 0a a4 bd 5c be 1f bc ef 35 46 bd 9a e3 22 3d
       -0.080097266 -0.009749975 -0.04839128 0.03976784
000050 fd 9a e3 bd 2e 82 dc bd 84 41 d1 3d d1 7b 8d 3d
       -0.11113546 -0.10767017 0.10217574 0.06908382
000060 a5 d4 8b 3d 39 2e 14 3d ab 6b 37 bd eb bc 53 3d
       0.06827668 0.036176894 -0.044780415 0.051693838
000070 76 e7 0e 3e f9 b8 91 3d be 5c c9 bd fc b2 1a be
       0.13955483 0.07115359 -0.09832142 -0.1510734

actorNet.4.weight f4 [4, 32]
000000 31 27 51 3e 19 01 e2 be 85 9a 67 3e 98 7c f8 3e
       0.20425107 -0.44141462 0.22617538 0.48532557
000010 4c 34 e9 be 49 ad 9c 3e 0d f4 3f be 23 ae d5 be
       -0.45547712 0.30600956 -0.18745442 -0.41734418
000020 39 cf 88 be 45 d9 4b 3e 30 2a 48 3e 91 9c e9 3e
       -0.26720598 0.199071 0.19547343 0.45627263
000030 bc 1b c7 3e a9 da 17 be 17 18 69 be 55 a3 15 be
       0.38888347 -0.14829506 -0.22763096 -0.14613087
000040 c2 ec 21 be 01 d9 39 be d3 5a 45 be e0 c1 9b be
       -0.15812972 -0.18149187 -0.19272928 -0.30421352
000050 9c c8 4f be 8c df 35 be 43 12 ee 3e a1 14 60 3e
       -0.2029137 -0.17761058 0.46498308 0.2188287
000060 f6 1a b2 3e 3f 4c 9c 3e d4 ea 85 be d4 e1 ae 3e
       0.34786195 0.3052692 -0.26155722 0.34156668
000070 42 e2 15 3e ed c3 e2 3e 59 28 e4 be 52 95 e3 be
       0.14637092 0.44290105 -0.44562033 -0.4444986
000080 e4 e2 bc be 1f bb 65 3e 93 64 89 be 6f 11 d0 be
       -0.36891854 0.22434662 -0.26834545 -0.406383
000090 da d9 64 3e 6b 9f af be da 3f a5 3e f8 f2 b4 3e
       0.22348729 -0.34301314 0.32275277 0.3534162
0000a0 f1 93 63 3e 1a cc b9 be ec c6 f7 be 46 ae db bd
       0.22224404 -0.3628853 -0.48393953 -0.107265994
0000b0 5c c1 b3 be c0 27 9b 3e 92 25 89 3e ed 8c b0 3e
       -0.3510846 0.30303764 0.26786476 0.34482518
0000c0 b8 5b a3 3e e6 75 92 3e 1c 1a b8 3e d3 81 ab 3e
       0.31905913 0.28605574 0.3595742 0.33497486
0000d0 9b b9 9c 3e 34 c6 84 3e fe 03 95 be 18 ce b5 be
       0.30610356 0.25932467 -0.29104608 -0.355088
0000e0 0a 54 87 be d4 4d 89 be ba 5c 5e 3e 09 e5 aa be
       -0.26431304 -0.2681719 0.2171506 -0.33377865
0000f0 67 7b 51 be 56 7c c5 be 41 98 cb 3e 68 d5 90 3e
       -0.2045723 -0.38571423 0.39764598 0.28287816
000100 a7 a2 4e be 9f 88 bd 3e 9c 6b 98 be 17 bd d0 be
       -0.20179234 0.37018296 -0.297696 -0.40769264
000110 3b e9 69 3e f5 17 b2 bd be 46 30 3e a3 d8 ab 3e
       0.22842877 -0.08695976 0.17214486 0.33563718
000120 f0 ca 94 3e b1 cc c4 be 8c d7 b4 be db d4 86 be
       0.2906108 -0.38437417 -0.353207 -0.2633427
000130 1e 9b 85 be 37 be 9d 3e 60 25 ae 3e 03 d7 9d 3e
       -0.26094908 0.30809185 0.3401289 0.30828103
000140 29 52 c2 3e 61 8d e0 3e 84 48 c3 3e 61 41 a0 3e
       0.37953308 0.43857864 0.38141263 0.3129988
000150 64 a1 c7 3e 3f a6 c1 3e d4 b1 55 be ef 9e 4e be
       0.3899032 0.37822148 -0.20868617 -0.20177816
000160 e7 4c 32 be 50 36 62 be 2d 42 90 3e 8f b8 bb be
       -0.17412148 -0.22091031 0.28175488 -0.36664245
000170 c8 da 4f be 79 8c d9 be d6 83 44 3e 86 0f c7 3e
       -0.20298302 -0.42489985 0.19190916 0.3887903
000180 51 de 9b be 4b 08 bf 3e f0 e1 f3 be 47 60 b6 bd
       -0.3044305 0.37311015 -0.47633314 -0.08905082
000190 1c 66 8c 3e b2 43 37 be a6 9e ca 3d e0 b2 b3 3e
       0.27421653 -0.17896917 0.09893541 0.35097408
0001a0 47 d5 9c 3e d8 a6 4c be e8 99 84 be 31 3b d4 be
       0.30631468 -0.19985521 -0.2589867 -0.4145141
0001b0 eb d8 8b be c1 a1 7f 3e d7 f1 7c 3e 78 4c 91 3d
       -0.27313933 0.24964048 0.2470163 0.070946634
0001c0 4c a9 b0 3e a0 29 d2 3e 41 4e b0 3e ad ed e3 3e
       0.34504163 0.41047382 0.34434703 0.4451727
0001d0 57 40 c8 3e 67 f4 a5 3e 6f f0 b8 be 9b 55 c4 be
       0.39111587 0.32413027 -0.36120936 -0.38346562
0001e0 d7 dd 26 be 24 04 c9 be 7e 68 9f 3e f9 d9 66 be
       -0.16295563 -0.39260972 0.3113441 -0.22544087
0001f0 22 a1 91 be c2 5f c9 be d1 ff c3 3e d0 d9 78 3e
       -0.28443247 -0.3933087 0.3828111 0.24301839

actorNet.4.bias f4 [4]
000000 2c 7c af 3e 20 98 65 bb ec d4 8e be a5 2b 85 be
       0.34274423 -0.00350333 -0.27896821 -0.2600986

criticNet.0.weight f4 [64, 24]
000000 e8 e9 74 3f 5a 42 13 3f 85 51 a1 be ef 7e 04 3f
       0.9566941 0.5752312 -0.31507507 0.51756185
000010 20 90 c1 3f ec 82 89 bd cd d6 b0 3d 5b 78 3f 3e
       1.5122108 -0.067144245 0.0863472 0.18698256
000020 79 2c fc bd 50 d2 d5 bd e0 a3 a7 bd a4 ed 98 3c
       -0.1231317 -0.104405046 -0.081855536 0.018668003
000030 83 57 ff bc af c2 97 be 15 67 7a 3d 36 23 77 bd
       -0.031169659 -0.2964072 0.061133463 -0.060336314
000040 f9 19 1f be 2e 21 18 be 50 a7 88 bd 63 8e 51 3d
       -0.15537252 -0.14856407 -0.06672537 0.05116118
000050 b3 63 9b bc 54 bf e7 bd 3d 9c ea bd b0 2b 8d bc
       -0.018968439 -0.1131579 -0.11455581 -0.017232746
000060 6a 97 fc be 5f 43 9a bf b9 13 9c 3f 43 0c da 3e
       -0.4933427 -1.205181 1.2193519 0.4258748
000070 a9 9e ee 3e 76 d0 a2 be 06 1e 4e bd ef c7 49 bd
       0.46605423 -0.31799668 -0.0503216 -0.049262937
000080 21 46 07 3f 5c f8 93 bf d7 f3 b7 3c a7 b0 86 ba
       0.52841383 -1.1560168 0.02245514 -0.0010276035
000090 f9 aa 4b bb 43 8a e6 bc d0 69 4e 3e 93 7d 81 3d
       -0.003107725 -0.0281421 0.20157552 0.063227795
0000a0 c9 9f 8a bd 4f 77 50 3d 84 f4 ac 3b 2d e4 72 bc
       -0.06768758 0.05089503 0.005278172 -0.014824909
0000b0 26 c4 31 3e 14 eb 5b 3e a4 fe 87 bd 72 07 a8 3e
       0.17359981 0.21476394 -0.06640366 0.3281818
0000c0 45 76 8b 3d 31 31 90 bd b0 5c 1e 3e 82 63 3d be
       0.068096675 -0.070406325 0.15465045 -0.1849499
0000d0 fd 23 ec 3e f5 28 6e 3e ac 9d 01 bf 34 14 18 be
       0.46121207 0.23257811 -0.50631213 -0.14851457
0000e0 36 3b 59 3e 28 19 b7 be e6 94 03 3f 4a da a4 bd
       0.21213993 -0.3576138 0.51399076 -0.08049448
0000f0 70 3e 2b bd 90 c5 e7 bc 90 d3 c6 3b 99 27 32 bd
       -0.041807592 -0.028292447 0.0060677007 -0.043494795
000100 d8 04 71 3c c8 1b 12 bd d3 33 cb bc b4 1a 1e bc
       0.0147106275 -0.035671026 -0.024804985 -0.009649921
000110 8e e7 a7 bd ec a6 39 be f5 ff 07 3e b3 68 32 be
       -0.081984624 -0.18130082 0.13281234 -0.17422752
000120 80 8f 2f bf 97 d0 97 3e 59 4e f5 bd 39 25 75 bf
       -0.6857834 0.2965133 -0.11977834 -0.9575992
000130 c7 3a 0d be ef 65 3e 3e 8f 77 b0 be c2 3c 88 bf
       -0.13791953 0.18593572 -0.34466216 -1.0643542
000140 d7 ba 11 be 2b ab 2c bf 65 64 3e be c1 5c 5a 3b
       -0.1423143 -0.6744868 -0.18592985 0.0033319446
000150 fd 98 79 3e 2d cf 03 be 5a 63 33 3e df 87 18 be
       0.24374767 -0.12872 0.17518368 -0.1489558
000160 82 f1 ad bd 45 16 fd 3d 2b 40 92 bd 52 91 10 be
       -0.084933296 0.12357763 -0.07141145 -0.14117935
000170 6f 25 ee 3c 6f 6c c6 3c 52 a3 24 3e 24 c9 17 3e
       0.029070584 0.024221627 0.16077927 0.14822823
000180 06 bb 26 3f 54 b2 42 3f 1e cf 5a bf f0 fe 88 be
       0.65129125 0.7605336 -0.85472286 -0.26757002
000190 b0 53 04 c0 43 40 f1 be bd 9d 53 bf b8 d3 7d be
       -2.0676079 -0.4711934 -0.82662565 -0.24787796
0001a0 76 dc 46 3d 41 80 10 3e 9f e5 99 3c c0 5d f8 3d
       0.04855009 0.14111425 0.01878625 0.121272564
0001b0 f1 88 f4 bd 7f 0a b9 bd 9a d7 a3 3c e0 9b bb 3d
       -0.11940182 -0.09035205 0.020000268 0.0916059
0001c0 c4 f2 1f be 3a 2d a6 3d f8 3e 5e be 01 00 21 be
       -0.15619951 0.08114095 -0.21703708 -0.15722658
0001d0 c4 af a7 3b c2 b9 44 be 4e ed 58 bd f7 4c ff bd
       0.0051173884 -0.19211486 -0.052960686 -0.12465852
0001e0 c6 4f ab bf 12 67 a4 bf f5 5c 35 3d 22 0a 74 3e
       -1.338372 -1.2843955 0.044278104 0.2383199
0001f0 36 6c a5 be 55 85 fc 3e 6e 26 80 be 9d 14 55 3e
       -0.3230912 0.49320474 -0.2502932 0.20808645
000200 a3 7a 07 be c9 9d 4f be 61 9f 59 be eb 63 f8 3c
       -0.13230376 -0.20275034 -0.21252204 0.030321082
000210 d2 0b c5 bd f3 f5 6a be fd 32 d7 be 52 c3 e0 bd
       -0.09621395 -0.22945385 -0.42031088 -0.109747544
000220 3c 50 d8 be 3b 00 f3 bd f7 65 ea bd c5 be a9 be
       -0.42248714 -0.11865278 -0.114452295 -0.33153358
000230 21 43 8a be 61 14 cc be a9 11 1e 3c ba ec 91 be
       -0.2700434 -0.39859298 0.009647765 -0.2850092
000240 89 b1 06 c0 c1 6e 42 bf b2 9c 13 bf 86 46 3c be
       -2.104586 -0.7595025 -0.57660973 -0.18386278
000250 e6 73 3b 3d ee 29 06 bd cf 1b e3 3e 14 81 9a 3d
       0.045764826 -0.03275483 0.44357154 0.07544151
000260 c8 59 45 be 1e 0f 50 3e 94 4a a2 3e 8f cf 4f bd
       -0.1927253 0.20318267 0.31697524 -0.050735053
000270 e5 13 84 3e 0b 85 b3 3c 30 cc 05 be 5c b2 7e be
       0.25796428 0.021914026 -0.13066173 -0.24872726
000280 ea db 23 be f1 fa ac be 73 ab 9c bd 88 e8 cb be
       -0.1600186 -0.33785203 -0.07649889 -0.39825845
000290 3d d9 f5 bd a6 50 23 bc 5d af ae be 2c 4f 80 3c
       -0.120043255 -0.009967959 -0.34118167 0.015662752
0002a0 0c d7 4c 3f fb 4f 0f 40 6f 0e 5f be 48 bc 26 bf
       0.80015635 2.2392566 -0.2178285 -0.65131044
0002b0 3d 75 ce bd d6 62 bb be 0d c2 e3 bc f9 f7 f0 be
       -0.10080955 -0.36598843 -0.027802492 -0.47064188
0002c0 16 a9 0d 3e 0d c3 9d 3e 24 5b 86 bd 59 25 6f 3e
       0.13834032 0.30812874 -0.065603524 0.23354091
0002d0 f1 38 30 3e d0 d4 08 3e f7 63 0c 3e 8e 4c 67 3e
       0.17209221 0.13362432 0.13710009 0.22587797
0002e0 c3 a5 3c 3e c2 39 96 bd 44 1a d3 bd da 35 b4 3b
       0.18422608 -0.07335235 -0.10307744 0.0054995837
0002f0 b2 8e a9 bd 67 22 82 3d a3 57 1e 3e fc a1 42 be
       -0.0827917 0.06354218 0.15463118 -0.19007105
000300 be 0b 8d 3f b1 1e a3 3f d5 71 f3 bf b3 a8 7f 3f
       1.1019208 1.2743741 -1.9019114 0.9986679
000310 44 2e 94 be 33 3c 0d 3e 72 20 62 3d bf 49 e3 3d
       -0.28941548 0.13792495 0.055206724 0.1109805
000320 48 7a 0a 3a c2 cb 80 3f 46 79 3a 3e 4e 77 ad 3e
       0.00052825036 1.0062182 0.18210325 0.33880085
000330 42 b3 33 3d 66 8c 0c 3e d4 51 65 3d b8 11 d5 bc
       0.043872125 0.13725433 0.05598624 -0.026009426
000340 33 04 56 bc eb b2 25 3d 80 cc 4b 3e 7d 0c c3 3d
       -0.013062525 0.040453833 0.1990223 0.09523866
000350 4d 42 81 3d 38 16 52 3e 61 28 1a be b8 1f c0 be
       0.06311474 0.20516288 -0.15054466 -0.375242
000360 74 69 3d bf b1 59 12 c0 e0 75 60 40 44 a8 4b 3e
       -0.73989034 -2.2867243 3.5071945 0.19888407
000370 b3 09 17 bf 42 7d 25 3d 06 01 5b 3d ad 44 29 bd
       -0.58999175 0.04040266 0.053467773 -0.04132526
000380 f8 65 ae be e3 02 d7 be a9 f2 e7 3c 2d 94 8a be
       -0.3406217 -0.4199439 0.028313952 -0.27066174
000390 25 ce f0 3d b1 c4 8a 3d cf af de bb 21 4a 47 3e
       0.11758069 0.06775797 -0.0067958604 0.19461872
0003a0 a1 9b 33 be 6a 6b c3 3c d2 60 2c bd 05 eb 79 3b
       -0.17539836 0.02385493 -0.042084523 0.0038134467
0003b0 c6 89 3a bd 1b 6c 57 bd 98 1e 5b 3e 51 7c a7 3d
       -0.045541547 -0.05259333 0.2139839 0.08178008
0003c0 2f 0c cf 3e f2 d6 00 40 7a f2 51 bf 34 21 84 bf
       0.40438983 2.0131192 -0.82010615 -1.0322633
0003d0 23 c6 8b 3f a9 ec 14 bd 75 54 a1 3e 9f 62 85 3d
       1.0919842 -0.03635851 0.31509748 0.06512951
0003e0 44 88 a4 bd 4e 5f d1 be e4 97 9d 3e 6e 5e 10 bd
       -0.08033803 -0.40893024 0.30779946 -0.035246305
0003f0 99 cf fe 3d ca 9b 80 3e a8 17 87 3e 41 25 ec bd
       0.1244194 0.25118858 0.26385236 -0.11530543

criticNet.0.bias f4 [64]
000000 e9 02 22 bd 3d 9e 7b 3e c0 09 11 bd a3 06 65 bb
       -0.039553557 0.24572082 -0.03540969 -0.0034946583
000010 ac 44 11 3c 6b fd 93 bd 61 4e f2 3d 51 00 a4 3d
       0.00886647 -0.0722607 0.11831356 0.08007873
000020 bf 9e 8b be 6c 3e bf 3d ee 8e 5a 3e aa d7 cd 3e
       -0.2726955 0.09338078 0.21343586 0.402036
000030 26 3e 2f be 27 16 52 3e 69 05 1c 3e 26 7f 88 be
       -0.17113551 0.20516263 0.15236439 -0.26659507
000040 92 fe 19 be 8b 35 12 be c3 7b 13 be 5e 80 00 be
       -0.15038517 -0.14278238 -0.1440268 -0.12548968
000050 74 1e db be 80 d1 15 be 23 e8 72 be 89 8e 5b bd
       -0.4279667 -0.14630699 -0.23721366 -0.05360273
000060 7e 6d 82 3e eb c9 af 3d 78 81 bf 3e e7 7b 9c 3d
       0.2547416 0.08583435 0.37403464 0.0764082
000070 2b 49 d4 bd 57 2b b5 3c 78 7e 85 bd 05 65 10 3e
       -0.10365518 0.022115393 -0.065182626 0.14101036
000080 df 89 08 be 63 dd 52 3e af 2b 3c be c4 fb 87 be
       -0.13333844 0.20592265 -0.18376039 -0.2655927
000090 35 cb cc 3d 56 65 05 be a0 b3 19 3e 94 08 3d be
       0.09999696 -0.13026938 0.15009928 -0.18460304
0000a0 db af be 3e c3 ca 7c 3e 7f 2f 4d 3e 1c 92 f3 3d
       0.37243542 0.24686722 0.2003765 0.118931025
0000b0 c2 3d 64 3d 6e b9 3b be c4 bd 15 3e d3 af 28 be
       0.05572296 -0.18332455 0.14623171 -0.16473322
0000c0 be ad b6 be af ba d9 bd 47 9c 9f bf 23 06 19 be
       -0.3567943 -0.1063131 -1.2469567 -0.14943747
0000d0 00 07 18 3d a0 e7 14 be 1e 0e aa bd e9 84 bf 3e
       0.03711605 -0.14541483 -0.08303474 0.3740609
0000e0 0f e6 be 3e e6 41 29 3d b5 fb f4 be 81 c2 c4 be
       0.37284896 0.04132261 -0.47848287 -0.38429645
0000f0 c4 94 5d bd 1c aa 1c 3d 44 c4 74 be ef 48 b0 be
       -0.054096952 0.038248166 -0.23902994 -0.34430644

criticNet.2.weight f4 [32, 64]
000000 f0 7c 1b 3e 24 b3 78 bc e0 27 b0 3e 31 28 c2 3e
       0.15184379 -0.015179429 0.34405422 0.3792129
000010 83 a0 8d be 56 f4 3b 3f 87 60 72 3f 7b 63 2f be
       -0.27661523 0.734197 0.9467854 -0.17127793
000020 72 df 06 3e 95 c2 b8 bd 20 bc c0 bd b9 fb 12 bc
       0.13171175 -0.090214886 -0.09410882 -0.008971148
000030 35 97 33 bd 4a 5d 32 3e 97 58 12 bf 72 15 11 bf
       -0.043845374 0.174184 -0.5716643 -0.5667335
000040 fc 52 a1 be b1 e4 27 3f 27 59 da 3d ca 6c 0d 3f
       -0.31508625 0.6558333 0.10661536 0.55244124
000050 90 86 e5 3c 89 f8 36 bf 4c 7e 43 be bd 15 4c be
       0.028018266 -0.71472985 -0.19091147 -0.19930167
000060 7e 3d 9d be b7 62 97 bc 47 5d 8f be d7 d9 2a be
       -0.30710977 -0.018479688 -0.28000852 -0.16684662
000070 08 d9 d2 be 4a d8 be 3c 42 e4 83 3f 9c d3 96 be
       -0.41181207 0.023296494 1.0304034 -0.2945832
000080 37 ec e6 be 12 46 a8 be 68 e3 ca bd 38 e4 a7 3e
       -0.45102093 -0.3286596 -0.099066556 0.32791305
000090 17 b0 7a bd 2b fe 07 3f 2d 32 ba 3e 1b 55 89 3d
       -0.06120309 0.53122205 0.36366406 0.06705686
0000a0 0f 3f b5 be 98 8b 8c 3e cc 85 dc 3d 36 86 64 bd
       -0.35399672 0.27450252 0.10767707 -0.055792056
0000b0 5c d0 a2 3e d8 de df be 2b 50 6c 3e f8 c6 5d 3d
       0.3179959 -0.43724704 0.23077457 0.05414483
0000c0 4c 78 94 3d 46 16 0b bd fc e5 25 3e e0 d3 2d 3f
       0.07249507 -0.03395679 0.16201013 0.6790142
0000d0 42 89 a6 3f 43 59 d3 3e 9f 14 15 be 28 5a 38 bb
       1.3010638 0.4127904 -0.14558648 -0.002812991
0000e0 42 f9 2a be a7 37 55 3e a3 15 1a 3e 4e 46 85 3d
       -0.16696647 0.20822011 0.15047316 0.0650755
0000f0 e9 c8 b5 3d 64 b1 81 3e f0 88 0a bf 7e b8 02 3e
       0.08876211 0.2533065 -0.541152 0.1276569
000100 80 d3 90 3d de e3 d4 3d a0 ea d4 3d 24 c8 15 3d
       0.070715904 0.10395025 0.10396314 0.036567822
000110 7f 1c d9 3e b1 b5 12 bd 55 68 04 bf 4b 75 6b be
       0.42404553 -0.035817806 -0.517217 -0.22993962
000120 71 2f 6d be 16 b2 02 3e eb 5d a4 be 63 47 98 be
       -0.23162629 0.12763247 -0.32102904 -0.29741964
000130 54 83 ea bd 30 4c af 3e 84 06 82 be 9a 6f 4a 3e
       -0.1145083 0.34237814 -0.25395596 0.19769135
000140 ec 2a 2c 3e a8 78 39 bf 1a a0 ae 3e 88 5d 06 3f
       0.16813248 -0.7244973 0.34106523 0.5248647
000150 43 ba 80 3d 7d fd 72 be 05 b2 2c 3e f8 72 12 be
       0.062855266 -0.2372951 0.16864784 -0.1430167
000160 db f2 f9 3e 74 50 44 bf 40 c2 88 3a 1d fe 98 3e
       0.48818097 -0.7668526 0.0010433868 0.29881373
000170 30 58 93 3e 54 58 4b bf 08 15 87 3b a7 53 57 bf
       0.2877822 -0.79431653 0.00412238 -0.8411202
000180 ad 32 ef 3b 3d 6d 1a be 55 67 96 be 9c f2 86 be
       0.007299742 -0.15080734 -0.2937571 -0.2635697
000190 1e 59 98 3e 00 30 b5 bd e3 1c c1 3e bc 19 93 bd
       0.2975549 -0.08847046 0.3771735 -0.07182643
0001a0 bc 8a f8 3e 5c d0 ec be ec 12 1e 3e ff fa d6 be
       0.48543346 -0.46252716 0.15436906 -0.4198837
0001b0 52 d7 42 3f f4 85 3d 3f 5f 95 1e bb 9a 13 47 be
       0.761098 0.7403252 -0.0024197919 -0.19441071
0001c0 a9 ca 14 be 05 c4 38 3e 37 7c 94 3d 48 30 e6 be
       -0.14530434 0.18043526 0.072502546 -0.4495871
0001d0 bb 91 29 bf d0 f9 0e be e4 6b 79 3f 25 24 35 bd
       -0.6623799 -0.13962483 0.97430253 -0.044223923
0001e0 3d 6f 73 3e 63 d6 0c 3f da c6 2c 3d 62 e1 d5 3d
       0.23772903 0.5501463 0.042181827 0.10443379
0001f0 eb 82 da 3c 16 39 56 be 34 f6 d8 be f7 29 31 be
       0.026673755 -0.20920214 -0.42375338 -0.17301165
000200 5d 3f 7c 3e 9a e7 28 bf 53 ff 3f 3d f6 bf 17 be
       0.24633546 -0.65978396 0.046874356 -0.14819321
000210 c3 7a 89 3f 1b ba bd 3d f2 75 87 3d 26 d5 02 3f
       1.0740589 0.092640124 0.06614293 0.5110649
000220 0f de 1b 40 56 12 ef bf b7 44 50 3e bf fa 7d be
       2.4354284 -1.8677471 0.20338713 -0.24802683
000230 6c 0b f7 bd a8 5f 1c be a1 e6 c4 3d 31 79 b0 3e
       -0.120627254 -0.15270865 0.096143015 0.34467462
000240 42 58 7e be 98 a1 64 be ef a2 ef bc 3d 15 cd 3d
       -0.24838355 -0.22327268 -0.029252497 0.100138165
000250 83 fb 13 be dd 46 54 bd 97 8d 20 3c 29 ee 53 3f
       -0.14451413 -0.051825393 0.009799383 0.8278528
000260 70 50 8b be 58 4e 71 be e6 4a 7a be 9c d3 03 bf
       -0.27209806 -0.23565042 -0.24442634 -0.51494765
000270 6c b4 05 3f b8 5e 87 be 5f ea 95 be c6 2d bb bd
       0.52228427 -0.26439452 -0.29280373 -0.0913959
000280 ac 3a 01 3f 7d 62 b3 3e 60 58 2c 3f b7 ff 45 3f
       0.5048015 0.35036078 0.6732235 0.77343315
000290 8f ad 1c bf 33 1b 03 3d f8 0b 77 3e 4b 48 38 3e
       -0.6120233 0.03200836 0.2412566 0.17996328
0002a0 74 25 4b bf 87 82 5c 3e 3a ff b0 3e d3 4b 1f bf
       -0.79354024 0.21534167 0.34569722 -0.62225074
0002b0 82 09 97 bd e1 b2 a5 3e a0 49 4c be c8 1b 68 3e
       -0.0737486 0.32363036 -0.1994996 0.22666848
0002c0 6b a5 16 3f f0 a9 01 40 2e 63 b0 3e 5f fd 9f 3b
       0.5884616 2.0259972 0.34450668 0.004882499
0002d0 08 ce 24 3e a2 e9 1f bd 77 71 97 bf 59 e8 2a be
       0.1609422 -0.03904117 -1.1831502 -0.16690196
0002e0 13 55 62 bd 6b df 1f be 61 c3 95 3e 9b b7 96 3e
       -0.055256914 -0.15612571 0.29250625 0.29436955
0002f0 1a 40 d7 3d be ce 87 3f 9f a9 99 3e b6 5a 72 3f
       0.10510273 1.0609968 0.30012223 0.94669664
000300 5a 5b 8c be d4 d2 10 bf 6f 49 2c bf 58 d1 c0 be
       -0.27413446 -0.565717 -0.6729955 -0.37659717
000310 28 98 c5 3e 86 eb 08 3e d7 bc a1 3d 34 ee 44 3d
       0.38592649 0.13371095 0.078973465 0.04807873
000320 6a e9 30 3f fb e5 91 3d 9a 82 07 bf f6 7b 75 bd
       0.6910616 0.071239434 -0.5293366 -0.05993267
000330 00 73 b5 bc 3f b3 47 3e 25 2c 27 be 9f e1 f3 3e
       -0.022149563 0.1950197 -0.16325434 0.47633073
000340 1b 13 97 3e 4b c2 8f 3e 8d ed 93 3d 60 e6 97 be
       0.29506764 0.2807792 0.072230436 -0.2966795
000350 48 3a 33 3f b3 70 10 bf b7 c9 06 3f 72 7a b2 3e
       0.70010805 -0.56421965 0.5265154 0.34859043
000360 63 cb 0c 3e 0b 46 00 3f f3 13 c6 be 76 b0 fb be
       0.13749461 0.5010688 -0.38687095 -0.49158067
000370 94 48 55 3c dd 76 65 3e b3 4e d7 bb a1 1d cf 3e
       0.013017792 0.22408624 -0.006570661 0.40452293
000380 5e 6d 68 bd ed db e6 be f0 1c b2 3e 46 9d 0d 3e
       -0.056744926 -0.45089665 0.34787703 0.13829526
000390 0d 7e e4 be f1 bc c1 3b ac 7d a7 be 3a 11 e1 3d
       -0.4462742 0.005912416 -0.32713068 0.10989614
0003a0 77 62 0a 3e 5c 8e 15 3c 76 60 3a 3f f8 7b bf be
       0.13514124 0.009128179 0.7280344 -0.37399268
0003b0 1c 68 b0 be d7 92 27 3e b4 51 6f be be 14 5d 3d
       -0.3445443 0.16364609 -0.23371011 0.05397486
0003c0 55 d2 35 3f c7 64 c7 3e e5 15 a9 3e 1f 0d 00 3e
       0.71024066 0.38944075 0.33024517 0.12505005
0003d0 7c 9a 36 3e 17 bd 3e be 65 62 c7 3d 97 46 61 be
       0.17832369 -0.1862682 0.09735564 -0.21999584
0003e0 0c e1 8a be fd be 3b be cf f9 89 3e 38 f6 00 3f
       -0.27124822 -0.18334575 0.269484 0.503757
0003f0 91 0b f8 3d 7b 95 37 3e c8 da 80 3b e8 ab 98 3d
       0.12111581 0.17928116 0.0039323308 0.074546635

criticNet.2.bias f4 [32]
000000 bb 07 b7 bd 0a 1f 48 be b2 07 e6 bd 0e f1 91 be
       -0.08937021 -0.1954309 -0.112319365 -0.28504223
000010 53 0f 58 3e f8 0d 34 be 8a ee 66 3f 76 9f dd be
       0.21099596 -0.17583454 0.9020773 -0.43285722
000020 97 ce e5 3d 7e 24 e3 be 62 88 d3 bc 0c 0b e6 3e
       0.112210445 -0.4436378 -0.025821868 0.44930303
000030 30 b1 3e be 0a d6 04 bf fe dc 2e 3e 19 72 bb 3e
       -0.18622279 -0.518891 0.1707649 0.36610487
000040 93 7b 90 3e 92 f2 14 3b e1 d9 ec 3d 76 67 32 bf
       0.2821928 0.002272759 0.115649946 -0.6968912
000050 b6 2d b1 3e 73 39 f3 3b 6a 29 01 bd b3 1e 62 3e
       0.34605187 0.00742262 -0.031533636 0.22082023
000060 c4 0f ea 3e 32 e0 81 3d de bf fd 3e ea 5c 85 be
       0.45715153 0.0634159 0.49560446 -0.2604745
000070 9f 98 8a 3e 3c 08 31 3f 64 a3 3d be eb c8 11 bf
       0.27069566 0.6915319 -0.1851936 -0.569472

criticNet.4.weight f4 [1, 32]
000000 46 7c af bd 92 9f 41 3c 26 46 e5 be 8f 65 9c 3e
       -0.08568625 0.01181783 -0.44780082 0.30546233
000010 ba 77 0d 3f 8c 6a 90 3e bd 6f 00 bf f2 69 9f 3d
       0.55260813 0.2820629 -0.501705 0.07783879
000020 ad d5 b0 3e 22 4c e6 3e 3e 12 80 be 10 7f d2 be
       0.34538022 0.4497996 -0.25013918 -0.41112566
000030 3f a6 79 bd 05 93 e0 3e 33 34 dc be 7f de fa 3e
       -0.06094956 0.43862167 -0.43008575 0.48997876
000040 4d 26 25 be da a4 b3 bd 40 33 22 3e 9e a3 f4 3e
       -0.16127892 -0.08771677 0.15839863 0.4778108
000050 b6 a7 58 be 95 be f0 3e aa c6 d2 3e ed 27 11 3f
       -0.21157727 0.47020403 0.41167194 0.56701547
000060 c2 28 bc be 8b 0b 97 3e 3a b9 d7 be 8b f6 85 3e
       -0.36749846 0.29500994 -0.42133504 0.2616466
000070 63 a9 89 3e 86 1e 05 bf 94 2c 9e 3e 20 8f a7 3e
       0.26887044 -0.519997 0.30893385 0.32726383
