PPO_multiagent_BipedalWalker-v3.pth (torch_old, 32251 bytes, 11 tensors)

actorNet.0.weight f4 [64, 24]
0	0xbe49ed6b	-0.19719474
1	0xbe82a7fe	-0.25518793
2	0x3f195f52	0.5991107
3	0x3ec2d4d2	0.38052994
4	0x3d078fb2	0.033096023
5	0xbe1c82b4	-0.15284234
6	0xbe6d46a4	-0.23171479
7	0xbd2bd10c	-0.04194741
8	0xbd9c7c76	-0.076409265
9	0xbae53f2d	-0.0017490141
10	0xbd5e9162	-0.054337867
11	0xbcfcbe78	-0.030852541
12	0xbda27e85	-0.07934288
13	0x3d44b8f4	0.048027948
14	0x3be4dbc8	0.006984208
15	0xbd3a0f31	-0.045424644
16	0xbe284300	-0.16431808
17	0xbd90eaa0	-0.07076001
18	0xbce58d87	-0.028021587
19	0xbe3ce7b8	-0.18447769
20	0x3db9bd6f	0.09069335
21	0x3e008aa4	0.12552887
22	0xbde5cbe9	-0.112205334
23	0x3da6212f	0.08111798
24	0xbe85129b	-0.25990757
25	0xbf061003	-0.5236818
26	0x3db7a4a5	0.0896695
27	0x3e0c0902	0.13675311
28	0xbe537cc3	-0.20653062
29	0xbd8bc29b	-0.068242274
30	0xbdd3d84e	-0.10343991
31	0x3c036556	0.008019766
32	0xbd23c88a	-0.03998617
33	0xbe35d844	-0.1775828
34	0xbd80e22f	-0.06293141
35	0x3b899314	0.0041984413
36	0x3d27cbfb	0.040966015
37	0x3cb337c0	0.02187717
38	0xbd5fd82e	-0.054649524
39	0x3d5629a1	0.052285794
40	0xbd8de8a2	-0.06929137
41	0x3e51b6a2	0.20479825
42	0xbca346a0	-0.019931138
43	0x3e3227b8	0.17397964
44	0xbda75c50	-0.08171904
45	0x3e81ad1f	0.25327393
46	0x3d3fe04e	0.046844773
47	0xbe02f9af	-0.12790559
48	0x3d61675b	0.055030208
49	0xbe5749a0	-0.2102418
50	0x3ef49a01	0.47773746
51	0x3edee6bb	0.43535408
52	0xbd3a40f1	-0.04547209
53	0xbda83f1e	-0.08215164
54	0xbd4367e1	-0.04770649
55	0xbd0d8bb1	-0.03455705
56	0xbd2c2db7	-0.042035785
57	0x3de7e78b	0.1132346
58	0x3cef4fd1	0.029212864
59	0x3ce2e2fb	0.027696123
60	0xbd83fb49	-0.06444413
61	0xbc442a9f	-0.011973052
62	0xbdb1288e	-0.08650313
63	0x3e23b0d2	0.1598542
64	0x3e0e8e91	0.13921572
65	0xbd7d50ac	-0.061844513
66	0x3e3906dd	0.18069024
67	0xbe35d594	-0.17757255
68	0x3d676943	0.05649687
69	0xbd889799	-0.0666954
70	0x3e192d85	0.1495877
71	0xbd47ca98	-0.048777193
72	0xbe1f7b29	-0.15574326
73	0x3e542476	0.20717034
74	0xbdcc493c	-0.09974906
75	0xbf23ba33	-0.6395599
76	0xbc912874	-0.017719485
77	0x3c950367	0.018190099
78	0xbe24d6ef	-0.16097616
79	0xbdb89e64	-0.090145856
80	0xbc1a77f6	-0.009428015
81	0xbd5b4f98	-0.053542703
82	0xbe6f1079	-0.23346128
83	0x3e1ea31b	0.15491907
84	0xbd7d5d3f	-0.061856505
85	0x3de2835a	0.110602096
86	0x3cad5fd2	0.021163855
87	0xbdc077f7	-0.093978815
88	0x3e0c12eb	0.13679092
89	0xbb40859c	-0.0029376512
90	0xbe26b0a7	-0.16278325
91	0xbe4ae846	-0.19815168
92	0x3e383ab0	0.17991138
93	0x3e3cab6b	0.18424766
94	0xbcdc715d	-0.026909525
95	0x3e36e25a	0.17859784
96	0x3d981b67	0.074271016
97	0x3ebe2666	0.3713867
98	0x3e79e5a2	0.24404004
99	0xbe81343d	-0.25235167
100	0x3cb94b90	0.022619039
101	0xbd037c0f	-0.032100733
102	0x3c84c983	0.01620937
103	0xbc99c5e8	-0.018771127
104	0x3c90f0de	0.01769298
105	0xbc162aaf	-0.00916545
106	0xbdb3759a	-0.08762665
107	0x3da41f2a	0.080137566
108	0xbdad8d4d	-0.084742166
109	0x3e29bb56	0.16575369
110	0x3d8133be	0.06308697
111	0xbd92b2cd	-0.0716301
112	0xbda480dc	-0.080323905
113	0x3dfea104	0.12433055
114	0xbb832050	-0.0040016547
115	0x3e16db2e	0.14732048
116	0xbdeb05f5	-0.114757456
117	0xbcec2fca	-0.028831381
118	0x3df3bcd1	0.11901248
119	0xbddd0fe2	-0.10794045
120	0xbd24064a	-0.04004506
121	0x3ebd5b60	0.36983776
122	0xbe916211	-0.2839513
123	0xbef77d1c	-0.48337638
124	0x3d2148cd	0.03937607
125	0xbbded5f4	-0.0068004075
126	0xbe829428	-0.2550366
127	0xbdd5d110	-0.10440266
128	0x3ca23685	0.019801388
129	0x3deade93	0.11468234
130	0xbd8561cf	-0.06512796
131	0x3d766da1	0.060163144
132	0xbd12121a	-0.035661794
133	0x3d38a190	0.045075953
134	0x3cac06e0	0.020999372
135	0x3d327c15	0.043575365
136	0xbe350548	-0.17677796
137	0x3dba5193	0.0909759
138	0xbe1ddf85	-0.15417297
139	0xbdd546bc	-0.10413882
140	0xbda1345f	-0.07871317
141	0x3c55c79d	0.01304808
142	0x3d54e24c	0.051973626
143	0xbe2907ab	-0.16506831
144	0xbe0e4d17	-0.13896595
145	0x3e922185	0.28541198
146	0xbde6d589	-0.11271197
147	0x3f19e21d	0.60110646
148	0x3ba8ad8c	0.0051476415
149	0xbda6e553	-0.08149209
150	0x3e4711dd	0.19440408
151	0x3ced516a	0.028969485
152	0x3d11f976	0.035638295
153	0x3c805bc0	0.01566875
154	0x3ce2dc82	0.027693037
155	0xbd3eeb5d	-0.04661118
156	0xbaf9f00b	-0.0019068731
157	0xbcf20290	-0.029542238
158	0x3e2aa74a	0.16665378
159	0x3db50f1e	0.08840774
160	0x3e3bf4ee	0.18355152
161	0xbe339b7c	-0.17539781
162	0xbe5d4ea2	-0.21612027
163	0x3e1bee27	0.15227567
164	0x3da4e61b	0.08051702
165	0xbe30e307	-0.17274104
166	0x3d2500de	0.04028403
167	0xbd3c78f7	-0.0460138
168	0xbe006642	-0.12539008
169	0x3e248d60	0.16069555
170	0xbf05a532	-0.52205193
171	0xbf2d6a8e	-0.67740715
172	0x3ce1574d	0.027507449
173	0xbdeb161a	-0.11478825
174	0x3cb4e392	0.02208117
175	0xbe96af11	-0.2943044
176	0xbe741988	-0.23837864
177	0x3e4ff28c	0.20307368
178	0xbe41f408	-0.18940747
179	0x3e09fec7	0.13476096
180	0xbe8afb88	-0.27145028
181	0x3e2fc38a	0.17164436
182	0x3e81a561	0.25321487
183	0x3d02f7c0	0.031974554
184	0xbe0f2504	-0.13978964
185	0x3c8497da	0.01618569
186	0xbdb56d4c	-0.08858737
187	0x3da8f1e9	0.08249266
188	0x3e82bc51	0.255343
189	0x3d099435	0.033588607
190	0x3d14c442	0.03631998
191	0xbdb28aa6	-0.08717851
192	0xbe5e570f	-0.21712898
193	0xbe7d3257	-0.24726234
194	0xbeaeb2eb	-0.3412088
195	0xbd95a6a2	-0.07307173
196	0xbe38107b	-0.17975037
197	0x3dd98710	0.10621464
198	0x3e023f68	0.127195
199	0x3de4e299	0.111760326
200	0x3c1979e9	0.009367445
201	0xbd0c7e19	-0.034299944
202	0xbda11098	-0.07864493
203	0xbcad15a7	-0.021128489
204	0x3d9deba9	0.07710964
205	0xbd3df494	-0.046375826
206	0xbe4903c2	-0.1963034
207	0xbe89393d	-0.26801482
208	0x3d1e5f39	0.03866503
209	0x3dd04810	0.10169995
210	0x3cc70fbd	0.024299497
211	0x3dd7b367	0.10532265
212	0xbd714577	-0.058904137
213	0xbce4c9e9	-0.02792831
214	0x3e2f5565	0.17122419
215	0xbdd210c7	-0.10257106
216	0xbcb1a0c9	-0.021683114
217	0xbe346882	-0.17617992
218	0xbe8bce23	-0.27305707
219	0xbe6a459a	-0.22878113
220	0xbe280775	-0.16409095
221	0xbdd93387	-0.10605531
222	0xbd89a87a	-0.067215875
223	0xbda5b6ac	-0.080914825
224	0xbd8910c4	-0.06692651
225	0xbe2fd8c9	-0.1717254
226	0xbbc4f925	-0.0060111457
227	0x3d0a4d53	0.03376515
228	0xbd23f09b	-0.04002438
229	0x3e012dc9	0.12615122
230	0xbce535ba	-0.02797972
231	0x3cc4df1d	0.02403217
232	0x3d1aba84	0.03777553
233	0x3dbea5c9	0.09308965
234	0x3c35460c	0.011064064
235	0xbe4163c8	-0.1888572
236	0xbc811e51	-0.015761526
237	0x3d8bacfe	0.06820105
238	0xbc1af4df	-0.009457796
239	0x3c5621fe	0.013069628
240	0xbde7ec6e	-0.11324392
241	0xbf0399ae	-0.5140637
242	0x3e8ca745	0.27471367
243	0x3db2ac25	0.0872424
244	0xbc6d870d	-0.014497531
245	0x3d4ef6bf	0.050528284
246	0xbe760d97	-0.24028622
247	0xbb9fedf4	-0.004880661
248	0xbd28e4c8	-0.041233808
249	0x3dcd1e45	0.10015539
250	0x3c1814be	0.009282289
251	0xbd31a80c	-0.043373153
252	0xbdae0d26	-0.084986016
253	0x3d0afb0b	0.03393082
254	0x3e5b3bfa	0.21409598
255	0x3e1bbc40	0.1520853

actorNet.0.bias f4 [64]
0	0x3d853a07	0.065052085
1	0x3dae0073	0.084961794
2	0xbe445b0b	-0.19175355
3	0xbc9b42bc	-0.01895272
4	0xbdd4cbd9	-0.10390443
5	0x3db7a46a	0.08966906
6	0x3e053178	0.13007152
7	0x3db05c44	0.08611348
8	0x3d4b1fb1	0.04959077
9	0xbcfcd643	-0.030863887
10	0xbc69c7bd	-0.014268813
11	0x3db38d8c	0.08767232
12	0x3e0c2279	0.13685025
13	0x3c95292e	0.018208113
14	0xbe094aaa	-0.13407388
15	0xbc428a40	-0.011873782
16	0x3da52f5b	0.08065673
17	0x3c8ce836	0.01720057
18	0xbdaa14af	-0.08304726
19	0xbe6435eb	-0.22286193
20	0xbcc02541	-0.023455264
21	0x3e044bf2	0.12919596
22	0x3ded1eaf	0.11578118
23	0x3dd9fdc5	0.10644106
24	0xbe33e75f	-0.1756873
25	0x3de91f41	0.11382914
26	0xbe110064	-0.14160305
27	0x3de214e4	0.11039141
28	0xbdd8a7c1	-0.105788715
29	0x3e158c27	0.14604245
30	0xbcfa348c	-0.030542634
31	0xbd549372	-0.051898427
32	0x3e4a2167	0.19739304
33	0x3e0b4a2d	0.13602515
34	0x3d0bf39f	0.034167882
35	0x3dfd793f	0.123766415
36	0x3e2a351f	0.16621827
37	0xbe09ef69	-0.13470234
38	0x3c4a453b	0.012345607
39	0x3e62d3d1	0.22151114
40	0xbdbd80c6	-0.09253077
41	0x3e5def7a	0.21673384
42	0xbbb69b34	-0.005572701
43	0xbe020803	-0.12698369
44	0xbd142fbf	-0.036178347
45	0xbe2c8c1d	-0.16850324
46	0x3d4f64e7	0.050633337
47	0xbe042c7e	-0.12907597
48	0x3cb732a3	0.022363013
49	0xbe1eede9	-0.15520443
50	0x3e29562e	0.16536781
51	0xbe3efe55	-0.18651707
52	0x3db1e3f0	0.08686054
53	0x3d0f85d2	0.03503973
54	0x3e5a132d	0.21296377
55	0xbe0029a5	-0.12515886
56	0x3cbfcebb	0.023414006
57	0xbd09f0f9	-0.033677075
58	0xbd6e03ec	-0.05810921
59	0xbd77d55b	-0.060506206
60	0xbdac94f6	-0.084268495
61	0x3d4def3f	0.05027699
62	0xbdab6985	-0.08369736
63	0x3d811a9c	0.063039035

actorNet.2.weight f4 [32, 64]
0	0x3d7100bb	0.058838587
1	0x3be7966c	0.007067492
2	0xbd7731b3	-0.06035013
3	0x3d943d6a	0.07238276
4	0x3dc3e9d1	0.09566081
5	0xbd0a8699	-0.03381977
6	0xbd28d60e	-0.041219763
7	0xbd0f8711	-0.03504092
8	0xbbffa544	-0.0078016836
9	0x3c212c29	0.009837189
10	0x3d02c47a	0.031925656
11	0x3d3c96e2	0.04604233
12	0x3db7dcac	0.08977637
13	0x3c1827a2	0.009286793
14	0x3d87e856	0.066361114
15	0xbdef94ea	-0.11698325
16	0xbc5acd5d	-0.0133546265
17	0x3d82e377	0.06391042
18	0x3d525614	0.05135162
19	0x3d0e3421	0.034717683
20	0x3c8234d4	0.015894331
21	0x3d896f5f	0.067106955
22	0xbdc84ed2	-0.09780659
23	0xbd3cac00	-0.04606247
24	0xbd1e522c	-0.038652584
25	0xbde519e3	-0.11186578
26	0x3c444f82	0.011981847
27	0xbda2a721	-0.079420336
28	0xbd5bc646	-0.053655885
29	0x3dc179d5	0.09447066
30	0xbd1b7203	-0.037950527
31	0xbcd5f7e3	-0.026119178
32	0x3d33d4d6	0.043904148
33	0x3d7713f6	0.06032177
34	0x3d10ae24	0.035322323
35	0x3d3bce88	0.04585126
36	0xbd0d5f9a	-0.034515
37	0xbd52f17f	-0.05149984
38	0xbd7f3433	-0.06230564
39	0x3ce4855e	0.027895626
40	0x3bd7629a	0.0065730335
41	0xbcbc2513	-0.022966897
42	0x3c33b5f8	0.010968678
43	0x3d3a11d2	0.04542715
44	0x3d368b0e	0.044566207
45	0x3b430397	0.0029756778
46	0xbd728363	-0.05920733
47	0xbbe4ddcf	-0.0069844495
48	0x3dd459f0	0.10368717
49	0x3c968797	0.018375201
50	0xbc1f60e0	-0.009727687
51	0xbe203fb7	-0.15649305
52	0x3d2332c2	0.03984333
53	0xbc28f567	-0.010312415
54	0x3d4d4b40	0.050120592
55	0xbe381973	-0.17978458
56	0x3d78963e	0.060690157
57	0xbc2f4506	-0.010697609
58	0x3d2a01d1	0.04150564
59	0x3da47c9c	0.0803158
60	0xb9d2f384	-0.00040235755
61	0xbcd4364b	-0.025904795
62	0xbb98e635	-0.0046661147
63	0x3d61c136	0.0551159
64	0x3c3fa606	0.011697298
65	0xbd2e3989	-0.04253534
66	0xbd2724ad	-0.04080646
67	0xbd85c187	-0.06531053
68	0xbd991456	-0.07474582
69	0xbd541540	-0.051778078
70	0x3d6b8fc7	0.057510164
71	0xbd8aee66	-0.06783752
72	0xba835d48	-0.0010022307
73	0x3b954e1b	0.00455643
74	0xbcb595f5	-0.022166232
75	0xbd80b51e	-0.06284545
76	0x3cfb2c28	0.030660704
77	0x3cad9912	0.021191154
78	0xbcb74da7	-0.022375895
79	0xbd41f210	-0.04734999
80	0xbd360865	-0.0444416
81	0xbc94512d	-0.018105114
82	0x3d80d5cc	0.062907785
83	0xbd3942e6	-0.045229815
84	0x3c521777	0.012822977
85	0xbcef08f2	-0.02917907
86	0xbbb8d8e6	-0.0056410907
87	0xbd9f6209	-0.077823706
88	0x3b95bc8d	0.004569596
89	0xbccad357	-0.024758978
90	0x3bcfed94	0.00634546
91	0x3d2d1616	0.04225739
92	0x3b15aa42	0.0022837077
93	0x3d49bc6e	0.049251966
94	0x3c9bc7b7	0.01901613
95	0x3c70a186	0.014686948
96	0x3d5d5d63	0.05404414
97	0x3d0dc1b0	0.034608543
98	0xbdbd9728	-0.092573464
99	0xbd0ef5f2	-0.03490252
100	0xbdbfa09d	-0.093568064
101	0x3cf3d77d	0.029765839
102	0xbc770464	-0.01507673
103	0x3dd7b1e3	0.10531976
104	0x3b7b0a92	0.003830586
105	0xbcd07886	-0.025448095
106	0x3d927ae1	0.071523435
107	0x3ca84efb	0.020545473
108	0x3bda9063	0.0066700443
109	0xbd655fcd	-0.055999566
110	0xbca94ba8	-0.020665959
111	0xbd316110	-0.043305457
112	0xbd4a7fd9	-0.04943833
113	0xbdbf1dcb	-0.093318544
114	0x3d98dc49	0.07463891
115	0xbd8386fd	-0.06422231
116	0xbbe60be9	-0.007020463
117	0xbcfeb017	-0.031089826
118	0xbce311fd	-0.027718538
119	0xbd9ad003	-0.07559206
120	0xbc8bf648	-0.01708521
121	0x3db589cf	0.088641755
122	0x3d3c864a	0.046026506
123	0xbd4729a6	-0.048623703
124	0xbd15f227	-0.036607888
125	0x3bb8cc64	0.0056395996
126	0xbd54b066	-0.05192604
127	0xbd513d60	-0.051083922
128	0xbdd5987d	-0.104294755
129	0xbcca8ff3	-0.024726843
130	0x3d366c05	0.04453661
131	0xbd2481f6	-0.040163003
132	0x3dbf262d	0.09333453
133	0x3e26d290	0.1629126
134	0x3da57b02	0.080801025
135	0xbd483c25	-0.048885483
136	0x3d2a0db6	0.041516982
137	0xbb64e86a	-0.0034928569
138	0x3e19ae9d	0.15008016
139	0xbddbf1c4	-0.107394725
140	0x3de129ab	0.10994276
141	0x3db9867e	0.090588555
142	0xbd591202	-0.05299569
143	0x3d988903	0.07448008
144	0xbe1c6250	-0.15271878
145	0x3d6ce23e	0.05783295
146	0xbd31d4b7	-0.04341575
147	0xbd2c3dac	-0.042051002
148	0x3d14718b	0.036241096
149	0x3d8722f0	0.06598461
150	0xbc8ff96e	-0.017574992
151	0x3de7aac9	0.113118716
152	0xbd4f4608	-0.050603896
153	0x3d7250ab	0.059158962
154	0x3d8b0163	0.06787374
155	0xbdab70a2	-0.083710924
156	0x3bc0e05a	0.00588612
157	0x3ce7347a	0.028223265
158	0x3dc20fc3	0.094756626
159	0x3cc5d6dd	0.024150306
160	0xbd2ed3fc	-0.042682633
161	0xbd8accf9	-0.06777377
162	0x3ceb5070	0.028724879
163	0x3d68a2e5	0.056795973
164	0xbd60c550	-0.054875672
165	0x3d629810	0.0553208
166	0x3e3fd4c5	0.18733509
167	0xbd7dc7d0	-0.061958134
168	0x3dd9f458	0.10642308
169	0xbe4a17b9	-0.19735612
170	0xbca4f2a8	-0.020135239
171	0x3c32c9c3	0.010912362
172	0x3ccbeefb	0.024894228
173	0x3e042560	0.12904882
174	0xbdcc1995	-0.09965817
175	0x3d0fa466	0.035068892
176	0xbdca21a2	-0.09869696
177	0x3d890a45	0.06691412
178	0xbdf1e042	-0.11810352
179	0xbdf41179	-0.11917395
180	0xbe1f0b9f	-0.15531777
181	0xbd611070	-0.054947317
182	0x3db3bc45	0.08776144
183	0xbe236217	-0.15955387
184	0x3d0eac2d	0.03483217
185	0xbd81507b	-0.063141786
186	0xbd90b9b2	-0.070666686
187	0xbe057a70	-0.13034987
188	0xbd4606ba	-0.04834626
189	0x3d8ce4c4	0.06879571
190	0xbd840e10	-0.06447995
191	0x3d0b2eb7	0.033980098
192	0x3d9bab1c	0.07600996
193	0x3d90c835	0.070694365
194	0xbda8fe54	-0.08251634
195	0x3dbf65c9	0.09345586
196	0xbd4836b4	-0.048880294
197	0x3d2f10b2	0.04274053
198	0xbd5bd565	-0.053670306
199	0x3da2fbfd	0.07958219
200	0x3bde41c4	0.006782742
201	0xbe07c907	-0.1326028
202	0x3ce1d81a	0.027568866
203	0x3d98355d	0.07432053
204	0x3cccb146	0.024986874
205	0x3d8f9505	0.07010845
206	0xbdc1764c	-0.094463915
207	0x3cb8a55d	0.022539789
208	0x3d6811e3	0.056657683
209	0xbd94a2ae	-0.07257591
210	0xbcf3fa38	-0.0297824
211	0xbdab2f37	-0.08358615
212	0xbdb49cf2	-0.088189974
213	0x3d4d4530	0.05011481
214	0xbd8d1870	-0.06889427
215	0xbc774d97	-0.015094182
216	0xbd68aeb1	-0.056807224
217	0xbd2cfb61	-0.04223192
218	0x3ccca392	0.02498034
219	0xbc81d99c	-0.015850835
220	0xbd9c593d	-0.07634208
221	0x3b7a312c	0.0038176281
222	0x3ccc8773	0.024966931
223	0xbe0f5176	-0.13995919
224	0xbc9b689a	-0.018970776
225	0x3e03d81b	0.12875406
226	0xbe1abad6	-0.15110335
227	0xbd923cd4	-0.07140508
228	0xbabc6af5	-0.0014375137
229	0x3c8056ce	0.015666392
230	0xbc241a09	-0.010015973
231	0x3cd8e322	0.026475493
232	0xbcfba3af	-0.030717699
233	0x3d826134	0.06366196
234	0xbcb839b2	-0.022488449
235	0x3cb80eab	0.022467932
236	0xbd65a22c	-0.056062862
237	0x3d775e41	0.060392622
238	0x3c0d5b2e	0.008627696
239	0x3e0f4078	0.13989437
240	0x3ce0c184	0.027436025
241	0x3c833a69	0.016019063
242	0x3ba1a779	0.0049332944
243	0x3d8f3b7d	0.06993768
244	0x3d17bbd0	0.037044346
245	0xbe0d17e5	-0.13778646
246	0xbdc64cf0	-0.096826434
247	0xbc2d5536	-0.010579398
248	0xbdd60348	-0.104498446
249	0xbdbdfa26	-0.09276228
250	0x3d7533bb	0.059863787
251	0xbcda62be	-0.026658412
252	0xbc8a5d5c	-0.01689022
253	0x3dc7a4b1	0.09748209
254	0x3d21c9ee	0.039499216
255	0xbd134532	-0.03595466

actorNet.2.bias f4 [32]
0	0xbd93d8fd	-0.072191216
1	0xbcafb9b1	-0.02145085
2	0xbe0c92e5	-0.13727911
3	0x3d1141f1	0.035463277
4	0xbdb6d345	-0.08927015
5	0x3c44c185	0.012009029
6	0xbdb7ee25	-0.08980969
7	0x3906c2ac	0.00012851757
8	0xbc8415c1	-0.016123654
9	0x3d14a78e	0.036292605
10	0xbd8d3fe8	-0.06896955
11	0xbdbea22c	-0.093082756
12	0xbe17294f	-0.14761852
13	0xbd7d2176	-0.06179949
14	0xbda86109	-0.08221633
15	0x3e0501d2	0.12988976
16	0xbd99ad89	-0.07503802
17	0x3b0a0088	0.0021057446
18	0x3ddd9f3f	0.108213894
19	0x3dd396d2	0.10331501
20	0xbddfae32	-0.10921897
21	0x3da77936	0.08177416
22	0xbd85f9b6	-0.06541769
23	0x3e914dba	0.28379613
24	0x3e2db814	0.16964751
25	0x3d86c7aa	0.06581052
26	0x3d899829	0.06718475
27	0xbdde526d	-0.10855565
28	0xbdeb75d1	-0.11497081
29	0x3b77826d	0.0037766949
30	0xbdaa0784	-0.08302215
31	0xbd959b62	-0.073050275

actorNet.4.weight f4 [4, 32]
0	0x3cb0da12	0.021588359
1	0x3c43df66	0.011955118
2	0x3c0a2b88	0.00843323
3	0x3b1b59a1	0.0023704546
4	0x3d3a7cc5	0.045529146
5	0x3d4ac8e7	0.049508
6	0xbd64716d	-0.055772234
7	0xbce38adb	-0.027776172
8	0x3c7d604e	0.015464855
9	0xbd1a5eb6	-0.03768798
10	0x3cb4cec5	0.022071252
11	0xbaee4988	-0.0018179873
12	0xbab4cea7	-0.0013794497
13	0x3d00139e	0.03126871
14	0xbc88ec10	-0.016714126
15	0x3d4aed2a	0.049542584
16	0x3c8f4b9b	0.017492106
17	0x3cc6e37a	0.024278391
18	0x3c04e35e	0.008110849
19	0x3cbb8d84	0.022894628
20	0xbcd486ec	-0.025943242
21	0x3ac17623	0.0014759939
22	0xbbd09444	-0.006365331
23	0xbc70f287	-0.0147062605
24	0xbb078aa9	-0.0020682013
25	0xbc9b2b74	-0.018941619
26	0xba06865d	-0.0005131716
27	0x3c85fb6b	0.016355237
28	0xbc46d09c	-0.012134697
29	0xba6ec9cd	-0.000910905
30	0xba8be07d	-0.0010671761
31	0xbc068392	-0.00821008
32	0x3bebfd81	0.007201851
33	0xbbdba92b	-0.006703516
34	0xbc88d3a9	-0.01670249
35	0xbce0b6d2	-0.027430926
36	0x3c1afede	0.009460179
37	0x3c7751ce	0.015095187
38	0xbdc25f67	-0.09490853
39	0xbc886349	-0.016648905
40	0xbbf2da65	-0.0074112886
41	0x3bc3a7bf	0.0059709246
42	0xbba4a94e	-0.0050250655
43	0xbbd66dbb	-0.0065438426
44	0x3cdb1be2	0.026746694
45	0xbc22284f	-0.009897306
46	0xbb9bf1df	-0.004759058
47	0xbc2b4dd0	-0.010455564
48	0x3c1c1aa4	0.009527836
49	0x3a377934	0.00069989567
50	0x39f0108c	0.00045788696
51	0x3c904d5e	0.017615017
52	0xbda82b2e	-0.08211361
53	0x3bea41a3	0.007148938
54	0xbc6c80cd	-0.014435005
55	0x3d3f0e50	0.04664451
56	0xbc565e7a	-0.013084048
57	0x3bf0580d	0.007334715
58	0x3ce1a860	0.027546108
59	0x3c2be9e2	0.010492774
60	0xbd52e820	-0.051490903
61	0xbc16c6d5	-0.009202679
62	0xbb408bb8	-0.0029380154
63	0x3abc17d8	0.0014350368
64	0x3c612425	0.013741528
65	0x3c4c8b0f	0.012484326
66	0xbce988b8	-0.028507575
67	0xbc56346a	-0.01307402
68	0x3b8a0d8c	0.0042130407
69	0x3cbbc92f	0.02292308
70	0x3be688f6	0.00703537
71	0x3bc3e686	0.0059784083
72	0x3d433255	0.047655422
73	0x3cdb1f49	0.026748316
74	0xbbd6fe08	-0.0065610446
75	0x3ca7dbc3	0.020490533
76	0x3b9809cd	0.00463984
77	0x3cfa6eac	0.03057035
78	0xbcebb72a	-0.028773863
79	0xbcb75bc0	-0.022382617
80	0xbc0365ba	-0.008019859
81	0xbc5948ac	-0.013261955
82	0x3c45950e	0.012059463
83	0x3d455761	0.048179034
84	0xbd5db543	-0.054127943
85	0xbc158fd0	-0.009128526
86	0xbc47a873	-0.0121861575
87	0xbd66839a	-0.05627785
88	0x3bf480ef	0.007461659
89	0x3d8f10b0	0.06985605
90	0x3ca19719	0.01972537
91	0xb900f224	-0.00012297236
92	0x3cff8e24	0.031195708
93	0xbcabf37f	-0.020990131
94	0x3c2a60f6	0.010399094
95	0xbc660ecd	-0.014041615
96	0x3c3256c0	0.010884941
97	0x3c633137	0.013866714
98	0x3b40fe25	0.0029448357
99	0xbc9cdd6f	-0.019148557
100	0xbc93c3e3	-0.018037742
101	0xbceecd48	-0.02915062
102	0xbdde6a0b	-0.1086007
103	0x3d4b4c96	0.049633585
104	0xbb21d96a	-0.002469624
105	0xbc099417	-0.008397124
106	0x3c0f0719	0.00872972
107	0x3d2733fe	0.040821068
108	0x3d054105	0.03253271
109	0x3bccf92a	0.0062552886
110	0x3b326704	0.0027222047
111	0xbd08182b	-0.033226173
112	0xbc66434f	-0.014054134
113	0x3bc3aacf	0.0059712897
114	0xbcfa92e9	-0.03058763
115	0x3b65ba81	0.0035053792
116	0x3a07c368	0.0005178959
117	0xbbb19aef	-0.005420081
118	0x3b24212e	0.002504419
119	0xbd21b5a1	-0.039479855
120	0xbbc7bf8c	-0.006095832
121	0xbd2c9676	-0.04213568
122	0xbca232c6	-0.019799601
123	0x3bd4c38e	0.0064930385
124	0x3daad5b0	0.08341539
125	0x3cbf741d	0.023370797
126	0x3cb4d202	0.022072796
127	0x3b8472ae	0.004041991

actorNet.4.bias f4 [4]
0	0xbe5a9982	-0.21347621
1	0x3dc88162	0.09790303
2	0x3e241476	0.1602343
3	0xbe35600d	-0.17712422

criticNet.0.weight f4 [64, 24]
0	0x3f13fb91	0.57805735
1	0x3f365f28	0.71238947
2	0x3ed970f0	0.42468977
3	0x3edc0a38	0.42976546
4	0xbd354b93	-0.044261526
5	0xbddef2ce	-0.10886155
6	0xbe64a90e	-0.22330114
7	0x3e1e7d19	0.15477408
8	0x3e1830a7	0.1486231
9	0x3eda07bd	0.4258403
10	0x3bb61f9f	0.0055579687
11	0x3cb6b521	0.022303166
12	0xbe17e3e3	-0.14833026
13	0x3d4cb282	0.049974926
14	0x3df0be0d	0.11754999
15	0xbd96d684	-0.07365134
16	0xbda31281	-0.07962514
17	0x3e296ae5	0.16544683
18	0xbdf0ca54	-0.11757341
19	0x3d08ea83	0.033426773
20	0xbd6a14f7	-0.0571489
21	0x3e37864b	0.17922322
22	0xbdb09208	-0.08621603
23	0x3e0a0f2d	0.13482352
24	0x3eb8ec11	0.36117604
25	0x3e856b6d	0.26058522
26	0xbf2eea45	-0.68326217
27	0xbf4020be	-0.7504996
28	0x3e842588	0.25809884
29	0xbe9ad120	-0.30237675
30	0x3e803eaf	0.25047824
31	0xb97b2f70	-0.00023954897
32	0xbe0a2b72	-0.13493136
33	0xbecfcfc3	-0.40588197
34	0xbe8e093a	-0.27741414
35	0xbd3a45e4	-0.04547681
36	0xbcf2de61	-0.029647054
37	0xbebdfa3d	-0.3710498
38	0x3c9b657b	0.018969288
39	0xbe7051cf	-0.23468708
40	0xbe15acc2	-0.14616683
41	0xbe8a19ec	-0.26972902
42	0xbda5058b	-0.08057698
43	0xbd75bbec	-0.05999367
44	0xbd601000	-0.05470276
45	0xbeaf3071	-0.34216645
46	0x3cd1bf32	0.025603864
47	0x3b41aff6	0.0029554344
48	0x3c6879a6	0.0141891595
49	0x3e47b581	0.19502832
50	0xbf2c183f	-0.67224497
51	0xbf2a0f93	-0.66430014
52	0xbecd3a5e	-0.40083593
53	0x3dea4c0b	0.11440285
54	0x3d8e2c86	0.06942086
55	0xbbbb45bc	-0.0057151
56	0x3da376f4	0.07981673
57	0xbd12b1b6	-0.03581401
58	0xbdd3bb24	-0.103384286
59	0x3e28daf8	0.1648978
60	0x3de6d8d8	0.112718284
61	0x3e8e95f6	0.27848786
62	0x3db4a188	0.08819872
63	0x3e0df707	0.13863765
64	0xba2fab02	-0.00067012024
65	0x3e243392	0.16035298
66	0x3eb3dfee	0.35131782
67	0x3e51b1e6	0.20478019
68	0x3ea25513	0.3170553
69	0x3e9878e9	0.29779747
70	0x3ea077a2	0.31341273
71	0x3ea91113	0.3302084
72	0xbef9e98e	-0.48811
73	0xbeaa5964	-0.33271325
74	0x3ea86db7	0.32896206
75	0xbe6bb92d	-0.23019858
76	0xbf01ec62	-0.50751317
77	0xbe3548b3	-0.17703514
78	0xbe30db78	-0.1727122
79	0xbdb216cb	-0.08695754
80	0xbde2e7eb	-0.11079391
81	0xbe240138	-0.1601609
82	0x3c4b3fc3	0.012405339
83	0xbe04e47d	-0.12977786
84	0xbdeba288	-0.1150561
85	0xbd8e5564	-0.06949881
86	0xbe54d9cf	-0.20786212
87	0x3d0d3472	0.034473844
88	0xbe7cf8b1	-0.24704243
89	0x3e04757e	0.12935445
90	0x3de342d9	0.110967346
91	0x3ccf2a67	0.025288774
92	0xbde0d4d8	-0.10978097
93	0x3d85618d	0.06512747
94	0xbc6d4bc4	-0.014483396
95	0x3dc692bb	0.09695955
96	0x3e97e803	0.29669198
97	0xbec0b963	-0.3764144
98	0x3ea80654	0.32817328
99	0xbf36a18f	-0.7134027
100	0xbe09b41e	-0.13447616
101	0x3e9109e2	0.28327852
102	0x3e7f464b	0.24929158
103	0x3d306a6d	0.043070246
104	0x3dc741a9	0.097293206
105	0xbf2d411f	-0.6767749
106	0x3e28ffdb	0.16503851
107	0x3e54496a	0.2073113
108	0xbdce867f	-0.10084247
109	0x3e29d25b	0.1658415
110	0xbe82968d	-0.25505486
111	0x3d011dd7	0.031522598
112	0xbe495a20	-0.19663286
113	0x3d213799	0.039359663
114	0xbd606147	-0.05478027
115	0xbe0c6cb4	-0.13713342
116	0xbe0359b3	-0.12827186
117	0xbcb90dd2	-0.022589598
118	0x3c3c4e86	0.011493331
119	0xbe8cc51d	-0.27494135
120	0xbf346320	-0.7046375
121	0xbe96179e	-0.29314893
122	0xbf40b35f	-0.752737
123	0xbcf2ef26	-0.02965505
124	0xbe5266c8	-0.2054702
125	0xbdaec566	-0.085337445
126	0xbd84b1f4	-0.06479254
127	0x3b78b5cc	0.0037950156
128	0xbe15b2bb	-0.14618962
129	0xbe648c41	-0.22319128
130	0x3ce8d787	0.028423084
131	0xbe2a3c8e	-0.16624662
132	0x3d2a4da5	0.041577954
133	0x3cb1d223	0.021706646
134	0xbe196ec8	-0.14983666
135	0xbcc4a875	-0.024006108
136	0xbe4d86e4	-0.20070988
137	0x3db79cf3	0.089654826
138	0xbe66cac3	-0.22538285
139	0x3e0075e4	0.12544972
140	0xbcabaa72	-0.020955298
141	0xbe04793a	-0.1293687
142	0xbe172619	-0.14760627
143	0x3e87e765	0.26543728
144	0x3f5feba1	0.87468916
145	0x3f95c6e8	1.1701326
146	0x3e6e3998	0.23264158
147	0x3e12756f	0.1430261
148	0x3e25697f	0.16153525
149	0x3dd948e9	0.1060961
150	0xbe80e443	-0.2517415
151	0x3ee8d6cd	0.4547638
152	0x3c45e22d	0.01207785
153	0x3e6becf1	0.23039605
154	0xbdc5c18c	-0.09656057
155	0x3e00348a	0.12520042
156	0xbc3fcdaa	-0.011706749
157	0xbc4a0a48	-0.012331553
158	0x3d9953cc	0.07486686
159	0x3e0152c2	0.12629226
160	0x3dfc059e	0.12305759
161	0x3c835e35	0.016036132
162	0x3e881e2f	0.26585528
163	0x3df2a6ac	0.118481964
164	0x3d94b03c	0.072601765
165	0xbda0f42b	-0.07859071
166	0xbdd768c2	-0.10518028
167	0x3d82f4d7	0.06394356
168	0xbf7519db	-0.9574258
169	0xbfb82061	-1.4384881
170	0x3f1af4fe	0.6053008
171	0xbeb79d6c	-0.3586229
172	0xbe28c4c6	-0.16481313
173	0x3e0d30bb	0.1378812
174	0x3e3b6378	0.18299663
175	0x3d889dd4	0.06670728
176	0x3db7ed9c	0.08980867
177	0xbf1a43d8	-0.6025977
178	0xbc315b67	-0.010825015
179	0xbd70dd80	-0.05880499
180	0xbc5ace28	-0.013354816
181	0x3e80a706	0.2512743
182	0xbd418b9a	-0.047252275
183	0xbd85227c	-0.06500718
184	0xbd064edf	-0.03279006
185	0x3bb2ee22	0.0054605165
186	0xbc3b98c1	-0.011449994
187	0xbc410a2b	-0.011782209
188	0xbce9d155	-0.0285422
189	0xbda49e99	-0.080380626
190	0x3e0f0def	0.13970159
191	0xbe324308	-0.17408383
192	0x3de048c9	0.10951383
193	0x3ee2baba	0.44283086
194	0xbfe23dfb	-1.7675165
195	0x3ef61934	0.48066103
196	0x3ee58eb3	0.44835433
197	0x3db7b9a5	0.08970956
198	0x3e222014	0.1583255
199	0x3e52b36e	0.2057626
200	0xbdfc5e67	-0.12322693
201	0x3ef87819	0.48529127
202	0x3c56717e	0.013088582
203	0xbd3517c7	-0.04421213
204	0x3ea027ce	0.3128037
205	0x3d7f409c	0.062317476
206	0x3dac3be4	0.08409861
207	0xbc2bd27c	-0.010487195
208	0xb81010aa	-3.4347795e-05
209	0x3df9616c	0.12176785
210	0xbd43c184	-0.047791973
211	0x3d55055d	0.052007068
212	0xbdc4d726	-0.09611349
213	0x3e4d7b7a	0.20066634
214	0xbe0ca730	-0.13735652
215	0xbe620bde	-0.2207484
216	0xbe8c6e1f	-0.27427766
217	0xbf369a5a	-0.7132927
218	0x4004bc75	2.0740025
219	0xbe2a7151	-0.1664479
220	0xbf3f614a	-0.74757826
221	0xbd986081	-0.07440282
222	0xbe2997f0	-0.16561866
223	0xbd526a27	-0.051370766
224	0xbd07af81	-0.033126358
225	0xbe8817ce	-0.26580662
226	0xbd0bd9a2	-0.034143098
227	0xbdc3b2fe	-0.095556244
228	0xbd7f6d5e	-0.06236016
229	0xbe355db0	-0.1771152
230	0x3de35993	0.11101069
231	0x3d7bfed7	0.06152233
232	0xbd9d3eec	-0.07678017
233	0xbe2150e6	-0.15753517
234	0x3b107ad9	0.002204588
235	0xbc32c5bf	-0.010911404
236	0x3e05ed6d	0.13078852
237	0xbcbf5ac3	-0.023358708
238	0x3e00f35f	0.12592839
239	0x3e41aacf	0.18912815
240	0xbefd87c7	-0.49517652
241	0xbfc19d4a	-1.5126126
242	0x3f88543d	1.0650707
243	0xbf3a0474	-0.72663045
244	0xbd7395f1	-0.059469167
245	0x3f158456	0.58405054
246	0x3e5fa287	0.21839343
247	0x3e7ac729	0.24490036
248	0x3b56a8d1	0.003275443
249	0xbf5482ed	-0.83012277
250	0x3e4e9994	0.20175773
251	0xbdc831c5	-0.09775118
252	0x3e0ba5e7	0.13637505
253	0x3dd66e4f	0.104702584
254	0xbe61ca77	-0.2204989
255	0x3d9ed7f6	0.07756035

criticNet.0.bias f4 [64]
0	0xbea0945d	-0.31363192
1	0xbc08f2c3	-0.00835866
2	0x3ef95acb	0.48702082
3	0x3ed7af72	0.42126042
4	0xbe159461	-0.14607383
5	0x3ec370b9	0.38171938
6	0x3d6c975f	0.057761546
7	0x3c914e6b	0.017737588
8	0x3dc02d04	0.09383586
9	0x3e6430e8	0.22284281
10	0x3e309bde	0.17246959
11	0x3e48e6b8	0.19619262
12	0xbcb20649	-0.021731513
13	0xbdae59c5	-0.08513216
14	0xbed7df9c	-0.42162788
15	0x3e5956a9	0.21224464
16	0xbf431fc5	-0.7622035
17	0xbe96d3a2	-0.29458338
18	0xbdf47773	-0.11936846
19	0x3d669b79	0.056300614
20	0xbe33c570	-0.17555785
21	0x3e1ffe39	0.15624322
22	0x3e9200b3	0.28516158
23	0x3da46ea1	0.08028913
24	0xbf052d3b	-0.5202214
25	0x3e40ddf4	0.18834668
26	0xbeb96e64	-0.36217034
27	0xbeb0f28e	-0.34560055
28	0x3eae5762	0.34051043
29	0x3e22924c	0.1587612
30	0xbebdcc18	-0.37069774
31	0x3f5b7d68	0.8573823
32	0x3ce87479	0.028375851
33	0xbd7eb429	-0.062183533
34	0xbe8e7f1b	-0.2783135
35	0xbdd19094	-0.10232654
36	0x3e817d99	0.25291136
37	0x3e0eb9f0	0.13938117
38	0xbe0d715d	-0.13812776
39	0xbe3c2f84	-0.18377501
40	0xbe37a7cf	-0.17935108
41	0x3f030d4e	0.51192176
42	0xbed078c4	-0.40717137
43	0x3e522ade	0.20524165
44	0xbe237f79	-0.15966596
45	0x3e139900	0.14413834
46	0xbe34c7e0	-0.17654371
47	0xbe20e374	-0.15711766
48	0x3e83c3da	0.2573536
49	0xbea74ef6	-0.3267743
50	0x39f76499	0.00047186462
51	0x3ea7997e	0.32734293
52	0x3e8abfa4	0.27099335
53	0x3e89a372	0.2688251
54	0x3d1b4954	0.037911728
55	0x3dfa7591	0.12229455
56	0x3e27ae4e	0.16375086
57	0xbea11245	-0.3145925
58	0x3d45c259	0.048281047
59	0xbea8308d	-0.3284954
60	0x3eab6a58	0.3347957
61	0xbd7d67f8	-0.06186673
62	0x3e1103c2	0.1416159
63	0x3e03f7b6	0.12887463

criticNet.2.weight f4 [32, 64]
0	0x3aa73d1d	0.0012759302
1	0x3e2486e0	0.16067076
2	0xbe595266	-0.21222839
3	0xbed7d567	-0.42155
4	0x3d92d713	0.071699284
5	0xbe3bb157	-0.18329369
6	0x3e0e84b0	0.13917804
7	0x3dc0455f	0.093882315
8	0x3ec7c4c4	0.39017308
9	0xbeb8f624	-0.3612529
10	0x3e2a3f0c	0.16625613
11	0xbc611c7c	-0.013739701
12	0xbea9ab35	-0.33138433
13	0xbd8f281f	-0.06990074
14	0x3ee47321	0.44619086
15	0xbe35d358	-0.17756402
16	0x3e08a955	0.13345845
17	0xbd4e6aa8	-0.050394684
18	0x3e09a72b	0.13442676
19	0xbe30deac	-0.17272443
20	0xbde53314	-0.11191383
21	0xbe358ec2	-0.17730239
22	0xbe819e6e	-0.25316185
23	0xbf2461c6	-0.6421169
24	0x3b597183	0.003317923
25	0x3e068267	0.13135682
26	0x3e6a2b8c	0.22868174
27	0x3dbdbd13	0.09264579
28	0xbe9e5eb7	-0.30931637
29	0xbea8bd2d	-0.3295683
30	0x3ecfbf88	0.40575814
31	0xbd7d1148	-0.06178406
32	0x3ec7c06b	0.3901399
33	0x3c9ebda7	0.019377543
34	0x3dcfcdc1	0.10146666
35	0x3eba7754	0.36419165
36	0xbeb52397	-0.35378715
37	0xbe5d0928	-0.21585524
38	0x3e323728	0.17403853
39	0x3edb4379	0.42824915
40	0x3e28554d	0.1643879
41	0xbe43d9f3	-0.1912611
42	0x3e1ff8dd	0.15622278
43	0xbf2cc290	-0.6748438
44	0x3e669157	0.2251638
45	0xbd09e24c	-0.03366308
46	0x3e9308bb	0.28717598
47	0x3e6a3335	0.22871096
48	0xbe4e3b35	-0.20139773
49	0x3d2a0ec9	0.041518006
50	0xbd981891	-0.07426561
51	0xbeb646c8	-0.35600877
52	0xbe0700a3	-0.13183837
53	0x3c826317	0.01591639
54	0xbe4d2241	-0.20032598
55	0xbebccbb1	-0.36874154
56	0xbea8c8ce	-0.32965702
57	0x3ccf9af6	0.025342446
58	0xbda5d2ff	-0.08096885
59	0x3e5d163d	0.21590514
60	0xbe549400	-0.20759583
61	0x3e2bcd9d	0.16777654
62	0xbf0c9cbf	-0.54926676
63	0x3e705c5f	0.23472737
64	0xbe58bd90	-0.21166062
65	0x3e20585e	0.1565871
66	0x3e9c68d1	0.3054872
67	0xbe2cd126	-0.16876659
68	0x384bc8ab	4.8585858e-05
69	0x3e907492	0.28213936
70	0xbdd60754	-0.104506165
71	0x3e2a6503	0.16640095
72	0x3e996e97	0.29967186
73	0xbe6f9976	-0.23398384
74	0x3cabd45a	0.02097528
75	0x3d7a83d9	0.061160896
76	0xbe84789e	-0.25873274
77	0x3e3b9ccb	0.1832153
78	0xbbd2eb0e	-0.006436712
79	0x3ea8a403	0.3293763
80	0xbe3e886d	-0.1860673
81	0xbc8bfe53	-0.017089045
82	0xbe57954f	-0.2105305
83	0x3d8ef3e8	0.06980115
84	0xbbe18dd9	-0.0068833646
85	0xbc0926c7	-0.008371062
86	0x3edb2b8b	0.42806658
87	0xbe5b8c99	-0.21440352
88	0xbde383ec	-0.111091465
89	0xbd191f26	-0.03738322
90	0xbe9d0339	-0.3066652
91	0xbe33409f	-0.1750512
92	0x3dd3043e	0.103035435
93	0x3e29c2e5	0.16578253
94	0xbe350305	-0.17676933
95	0x3def2fae	0.11679016
96	0x3ebdca1d	0.37068263
97	0xbe562be0	-0.20915174
98	0x3d76d18d	0.060258437
99	0x3e200ee6	0.15630683
100	0x3dac1a55	0.0840346
101	0x3e577070	0.21038985
102	0xbd89ca49	-0.06728036
103	0xbc137da2	-0.009002121
104	0xbe19a1b0	-0.15003085
105	0x3ec21f88	0.3791468
106	0x3cd4c903	0.025974756
107	0x3d851480	0.06498051
108	0xbec3d58c	-0.3824886
109	0x3e9a34e6	0.30118483
110	0xbb4c0d1d	-0.0031135746
111	0xbec79675	-0.38981977
112	0x3e8b9988	0.27265573
113	0xbe291963	-0.1651359
114	0x3dbd576d	0.09245191
115	0xbbbe8611	-0.005814322
116	0x3e623283	0.22089581
117	0x3e39e530	0.18153834
118	0x3eb068da	0.34454995
119	0xbdaceac2	-0.08443214
120	0x3e51ff1e	0.20507476
121	0xbe348f4c	-0.17632788
122	0x3eacbc00	0.33737183
123	0xbdba9f10	-0.0911237
124	0xbc8434e8	-0.016138509
125	0xbe8563ed	-0.260528
126	0x3eb11e2a	0.34593326
127	0x3e8b7f12	0.27245384
128	0x3dbac3e9	0.09119398
129	0xbe23225c	-0.15931076
130	0xbe92128b	-0.28529772
131	0xbdb70987	-0.08937364
132	0xbbdae444	-0.0066800434
133	0xbe35436a	-0.17701498
134	0x3e81cf88	0.25353646
135	0xbe610a5e	-0.21976611
136	0x3c1757a5	0.009237205
137	0x3cc171c5	0.02361382
138	0xbe2b752c	-0.16743916
139	0xbe28f352	-0.1649907
140	0xbdd7d5be	-0.10538815
141	0x3e80e8ec	0.25177705
142	0x3e69d522	0.2283521
143	0xbc02cd81	-0.007983566
144	0x3e920c2c	0.2852491
145	0x3e3ec667	0.18630372
146	0x3eaf8a10	0.3428502
147	0x3c55dc04	0.013052944
148	0x3de05e3d	0.109554745
149	0x3c97a645	0.0185119
150	0xbdac0236	-0.08398859
151	0x3d859b64	0.06523779
152	0x3e94ca4d	0.29060593
153	0xbd412280	-0.047152042
154	0x3ed0220c	0.40650976
155	0x3ee7d3ce	0.45278782
156	0x3e071810	0.13192773
157	0x3e140cd3	0.14458017
158	0xbe884560	-0.2661543
159	0xbe1753d4	-0.14778072
160	0xbdb0e1c7	-0.086368136
161	0xbe06b116	-0.1315349
162	0x3edd4caf	0.43222567
163	0xbd8d6146	-0.06903319
164	0xbd6d7f50	-0.057982743
165	0xbd8b6d57	-0.06807964
166	0x3e266a7b	0.16251557
167	0xbdbe329c	-0.09286997
168	0x3dcee1c0	0.10101652
169	0xbe70224c	-0.23450583
170	0x3e9f208a	0.31079513
171	0x3eb24860	0.34820843
172	0xbd280901	-0.04102421
173	0xbb3cc1e6	-0.0028802096
174	0xbd79146f	-0.060810503
175	0xbdae6044	-0.08514455
176	0x3b4711b4	0.0030375542
177	0x3eaaa9c8	0.33332658
178	0xbe4228e3	-0.1896091
179	0xbe3aa3a9	-0.18226494
180	0xbeb29215	-0.34877077
181	0xbdfd5479	-0.123696275
182	0xbe58b387	-0.21162234
183	0xbd14e4e1	-0.03635109
184	0xbcf30199	-0.029663848
185	0x3dae4dc7	0.085109286
186	0xbe85ea4f	-0.26155326
187	0x3e9d5a47	0.3073294
188	0xbe9f9ea8	-0.31175733
189	0xbd98f2ba	-0.074681714
190	0xbcbfe0d3	-0.023422634
191	0xbe55523a	-0.20832148
192	0xbe28a9a9	-0.1647097
193	0xbcc3de99	-0.023909854
194	0xbe7e094a	-0.24808231
195	0x3e41bd42	0.18919852
196	0x3da196f1	0.07890118
197	0x3ee931b4	0.45545733
198	0xbe8a5771	-0.27019837
199	0x3ebd3881	0.36957172
200	0xbd942926	-0.07234411
201	0x3d3d3e5e	0.046202056
202	0x3e62c485	0.22145279
203	0xbd8ed9ff	-0.06975173
204	0x3d194e59	0.037428234
205	0xbd9bb4b8	-0.07602829
206	0x3da38640	0.079845905
207	0xbd757197	-0.05992278
208	0x3e98dc96	0.29855794
209	0x3d5f56b4	0.054526046
210	0xbebf1639	-0.37321642
211	0xbca62758	-0.020282432
212	0xbe6cb180	-0.23114586
213	0x3d8f51b9	0.06998009
214	0x3e037bfc	0.12840265
215	0xbbc09cb4	-0.0058780555
216	0x3ddbde84	0.10735801
217	0x3d17825f	0.036989566
218	0x3cce528d	0.025185848
219	0x3ecf9338	0.40542006
220	0x3ccab4de	0.024744447
221	0x3cf2bd5f	0.029631315
222	0xbd85bbdb	-0.06529971
223	0xbe5f37d3	-0.21798639
224	0xbd7d123f	-0.06178498
225	0xbd7ccf69	-0.06172124
226	0x3e84de06	0.2595064
227	0xbab0c885	-0.0013487494
228	0x3f76d253	0.9641468
229	0xbda085a5	-0.07837991
230	0xbcd5e491	-0.026109966
231	0xbd162c74	-0.036663488
232	0x3d64a322	0.055819638
233	0xbe71d7c4	-0.23617464
234	0x3e74d60c	0.23909777
235	0xbdb095a5	-0.086222924
236	0xbf28b0da	-0.65894854
237	0x3dd8b290	0.10580933
238	0x3d12f289	0.03587583
239	0xbe6b6a28	-0.22989714
240	0x3e302056	0.17199835
241	0x3e1b01be	0.15137383
242	0x3ece7f5b	0.4033154
243	0x3e6776b5	0.22603877
244	0x3ecfd6da	0.40593606
245	0x3e07d938	0.13266456
246	0x3e8516b9	0.259939
247	0x3d4cfb52	0.050044365
248	0x3ecfda05	0.40596023
249	0xbeab2381	-0.33425525
250	0x3ebf0211	0.37306264
251	0x3e0d3346	0.1378909
252	0xbe2d59ba	-0.16928759
253	0xbcefb8cf	-0.029262928
254	0x3ebfbda3	0.3744937
255	0xbd47416d	-0.04864638

criticNet.2.bias f4 [32]
0	0xbdf292aa	-0.1184438
1	0x3de1641c	0.110054225
2	0xbebd9725	-0.37029377
3	0xbdb39979	-0.08769507
4	0x3ef32892	0.4749189
5	0x3de55547	0.11197906
6	0x3d38e99d	0.045144666
7	0x3d12d44a	0.035846986
8	0x3ed197b8	0.40936065
9	0xbea9a8ca	-0.33136588
10	0x3c1dbc43	0.009627405
11	0xbcc1cfdf	-0.023658691
12	0xbe9f15f2	-0.3107143
13	0x3e1f950f	0.15584205
14	0xbde88d4b	-0.113550745
15	0xbe856afc	-0.26058185
16	0xbddf41ba	-0.10901208
17	0x3aba4bef	0.0014213304
18	0xbe0b7218	-0.13617742
19	0x3e0fa307	0.14027034
20	0x3ea3d04b	0.31994852
21	0x3ec99fb8	0.39379668
22	0xbda8d97a	-0.08244605
23	0x3d45c9c8	0.048288137
24	0xbeb52664	-0.35380852
25	0xbe1a13a8	-0.15046561
26	0xbeb854ef	-0.360023
27	0xbd700356	-0.05859693
28	0xbe80c1c4	-0.2514783
29	0xbec15287	-0.37758276
30	0xbe493728	-0.19649947
31	0x3e2ea7ef	0.17056249

criticNet.4.weight f4 [1, 32]
0	0xbe0dc883	-0.1384602
1	0xbe65962d	-0.22420569
2	0x3ee66197	0.4499633
3	0xbedb1e31	-0.42796472
4	0xbf07e67c	-0.53086066
5	0xbec0c250	-0.3764825
6	0xbee325f4	-0.44364893
7	0xbee10338	-0.43947768
8	0xbec25ad2	-0.37959915
9	0x3ec1ac2e	0.37826675
10	0xbe2769fd	-0.16349025
11	0x3ecdea53	0.40217838
12	0x3e80e850	0.2517724
13	0xbeb12e8e	-0.3460583
14	0x3f09bc36	0.5380281
15	0x3ea65d16	0.32492894
16	0xbe8f0d96	-0.27940053
17	0xbec9eb51	-0.39437345
18	0x3e3ae91f	0.18252991
19	0xbec967d3	-0.39337024
20	0xbe95977c	-0.29217136
21	0xbec2ed79	-0.38071802
22	0x3f066fcb	0.5251433
23	0x3e81f925	0.25385395
24	0x3eb08fa3	0.34484586
25	0x3f12c9c9	0.5733915
26	0x3ea42434	0.3205887
27	0x3ebd784e	0.37005848
28	0x3ef27f41	0.47362712
29	0x3e971f77	0.29516193
30	0xbe582bde	-0.21110484
31	0xbecf9c84	-0.405491
