TrainedModel/PPO_multiagent_BipedalWalker-v3.pth (torch_old, 32251 bytes, 11 tensors)

actorNet.0.weight f4 [64, 24]
0.41126975 -0.3692167 0.30235097 0.35917714 0.27684695 0.015593397 -0.079396926 0.4103567
0.24597952 -0.25629973 -0.37755615 -0.043476414 0.18773957 0.10017522 -0.04001465 0.058651127
-0.09120736 0.092819415 -0.027070953 0.15696374 -0.15549697 0.047292963 0.1024436 0.18094742
-0.3177822 1.0337619 -0.14022955 -0.6231806 -0.007617641 -0.013705942 0.10799812 -0.16495025
0.11509429 0.017586619 0.06947047 0.24667676 0.25176194 -0.123702854 -0.1739205 0.20725042
-0.06591619 0.049962293 0.03419665 0.052453134 -0.075691365 0.13681208 -0.01817173 -0.086075924
0.33948854 -0.5131666 0.20220023 0.48303404 0.15500733 -0.033914395 -0.28265536 0.16857313
-0.05337315 -0.2413177 -0.10031747 -0.28372833 -0.09121787 0.17022166 0.24740443 0.14050975
0.1237716 -0.015967099 -0.029941013 0.11279494 -0.12245327 -0.0703245 -0.023008728 0.03159309
-0.3880843 -0.57772803 0.23530556 0.33004382 0.084762216 0.0961943 -0.10600391 -0.165105
-0.2707691 -0.103929065 -0.019621251 -0.15066344 0.079052836 0.30473956 -0.05703508 0.0857927
-0.042597525 -0.18243265 -0.15819183 0.12634768 0.046981763 0.02021822 -0.23169763 0.20046987
-0.2885891 -0.77348167 0.40450695 0.73710716 0.15344773 0.08665287 -0.001581013 0.11122138
-0.046556156 -0.11188269 -0.107209034 -0.17463721 -0.116100274 -3.825263e-05 -0.048774127 -0.20667443
0.017886335 -0.09514969 -0.06542605 0.09142476 0.02098817 -0.13705106 0.14041649 -0.15460761
-0.05611973 0.10231939 0.27118888 -0.90438443 0.01868621 -0.57516 -0.034137778 -0.0008852399
-0.12483987 -0.060911406 -0.067414716 0.2954226 0.24297775 -0.24707887 0.10687426 -0.09519282
0.011966681 -0.1292381 0.041939635 -0.1717044 -0.1700512 -0.12275099 0.07052554 0.13428059
-0.24141899 0.6893707 -0.018391754 -0.95085627 0.060159378 -0.12817124 0.27266538 -0.046294075
0.15349753 -0.10375838 0.011384415 0.30751723 0.04488195 -0.063547924 -0.18615113 0.109242074
-0.01898741 -0.15086617 -0.17855273 -0.04778573 -0.14025718 -0.08312388 0.09397333 -0.08640638
0.22482513 -0.7000671 -0.05122601 0.63437384 0.17098534 -0.023849301 -0.20460373 0.010884318
-0.06253312 0.0066206153 -0.04806418 0.18849792 0.021404587 -0.06923302 0.09164801 -0.15601626
0.18285348 0.18435887 0.11806819 -0.0012357838 -0.17750788 0.01814074 -0.032243606 0.022739466
-0.13366601 0.010678093 0.01461066 -0.8318158 0.21332332 0.29545277 -0.13499153 -0.2522723
0.012640311 -0.2950394 -0.037130546 0.43117136 -0.020515464 -0.29084578 -0.24263419 -0.015381128
0.11922186 -0.07459378 -0.10350836 -0.13752615 -0.0958399 0.1886738 -0.15895654 -0.05909935
0.05190176 -0.051057357 0.18159811 -0.22187045 -0.26005673 -0.14278802 -0.0016552368 -0.26745227
-0.2080005 -0.18509412 0.3035862 0.40379086 0.013203619 0.12261604 -0.16962229 -0.09872944
-0.08243309 0.1118481 0.02956345 0.21389244 -0.02225685 0.22369385 0.14851706 0.10429877
0.10366627 0.89479256 -0.2078745 -0.25634804 0.023933139 0.08937098 0.07967766 -0.29519194
-0.09068895 0.1815366 0.032376666 0.108191766 -0.18178935 -0.09626779 0.003970957 0.10871358
00000000: f391 d23e f909 bdbe bfcd 9a3e 11e6 b73e
00000010: e2be 8d3e 737b 7f3c db9a a2bd 461a d23e
00000020: 0ee2 7b3e b839 83be 0a4f c1be 5314 32bd
00000030: cd3e 403e aa28 cd3d 67e6 23bd 2a3c 703d
00000040: edca babd 1b18 be3d e7c3 ddbc 1abb 203e
00000050: 993a 1fbe 44b6 413d f3cd d13d 484a 393e
00000060: 59b4 a2be 4f52 843f 5698 0fbe c488 1fbf
00000070: 679d f9bb e38e 60bc 1e2e dd3d b8e8 28be
00000080: 8eb6 eb3d d011 903c 8946 8e3d d598 7c3e
00000090: f1e6 803e ec57 fdbd 3718 32be 7439 543e
000000a0: 11ff 86bd 43a5 4c3d c911 0c3d 19d9 563d
000000b0: 1304 9bbd 7718 0c3e e1dc 94bc 9348 b0bd
000000c0: 71d1 ad3e e35e 03bf 940d 4f3e 3d50 f73e
000000d0: 3eba 1e3e d2e9 0abd 34b8 90be 6f9e 2c3e
000000e0: ce9d 5abd fd1b 77be 3f73 cdbd d744 91be
000000f0: 6fd0 babd 964e 2e3e 9657 7d3e cae1 0f3e
00000100: f77b fd3d 6fcd 82bc db46 f5bc 0901 e73d
00000110: c8c8 fabd 4b06 90bd cd7c bcbc c267 013d
00000120: fcb2 c6be fce5 13bf f1f3 703e 81fb a83e
00000130: d097 ad3d 8401 c53d 9418 d9bd 4911 29be
00000140: 3fa2 8abe c3d8 d4bd bfbc a0bc 8447 1abe
00000150: 74e6 a13d d306 9c3e 9e9d 69bd 15b4 af3d
00000160: be7a 2ebd a0cf 3abe 0afd 21be 4961 013e
00000170: f36f 403d aea0 a53c 2542 6dbe f947 4d3e
00000180: f3c1 93be e502 46bf 891b cf3e 0eb3 3c3f
00000190: 6721 1d3e 0f77 b13d fe39 cfba 09c8 e33d
000001a0: abb1 3ebd c022 e5bd 6990 dbbd 19d4 32be
000001b0: fbc5 edbd 7371 20b8 61c7 47bd 76a2 53be
000001c0: 5d86 923c d7dd c2bd 18fe 85bd e83c bb3d
000001d0: 62ef ab3c 1d57 0cbe 57c9 0f3e 7551 1ebe
000001e0: cddd 65bd d48c d13d 45d9 8a3e bd85 67bf
000001f0: d313 993c b03d 13bf 0ed4 0bbd 720f 68ba
00000200: 0cac ffbd 3d7e 79bd ba10 8abd a241 973e
00000210: 29cf 783e 3e02 7dbe e4e0 da3d 74f4 c2bd
00000220: e60f 443c fe56 04be e5c8 2b3d 47d3 2fbe
00000230: e721 2ebe df64 fbbd b26f 903d da80 093e
00000240: 8a36 77be 997a 303f 4eaa 96bc 516b 73bf
00000250: ae69 763d 523f 03be cc9a 8b3e db9e 3dbd
00000260: 752e 1d3e 467f d4bd b385 3a3c e672 9d3e
00000270: 23d6 373d 6a25 82bd 679e 3ebe 4fba df3d
00000280: 7c8b 9bbc a97c 1abe 87d6 36be f8ba 43bd
00000290: 949f 0fbe da3c aabd 1775 c03d d4f5 b0bd
000002a0: 8f38 663e 9937 33bf 5dd2 51bd 5366 223f
000002b0: c816 2f3e 9c5f c3bc a483 51be 2354 323c
000002c0: 5d11 80bd bff1 d83b f2de 44bd 9905 413e
000002d0: ac58 af3c 0bca 8dbd f4b1 bb3d bac2 1fbe
000002e0: f13d 3b3e 92c8 3c3e bccd f13d 06fa a1ba
000002f0: a0c4 35be e49b 943c df11 04bd 1e48 ba3c
00000300: bedf 08be 2bf3 2e3c 8d61 6f3c e1f1 54bf
00000310: 6e71 5a3e 9645 973e 383b 0abe d629 81be
00000320: 4f19 4f3c 670f 97be 3316 18bd 7ec2 dc3e
00000330: 0c10 a8bc bde9 94be 1975 78be 2001 7cbc
00000340: 972a f43d a0c4 98bd 31fc d3bd a8d3 0cbe
00000350: b647 c4bd b433 413e 81c5 22be 2912 72bd
00000360: f196 543d 8521 51bd dbf4 393e 0232 63be
00000370: 2826 85be 0637 12be 88f4 d8ba 81ef 88be
00000380: 15fe 54be 5089 3dbe a76f 9b3e adbd ce3e
00000390: fe53 583c 1e1e fb3d 77b1 2dbe a932 cabd
000003a0: aed2 a8bd 9e10 e53d 0c2f f23c 9f06 5b3e
000003b0: ff53 b6bc 0010 653e db14 183e 989a d53d
000003c0: fb4e d43d 2011 653f 0edd 54be 0d40 83be
000003d0: 6e0f c43c 2208 b73d 0a2e a33d 6623 97be
000003e0: 21bb b9bd bbe4 393e 659d 043d a593 dd3d
000003f0: fd26 3abe 0c28 c5bd cd1e 823b 3aa5 de3d

actorNet.0.bias f4 [64]
-0.11476227 -0.1207158 -0.13892266 0.091421485 -0.0016773896 -0.09120683 0.16017617 -0.10367807
-0.045072433 -0.023987679 -0.15016219 0.1397643 0.020404778 0.25619578 0.06619833 -0.12468107
0.27102757 -0.10476472 0.0707114 0.04222989 0.20765707 0.24126059 -0.12251275 0.08580798
0.08533216 -0.21231003 -0.010027489 0.15123239 -0.12039356 0.22790065 -0.19158378 -0.17840102
0.13670428 0.1301802 -0.10926439 0.15624546 -0.24446225 0.20617175 -0.11947602 -0.14948896
-0.102316536 -0.039775074 0.12581891 0.17258446 -0.23076725 -0.17207414 0.09694805 0.04929127
-0.1764436 0.13489063 -0.09417298 0.033245716 -0.09252708 -0.25317222 0.12350194 -0.13818066
0.030570513 -0.06844457 -0.075082086 0.020809984 -0.114701144 -0.18246362 -0.1813043 -0.152928
00000000: 7b08 ebbd d839 f7bd be41 0ebe 303b bb3d
00000010: dbdb dbba a6ca babd 3905 243e 2b55 d4bd
00000020: df9d 38bd cf81 c4bc 1ec4 19be 5f1e 0f3e
00000030: ec27 a73c 182c 833e fd92 873d ca58 ffbd
00000040: 20c4 8a3e e38e d6bd 23d1 903d 40f9 2c3d
00000050: 0ea4 543e 040d 773e f7e7 fabd 18bc af3d
00000060: a1c2 ae3d cd67 59be 564a 24bc aadc 1a3e
00000070: e690 f6bd ca5e 693e 8a2e 44be c2ae 36be
00000080: 35fc 0b3e f54d 053e 02c6 dfbd cffe 1f3e
00000090: 5054 7abe b01e 533e d8af f4bd a213 19be
000000a0: 558b d1bd 30eb 22bd acd6 003e fbb9 303e
000000b0: 404e 6cbe 3434 30be b38c c63d a5e5 493d
000000c0: a2ad 34be c520 0a3e c3dd c0bd a92c 083d
000000d0: d67e bdbd ca9f 81be 96ee fc3d 3b7f 0dbe
000000e0: 036f fa3c ab2c 8cbd a3c4 99bd b379 aa3c
000000f0: 6fe8 eabd bed7 3abe d6a7 39be 2899 1cbe

actorNet.2.weight f4 [32, 64]
0.051856123 0.0013081953 -0.027044868 0.11835382 -0.040984094 0.1412662 0.23297353 -0.07471894
0.21686023 -0.017467365 -0.095664635 0.1400724 -0.362316 -0.00027017266 0.09044208 0.24124743
-0.23632331 -0.04896994 0.22540122 -0.40555498 0.052476194 0.32283506 -0.09059461 0.0931054
-0.05239012 -0.07098229 0.5371862 -0.012533976 -0.27771014 0.00044219912 -0.44935048 0.2331362
-0.020018293 -0.00034246175 0.21134193 0.2600551 0.070342064 0.026799055 -0.12772122 0.05879215
-0.24137953 0.28770208 0.2265989 0.0455072 -0.12830694 -0.27621946 0.001969093 -0.17613043
-0.16429454 0.1536912 -0.06263657 -0.2105713 -0.28943017 -0.24902269 0.021961803 -0.23523806
0.13182284 -0.07436743 -0.110892475 0.029011928 -0.2937386 -0.26074505 0.24385189 0.020409161
0.059317425 -0.10478055 0.25741193 0.040827848 0.426937 0.077146664 -0.04151375 0.118875444
0.08797796 -0.1342573 -0.2908079 -0.067351855 -0.4207987 0.16954514 0.16769059 0.11101691
0.10776134 -0.15025221 0.30269232 -0.19181894 -0.08271727 0.028212994 0.19665891 -0.29042557
-0.2747293 0.10718949 0.5864504 0.12888443 -0.091550834 0.21019128 -0.18686388 0.48686302
0.24434097 -0.283457 0.23066539 0.020759491 0.032121252 -0.17550978 -0.27465636 -0.31812653
0.01390669 -0.15725726 -0.078252666 0.117637046 -0.06921685 0.058373135 0.03190198 0.29364315
0.033941545 -0.12539755 0.08061194 -0.07439761 -0.003910333 -0.048660878 -0.017775195 -0.18910202
0.06276575 0.106354974 -0.117000215 -0.03199937 -0.17611617 0.30972296 0.0052063265 0.30648088
0.10734305 -0.2728987 0.1787307 -0.565683 -0.28621763 -0.14523537 -0.1468309 0.1697036
-0.023955986 -0.14349501 -0.016295621 -0.099050626 0.059273638 0.25673035 0.04765952 -0.1288711
-0.06975977 0.042581238 0.04554395 -0.05067138 -0.15589437 -0.23264204 -0.1704817 0.14655769
0.43651292 -0.06363104 -0.14927588 -0.10637908 0.18018383 0.06801019 0.02275692 -0.24137093
-0.0052355 -0.11523776 0.17945814 -0.012588741 -0.15233828 -0.03833277 0.010704782 0.030137165
0.18489222 -0.5088019 -0.14552054 0.19886908 0.5245109 0.0057183956 -0.11077816 -0.38435563
0.44465515 -0.2716004 0.3130505 -0.20434925 0.04232664 0.14698994 -0.057620794 -0.24589908
-0.5347984 0.09947507 0.12474979 0.07266902 0.050057214 0.16852829 -0.037241608 0.1454247
0.13895805 -0.08583924 0.26988697 -0.023570536 0.15101716 -0.09091463 -0.31503698 0.15252492
-0.14719614 0.10178179 0.1527325 -0.23407789 -0.056643195 0.09230016 -0.20548326 -0.04450303
0.116673246 -0.11240319 -0.1058877 0.11197245 -0.18713042 -0.0667453 0.028433673 -0.32049993
-0.19855377 0.16557172 -0.041782863 0.17743517 0.11670613 0.017688151 0.27118587 0.1811956
0.037511393 -0.1782192 -0.01644433 -0.23572512 0.22227015 0.1148756 -0.0037218444 0.06463474
-0.11380106 -0.2446105 -0.44998938 -0.055133536 0.015279091 0.20946126 -0.108787745 0.2385342
0.16404922 0.057114307 0.1151476 0.029653197 0.042846493 -0.057298735 -0.12094439 0.17332342
0.0091571 -0.026773857 0.040925108 0.19812949 0.066150516 0.27086282 -0.1436891 0.1656959
00000000: 1667 543d c077 ab3a 338d ddbc 7d63 f23d
00000010: f0de 27bd 16a8 103e 9d90 6e3e 3e06 99bd
00000020: 9c10 5e3e b817 8fbc d2eb c3bd 246f 0f3e
00000030: 7c81 b9be f6a5 8db9 b239 b93d 9109 773e
00000040: bdfe 71be b494 48bd 94cf 663e e7a4 cfbe
00000050: 47f1 563d a34a a53e ab89 b9bd 0bae be3d
00000060: 0697 56bd 2a5f 91bd 0985 093f 4e5b 4dbc
00000070: 0630 8ebe f6d6 e739 4411 e6be 42bb 6e3e
00000080: 67fd a3bc 708c b3b9 056a 583e f125 853e
00000090: 800f 903d b189 db3c 5ac9 02be 0ad0 703d
000000a0: 322c 77be b04d 933e 8b09 683e c265 3a3d
000000b0: e562 03be a36c 8dbe e60b 013b 895b 34be
000000c0: d43c 28be 3a61 1d3e 9a47 80bd 01a0 57be
000000d0: 3130 94be ceff 7ebe 3de9 b33c 3fe2 70be
000000e0: 91fc 063e f34d 98bd 981b e3bd 6caa ed3c
000000f0: e864 96be 6080 85be 4fb4 793e 1d31 a73c
00000100: d4f6 723d 2f97 d6bd 7fcb 833e 1a3b 273d
00000110: 7d97 da3e 12ff 9d3d 520a 2abd f874 f33d
00000120: ca2d b43d bf7a 09be c6e4 94be c5ef 89bd
00000130: ed72 d7be 3e9d 2d3e 15b7 2b3e d55c e33d
00000140: fab1 dc3d b7db 19be 7dfa 9a3e 2f6c 44be
00000150: ac67 a9bd f01e e73c f460 493e a9b2 94be
00000160: 52a9 8cbe 2a86 db3d 9d21 163f 48fa 033e
00000170: 017f bbbd 623c 573e 3f59 3fbe 1c46 f93e
00000180: 8534 7a3e 4721 91be 8c33 6c3e cf0f aa3c
00000190: 9391 033d d6b8 33be c29f 8cbe 7be1 a2be
000001a0: e3d8 633c 0c08 21be ef42 a0bd b1eb f03d
000001b0: 90c1 8dbd ab18 6f3d a7ab 023d 6558 963e
000001c0: 4a06 0b3d 3768 00be df17 a53d c65d 98bd
000001d0: 4022 80bb a150 47bd 499d 91bc f6a3 41be
000001e0: 548b 803d a3d0 d93d cf9d efbd c511 03bd
000001f0: cc57 34be 0294 9e3e d599 aa3b 10eb 9c3e
00000200: acd6 db3d 61b9 8bbe 2e05 373e 9ad0 10bf
00000210: 1e8b 92be 95b8 14be d75a 16be c8c6 2d3e
00000220: 583f c4bc 5bf0 12be 657e 85bc 0edb cabd
00000230: eac8 723d 2972 833e a136 433d c9f6 03be
00000240: 36de 8ebd aa69 2e3d 4b8c 3a3d cb8c 4fbd
00000250: c6a2 1fbe b739 6ebe c192 2ebe 3813 163e
00000260: 9f7e df3e fe50 82bd c7db 18be 46dd d9bd
00000270: 1c82 383e ed48 8b3d b86c ba3c f129 77be
00000280: 8f8e abbb c601 ecbd e0c3 373e 0241 4ebc
00000290: 91fe 1bbe d302 1dbd 1c63 2f3c 37e2 f63c
000002a0: 6354 3d3e d740 02bf 5603 15be 56a4 4b3e
000002b0: 5946 063f 6161 bb3b a9df e2bd 43ca c4be
000002c0: d7a9 e33e 350f 8bbe 2848 a03e ee40 51be
000002d0: b35e 2d3d 8884 163e c803 6cbd f8cc 7bbe
000002e0: 8ce8 08bf 96b9 cb3d d17c ff3d 7fd3 943d
000002f0: cb08 4d3d ae92 2c3e a88a 18bd 36ea 143e
00000300: 054b 0e3e 7ccc afbd a02e 8a3e ff16 c1bc
00000310: 3ea4 1a3e 7331 babd 874c a1be 7e2f 1c3e
00000320: 96ba 16be f972 d03d e965 1c3e 1db2 6fbe
00000330: b202 68bd de07 bd3d 346a 52be cf48 36bd
00000340: 62f2 ee3d a533 e6bd a7db d8bd d051 e53d
00000350: 1e9f 3fbe c3b1 88bd bced e83c 9118 a4be
00000360: ae51 4bbe a28b 293e 8224 2bbd 91b1 353e
00000370: a003 ef3d bee6 903c e0d8 8a3e 578b 393e
00000380: 8ca5 193d 187f 36be 42b6 86bc ed61 71be
00000390: c99a 633e e643 eb3d 30ea 73bb 385f 843d
000003a0: 8810 e9bd 2d7b 7abe 0265 e6be b4d3 61bd
000003b0: 2755 7a3c 037d 563e 1ccc debd 4f42 743e
000003c0: 85fc 273e b1f0 693d 81d2 eb3d 43eb f23c
000003d0: ce7f 2f3d 14b2 6abd b1b1 f7bd b27b 313e
000003e0: a907 163c d954 dbbc 16a1 273d 75e2 4a3e
000003f0: ec79 873d 88ae 8a3e 3c23 13be 30ac 293e

actorNet.2.bias f4 [32]
-0.01247698 -0.11556435 -0.08950453 -0.107643515 0.08933074 -0.23402536 -0.11073779 0.030954849
0.034689687 -0.07353011 0.13684714 0.09478221 0.04529375 0.03374316 -0.0037307572 -0.03837618
0.05346791 -0.061713345 0.054444417 0.031423517 0.14386009 0.056016296 -0.14796032 0.05510423
0.08868347 0.0216338 -0.16194473 0.07327788 0.19999307 -0.02834244 0.035735745 0.077311315
00000000: 3f6c 4cbc 00ad ecbd 274e b7bd 3474 dcbd
00000010: 09f3 b63d 58a4 6fbe 7fca e2bd 0695 fd3c
00000020: c616 0e3d f496 96bd a821 0c3e 2d1d c23d
00000030: f085 393d 4536 0a3d b87f 74bb 5730 1dbd
00000040: 2b01 5b3d 22c7 7cbd 1c01 5f3d f2b5 003d
00000050: 0f50 133e 5871 653d e982 17be f9b4 613d
00000060: ae9f b53d 5e39 b13c d7d4 25be b712 963d
00000070: fcca 4c3e 682e e8bc a55f 123d 6555 9e3d

actorNet.4.weight f4 [4, 32]
0.037194584 -0.20175964 0.47677737 -0.057330504 -0.32549804 -0.49443442 -0.45311195 -0.157475
0.11734237 -0.5552321 -0.01160014 0.13600005 -0.0766315 0.030874537 0.17846906 -0.22829004
-0.09989632 0.30113435 0.40221825 -0.14386189 0.25074774 0.33302194 -0.10804268 0.22645329
0.17498599 0.331539 -0.23012426 0.38720652 -0.15280406 0.09153794 -0.09694851 0.113491796
0.23400603 0.31376657 -0.14002253 0.38344142 -0.45275503 0.15757278 -0.20567064 -0.30811527
0.058685176 0.13006793 0.059698753 -0.1487998 0.5075812 0.3726286 0.25349328 -0.08909619
-0.3764769 0.15093334 -0.27849394 0.23715468 -0.24172527 0.3549261 -0.5459102 0.30652812
0.43108463 -0.34439474 0.054593787 0.31777933 -0.4550793 0.37352833 -0.31256536 0.5361704
0.55465233 0.27521417 -0.123564765 -0.4004179 0.050348315 -0.31528285 -0.18285862 0.6248884
0.30021614 -0.02153056 0.33610907 0.18974899 0.014855206 0.23280396 -0.19096833 0.13041495
0.27622873 0.24356543 0.23690069 0.4990632 0.18492058 -0.055815864 0.04324613 -0.4676242
-0.044571493 0.013047198 0.38051596 -0.24286771 0.58822876 0.12603717 0.5506132 -0.2847298
-0.41750944 0.7085067 0.061780624 0.5754942 -0.22839996 -0.27843714 -0.1008715 -0.28977728
-0.44417778 -0.41607043 0.63389057 -0.52520037 0.7512993 0.13269077 -0.38643837 0.4628915
0.54246753 -0.24077787 0.5710889 -0.7322482 0.42865375 -0.5712212 -0.3683939 0.10663322
0.43323538 -0.6826762 -0.17144535 0.3337471 0.47786972 -0.40755016 -0.30619752 0.568304
00000000: 5959 183d 149a 4ebe 2a1c f43e 64d3 6abd
00000010: aea7 a6be 8226 fdbe 4afe e7be 2041 21be
00000020: 3251 f03d b123 0ebf 830e 3ebc 9943 0b3e
00000030: faf0 9cbd 99ec fc3c 98c0 363e ddc4 69be
00000040: 7196 ccbd 482e 9a3e 8def cd3e 8850 13be
00000050: 0262 803e da81 aa3e 7b45 ddbd 5fe3 673e
00000060: 872f 333e 7bbf a93e b2a5 6bbe ef3f c63e
00000070: ab78 1cbe 3e78 bb3d f18c c6bd 636e e83d
00000080: 479f 6f3e 03a6 a03e 1162 0fbe 6f52 c43e
00000090: 82cf e7be c25a 213e 539b 52be 49c1 9dbe
000000a0: de5f 703d 8730 053e ae86 743d fa5e 18be
000000b0: d7f0 013f 2dc9 be3e dfc9 813e 1078 b6bd
000000c0: 95c1 c0be 458e 1a3e c296 8ebe add8 723e
000000d0: d486 77be e0b8 b53e c5c0 0bbf 41f1 9c3e
000000e0: 20b7 dc3e 8254 b0be bc9d 5f3d f9b3 a23e
000000f0: 2700 e9be 1b3f bf3e 9108 a0be 7742 093f
00000100: b2fd 0d3f dfe8 8c3e 860f fdbd 9303 cdbe
00000110: 093a 4e3d c16c a1be 4a3f 3bbe b0f8 1f3f
00000120: eeb5 993e db60 b0bc 7d16 ac3e 8f4d 423e
00000130: 4063 733c 2964 6e3e 348d 43be 7f8b 053e
00000140: da6d 8d3e 3769 793e 1896 723e 3685 ff3e
00000150: d25b 3d3e 2d9f 64bd db22 313d 706c efbe
00000160: 9990 36bd eac3 553c fdd2 c23e 50b2 78be
00000170: 2996 163f e30f 013e fdf4 0c3f 1bc8 91be
00000180: ccc3 d5be b260 353f ae0d 7d3d 9753 133f
00000190: aee1 69be 508f 8ebe b895 cebd b05d 94be
000001a0: 456b e3be 2f07 d5be a746 223f 8873 06bf
000001b0: 2755 403f 17e0 073e 40db c5be 1d00 ed3e
000001c0: 27df 0a3f 798e 76be e232 123f 9e74 3bbf
000001d0: 8178 db3e 8d3b 12bf 209e bcbe 8562 da3d
000001e0: 07d1 dd3e dec3 2ebf 5f8f 2fbe e6e0 aa3e
000001f0: 57ab f43e 6aaa d0be ecc5 9cbe 5f7c 113f

actorNet.4.bias f4 [4]
-0.14677447 0.050607584 -0.0187197 0.083736256
00000000: 0c4c 16be e649 4f3d 0e5a 99bc ea7d ab3d

criticNet.0.weight f4 [64, 24]
1.1075395 1.3062109 -0.1255762 -0.32798386 0.40170598 0.21888307 0.87441653 0.0916284
-0.30077174 -0.014536862 -0.16668713 -0.16546662 -0.08207776 0.11565963 0.07241782 -0.24603283
0.034616746 0.05417315 -0.09473347 0.10038927 0.0020860252 0.057690997 0.18936735 -0.04107633
0.34908932 0.0833935 -0.46928626 0.63870835 0.15413381 0.18939304 0.18092074 -0.41409075
-0.017698275 0.30469686 -0.06932012 -0.1667853 0.113209754 -0.10568172 -0.033078607 -0.28806448
-0.15027957 -0.08394212 0.035201278 -0.2399884 0.04240951 -0.04289024 -0.27694145 0.11945823
0.2425404 -0.2756001 -0.5210001 0.20544924 -0.29973865 0.20337813 -0.09094047 -0.09792602
-0.13578317 0.12543158 -0.1460967 0.096765645 0.13186215 -0.09662566 0.43905452 0.39936617
0.24372283 0.11863555 0.20200372 0.109717794 -0.073543094 1.5771151e-05 -0.08511023 0.07129086
0.38940692 0.74667376 0.033360172 0.2627856 7.117248e-05 0.052467152 0.23145595 -0.0865823
-0.085214816 0.1391391 0.15209511 0.010383182 -0.10123465 0.10605224 -0.32978472 -0.119587824
-0.003895741 -0.23693632 -0.09871386 0.12311854 0.21047947 0.27919078 0.46596473 -0.22782561
0.17814088 0.05905022 0.8244279 0.23317058 -0.14697035 -0.090983264 0.013891012 -0.16761395
-0.008996502 -0.07637327 -0.18870479 -0.3429366 -0.2491981 -0.061462294 -0.08974668 -0.012983455
0.07374433 -0.103376634 0.04102961 0.28752634 0.19854827 0.096882984 0.38366747 -0.22850837
0.50343305 0.32945564 -0.24438474 0.4970468 -0.1295684 -0.067996 -0.31138548 0.074486
0.17708558 0.42171428 0.019995077 0.07882248 -0.10863271 -0.022362329 0.007875128 0.13229345
0.09158267 0.080415815 0.07439081 -0.08471499 -0.043882504 0.022762926 -0.013618895 -0.1507963
-0.005420572 0.054441206 -0.4798849 -0.45244336 0.005726777 -0.16464095 0.164065 -0.020062033
-0.07346667 0.16905166 -0.13685131 0.003946526 0.19543229 0.097316645 0.20826006 0.2725313
0.0921304 0.16809593 -0.0669868 0.2037515 0.07155176 -0.23569988 -0.22109094 0.28202486
0.45949677 0.80680275 -0.85327303 0.29140073 0.1588379 0.16154876 0.104416564 0.077260934
-0.13259543 0.25632453 0.040495433 0.18008521 0.32492715 0.12601851 0.10391778 -0.20684765
-0.119925 0.050602093 0.030274874 -0.09053028 -0.011579211 0.073162116 -0.15705696 -0.17521325
0.41874582 0.86665064 -0.628475 -0.056660905 -0.09146479 0.5934276 0.04920866 0.1459233
-0.04329571 0.06980896 -0.18820104 0.18903403 0.086857244 0.09976136 -0.15765922 0.023588156
0.19583395 0.16681854 -0.10494787 -0.05070042 0.1182573 0.007226623 -0.24564849 -0.33766195
-0.06420336 -0.82648885 0.28975573 -0.6802476 -0.08645063 0.16064379 0.05883577 -0.0026330017
-0.20404597 -0.2652245 0.058216754 -0.11269688 0.03755632 -0.16160114 -0.2570844 0.009180379
-0.21283688 -0.30095297 -0.35909057 -0.30828017 -0.27167097 -0.32732737 -0.03511474 0.29617295
0.6158474 1.1842828 -1.3638146 0.34700987 -0.28056192 -0.23236579 0.13119431 -0.090634085
0.3284652 -0.040125266 0.41703096 0.12155526 -0.14618133 -0.45330322 0.071028925 0.20532496
00000000: dbc3 8d3f eb31 a73f 0c97 00be 80ed a7be
00000010: 68ac cd3e e222 603e c3d9 5f3f aca7 bb3d
00000020: c1fe 99be 052c 6ebc 08b0 2abe 1570 29be
00000030: 6218 a8bd f5de ec3d cb4f 943d 08f0 7bbe
00000040: 4aca 0d3d aae4 5d3d 9f03 c2bd e498 cd3d
00000050: b2b5 083b 654d 6c3d 84e9 413e a73f 28bd
00000060: d6bb b23e 36ca aa3d 4a46 f0be 6482 233f
00000070: 41d5 1d3e 40f0 413e 4943 393e b403 d4be
00000080: f9fb 90bc 3a01 9c3e b5f7 8dbd c4c9 2abe
00000090: 84da e73d a86f d8bd 6f7d 07bd 307d 93be
000000a0: e3e2 19be d9e9 abbd 372f 103d 85bf 75be
000000b0: 98b5 2d3d adad 2fbd 45cb 8dbe 84a6 f43d
000000c0: 835c 783e 751b 8dbe 4360 05bf 4961 523e
000000d0: 5877 99be 5b42 503e ff3e babd 708d c8bd
000000e0: be0a 0bbe 2371 003e 609a 15be 112d c63d
000000f0: df06 073e ade3 c5bd c1cb e03e b979 cc3e
00000100: 7a92 793e 32f7 f23d 10da 4e3e b9b3 e03d
00000110: c39d 96bd 4a4c 8437 464e aebd f100 923d
00000120: 5860 c73e 0326 3f3f ada4 083d d68b 863e
00000130: 6f42 9538 cce7 563d ca02 6d3e 1052 b1bd
00000140: 1b85 aebd 7b7a 0e3e d2be 1b3e 391e 2a3c
00000150: 1d54 cfbd eb31 d93d 8bd9 a8be 76ea f4bd
00000160: b04f 7fbb 6f9f 72be 7e2a cabd 9325 fc3d
00000170: ee87 573e 18f2 8e3e ee92 ee3e 1e4b 69be
00000180: 906a 363e a5de 713d b50d 533f 45c4 6e3e
00000190: 657f 16be 6f55 babd 2197 633c fea2 2bbe
000001a0: 1066 13bc 9769 9cbd d43b 41be 6395 afbe
000001b0: c92d 7fbe e3bf 7bbd 1bcd b7bd 8fb8 54bc
000001c0: 4407 973d 21b7 d3bd aa0e 283d a736 933e
000001d0: 3d50 4b3e 966a c63d 1070 c43e 19fe 69be
000001e0: fde0 003f 69ae a83e fe3f 7abe eb7c fe3e
000001f0: 94ad 04be 7d41 8bbd eb6d 9fbe 1e8c 983d
00000200: ec55 353e efea d73e b7cc a33c ae6d a13d
00000210: d47a debd 3431 b7bc ae06 013c ef77 073e
00000220: b28f bb3d 0cb1 a43d 365a 983d 0d7f adbd
00000230: 24be 33bd 5179 ba3c c921 5fbc 586a 1abe
00000240: 0e9f b1bb befd 5e3d 79b3 f5be a8a6 e7be
00000250: b0a7 bb3b a397 28be a800 283e 2259 a4bc
00000260: b275 96bd e11b 2d3e c022 0cbe dc51 813b
00000270: 671f 483e f34d c73d 2042 553e 3989 8b3e
00000280: ddae bc3d 5721 2c3e 6030 89bd 3ca4 503e
00000290: bb89 923d 4f5b 71be aa65 62be 9065 903e
000002a0: 2943 eb3e a08a 4e3f 1a70 5abf 7a32 953e
000002b0: 67a6 223e 0a6d 253e 5ad8 d53d fb3a 9e3d
000002c0: 19c7 07be f83c 833e 8ade 253d 4268 383e
000002d0: da5c a63e ff0a 013e d8d2 d43d dfcf 53be
000002e0: 3d9b f5bd 2444 4f3d 0303 f83c f067 b9bd
000002f0: bbb6 3dbc 05d6 953d 8ad3 20be 1a6b 33be
00000300: da65 d63e d1dc 5d3f bde3 20bf 4415 68bd
00000310: e451 bbbd dfea 173f 058f 493d eb6c 153e
00000320: d856 31bd 00f8 8e3d c6b7 40be 2392 413e
00000330: 36e2 b13d af4f cc3d 6b71 21be f33b c13c
00000340: b288 483e 7bd2 2a3e e9ee d6bd 3eab 4fbd
00000350: e230 f23d 4fcd ec3b 478b 7bbe 07e2 acbe
00000360: 0d7d 83bd c694 53bf dd5a 943e b524 2ebf
00000370: 070d b1bd ce7f 243e c7fd 703d 708e 2cbb
00000380: 6df1 50be 81cb 87be b174 6e3d 9fcd e6bd
00000390: a8d4 193d c57a 25be 91a0 83be 4d69 163c
000003a0: e9f1 59be 8216 9abe b8da b7be e6d6 9dbe
000003b0: 7518 8bbe 7497 a7be 79d4 0fbd fba3 973e
000003c0: 2da8 1d3f 9496 973f 7a91 aebf 47ab b13e
000003d0: d0a5 8fbe 4cf1 6dbe cd57 063e 5d9e b9bd
000003e0: 972c a83e 645a 24bd 1585 d53e f7f1 f83d
000003f0: 8fb0 15be 5c17 e8be 9d77 913d b540 523e

criticNet.0.bias f4 [64]
0.18067804 0.11746941 0.2907292 -0.02094937 -0.33739042 -0.2914475 0.3649095 -0.17551541
-0.08815341 0.35578898 -0.24184799 0.16440883 0.35683206 -0.13918136 -0.1878662 0.04077311
0.034738306 0.08885812 0.2409469 0.31024927 0.08133272 0.1809168 -0.51301885 -0.08080544
0.18316378 -0.2378401 0.07081975 0.265231 0.07529046 0.5409979 -0.7849868 -0.28935552
0.017399482 0.30946958 -0.105388746 0.109553546 0.14614962 -0.1431254 0.20355722 -0.05187192
-0.12151854 0.15462437 -0.15189688 0.18712015 -0.5539071 -0.009890449 -0.011059837 0.30594152
-0.33627445 -0.25999328 0.15264122 -0.10324548 -0.3556323 0.17349629 0.005247231 -0.29570973
0.17790814 0.36475706 0.3298429 0.08097644 0.2591774 -0.12556298 0.2719619 -0.3663506
00000000: aa03 393e cd93 f03d 75da 943e 039e abbc
00000010: 70be acbe 9b38 95be 6bd5 ba3e 50ba 33be
00000020: c689 b4bd f929 b63e 00a7 77be ca5a 283e
00000030: b1b2 b63e 8f85 0ebe ff5f 40be b401 273d
00000040: c149 0e3d 3ffb b53d c9ba 763e fed8 9e3e
00000050: c591 a63d 4142 393e 3455 03bf 537d a5bd
00000060: 498f 3b3e 5b8c 73be f209 913d 5ccc 873e
00000070: e231 9a3d d77e 0a3f e5f4 48bf 6826 94be
00000080: 5c89 8e3c cc72 9e3e 0ed6 d7bd 9c5d e03d
00000090: 3fa8 153e 778f 12be 4e71 503e a677 54bd
000000a0: b6de f8bd da55 1e3e db8a 1bbe 6d9c 3f3e
000000b0: dbcc 0dbf 8d0b 22bc 5234 35bc 5ea4 9c3e
000000c0: 2a2c acbe d71d 85be fb4d 1c3e 5e72 d3bd
000000d0: 7015 b6be 03a9 313e f7f0 ab3b 4467 97be
000000e0: 8d2d 363e 70c1 ba3e 2be1 a83e fad6 a53d
000000f0: e6b2 843e 9593 00be 973e 8b3e 4e92 bbbe

criticNet.2.weight f4 [32, 64]
-0.22957028 -0.15735073 -0.2604955 0.06892826 0.06500561 0.23881336 -0.3753023 -0.0155236665
0.14809778 -0.124941185 -0.010295368 -0.21436916 -0.3219688 -0.039237518 -0.055358298 0.005810885
0.18422522 0.043718323 -0.09223348 -0.11249923 0.1075117 0.21339703 0.31418872 0.13561393
0.018856319 0.12805164 0.08349475 -0.20635441 -0.0038051973 -0.44637677 0.21131521 0.21009417
-0.073111504 -0.12706628 -0.11874911 -0.0459744 -0.23524554 -0.24676946 -0.034251463 -0.07271832
0.040664773 0.1430845 0.2079458 -0.07862726 0.42266294 0.0019658098 0.008135994 -0.072404966
0.45130605 -0.056819938 0.009712006 0.19249393 0.06879875 -0.071148604 -0.026065653 0.13642858
-0.11602016 -0.28351295 -0.1031651 0.028517919 -0.27059966 -0.13152581 -0.055999767 0.4340742
1.4406087 0.40358746 -0.49966165 0.65987456 0.082991146 0.06360006 0.050515745 0.38847503
0.18968327 0.23094897 -0.011968367 -0.016281968 -0.35163957 -0.10640664 -0.0053225635 1.3155069
-0.12874185 -0.9227614 -0.62475157 -0.16165787 -0.5546611 -0.63100845 -0.046967268 0.08105232
0.04337577 0.4959701 -0.48104542 0.4113282 1.6068348 -0.017386988 -0.05317501 0.0029425495
-0.347755 0.09030386 -0.121430844 -0.017216269 -0.17681699 0.24877171 -0.16940275 0.5260733
-0.23596323 -0.76512873 0.64898777 0.83996737 -0.069143094 -0.95569456 -0.095282584 -1.5440689
-0.019694468 0.521465 -0.6388512 -0.64228296 0.02677045 -0.020664565 -0.1068667 0.40108013
-1.1137626 0.15015744 -0.042545635 -0.1435894 0.10558726 0.36075616 0.339839 -0.067322135
0.020750258 -0.05443829 -0.09141148 0.03755013 -0.05530087 -0.17121153 0.34322664 -0.068422146
-0.13927901 0.085403994 -0.020839179 0.15356074 0.06474412 -0.00914221 0.08106003 0.046643585
0.018845482 -0.08693061 0.026746515 -0.048288677 -0.076555595 -0.050822902 -0.13219176 -0.11231555
-0.08090215 -0.19816792 0.014877977 0.07926148 0.08631338 0.24768166 -0.26052728 -0.12002457
-0.07040686 0.030693993 -0.016410878 -0.052176323 0.28876898 0.14098746 0.30301604 0.15907152
-0.089362085 0.15780573 -0.10749314 0.006907255 -0.28040302 -0.076822296 -0.14565614 0.1537769
-0.3065727 0.057767052 -0.022049157 -0.11856938 -0.13933145 -0.06596645 0.04061059 0.09024648
-0.009013137 0.21694377 0.11386728 -0.07079799 0.31149235 0.17708407 0.24865259 -0.28364798
-0.17928357 0.08989971 -0.1621249 0.042141803 0.06021674 0.16325109 -0.28246415 0.23116185
0.11014894 -0.31317934 0.17439352 -0.19603378 0.017070463 -0.2142268 -0.13490422 -0.20661983
0.14469512 0.069416165 -0.03729216 -0.30824396 0.2702267 0.050148122 0.27884167 0.16729516
-0.20793897 0.0006634118 0.12898856 -0.27517578 -0.08256639 -0.23260383 0.29869747 0.1779507
0.020820761 -0.1497825 0.12929396 -0.15423548 -0.13550714 -0.08831498 -0.10373461 0.07365983
-0.043741774 0.08737545 0.21287198 -0.094019786 0.42926237 0.11610067 -0.076684415 -0.13023971
0.40581965 -0.16913542 0.019949593 0.14005539 0.18563284 -0.113241576 -0.028251152 -0.18938048
0.02129921 -0.27066597 -0.13416496 -0.06610333 -0.29422903 -0.2657387 0.0028560155 0.19838066
00000000: 7914 6bbe 8d20 21be ab5f 85be 422a 8d3d
00000010: a921 853d 7d8b 743e a027 c0be fa56 7ebc
00000020: f2a6 173e 2ae1 ffbd e7ad 28bc 9783 5bbe
00000030: 18d9 a4be 85b7 20bd 62bf 62bd 3d69 be3b
00000040: 89a5 3c3e fc11 333d e8e4 bcbd ff65 e6bd
00000050: 182f dc3d c084 5a3e 58dd a03e 61de 0a3e
00000060: 9178 9a3c f81f 033e 4cff aa3d 924e 53be
00000070: 9e60 79bb 7f8b e4be 0463 583e ed22 573e
00000080: 7cbb 95bd aa1d 02be bc32 f3bd a74f 3cbd
00000090: 35e4 70be 22b1 7cbe 434b 0cbd 58ed 94bd
000000a0: 1b90 263d be84 123e beef 543e 5407 a1bd
000000b0: 4767 d83e d1d4 003b d54c 053c 0e49 94bd
000000c0: 9611 e73e 06bc 68bd 1b1f 1f3c 211d 453e
000000d0: 5ce6 8c3d 5cb6 91bd a387 d5bc efb3 0b3e
000000e0: fa9b edbd 9c28 91be 3948 d3bd 699e e93c
000000f0: 0a8c 8abe b4ae 06be 0360 65bd f93e de3e
00000100: de65 b83f 04a3 ce3e a7d3 ffbe 8aed 283f
00000110: 43f7 a93d c040 823d 99e9 4e3d 33e6 c63e
00000120: 553c 423e e37d 6c3e f816 44bc c361 85bc
00000130: 1a0a b4be b9eb d9bd e668 aebb 8862 a83f
00000140: e7d4 03be 173a 6cbf b8ef 1fbf a489 25be
00000150: 45fe 0dbf c589 21bf c060 40bd c2fe a53d
00000160: cbaa 313d cbef fd3e 964b f6be 9c99 d23e
00000170: c3ac cd3f 286f 8ebc 0ace 59bd cad7 403b
00000180: f20c b2be 3bf1 b83d bcb0 f8bd 2209 8dbc
00000190: 830f 35be 03be 7e3e ea77 2dbe bdac 063f
000001a0: 58a0 71be 7adf 43bf 1024 263f 1a08 573f
000001b0: e59a 8dbd 66a8 74bf 8423 c3bd 0da4 c5bf
000001c0: 4b56 a1bc bb7e 053f c18b 23bf a86c 24bf
000001d0: b44d db3c bc48 a9bc eedc dabd 605a cd3e
000001e0: c68f 8ebf dfc2 193e 5544 2ebd 1a09 13be
000001f0: 223e d83d 08b5 b83e 61ff ad3e 30e0 89bd
00000200: 72fc a93c affa 5ebd f135 bbbd 2ace 193d
00000210: 2a83 62bd 1352 2fbe 67bb af3e e920 8cbd
00000220: 289f 0ebe 4ae8 ae3d edb6 aabc 073f 1d3e
00000230: 9198 843d 35c9 15bc cd02 a63d 580d 3f3d
00000240: d761 9a3c ad08 b2bd 821b db3c 59ca 45bd
00000250: 2ec9 9cbd ad2b 50bd 475d 07be b205 e6bd
00000260: 07b0 a5bd 88ec 4abe c2c2 733c d853 a23d
00000270: 12c5 b03d 43a0 7d3e d563 85be 71cf f5bd
00000280: 7931 90bd f871 fb3c 1b70 86bc d7b6 55bd
00000290: 87d9 933e 045f 103e eb24 9b3e a5e3 223e
000002a0: 7803 b7bd d397 213e 5d25 dcbd 4156 e23b
000002b0: fc90 8fbe 0255 9dbd e226 15be b177 1d3e
000002c0: 19f7 9cbe 259d 6c3d 6fa0 b4bc 81d4 f2bd
000002d0: e7ac 0ebe 6b19 87bd 4a57 263d 26d3 b83d
000002e0: d6ab 13bc 8226 5e3e 4033 e93d 89fe 90bd
000002f0: ed7b 9f3e 8755 353e c99e 7e3e 4f3a 91be
00000300: 1d96 37be 571d b83d 1204 26be e29c 2c3d
00000310: d4a5 763d 4b2b 273e 249f 90be b1b5 6c3e
00000320: c495 e13d 0b59 a0be 3794 323e 14bd 48be
00000330: 5bd7 8b3c 455e 5bbe 5524 0abe 2694 53be
00000340: f52a 143e 102a 8e3d aabf 18bd 27d2 9dbe
00000350: 275b 8a3e 1e68 4d3d 56c4 8e3e 6c4f 2b3e
00000360: f4ed 54be d0e8 2d3a 9415 043e d7e3 8cbe
00000370: 9118 a9bd b32f 6ebe e0ee 983e b538 363e
00000380: 4d90 aa3c 9560 19be a365 043e e8ef 1dbe
00000390: 62c2 0abe 7cde b4bd d072 d4bd f7da 963d
000003a0: 932a 33bd e6f1 b23d 1dfb 593e 728d c0bd
000003b0: 47c8 db3e 30c6 ed3d b80c 9dbd 8f5d 05be
000003c0: 98c7 cf3e d631 2dbe 546d a33c ae6a 0f3e
000003d0: 8916 3e3e 33eb e7bd f66e e7bc f5ec 41be
000003e0: ae7b ae3c bb94 8abe 8a62 09be 2f61 87bd
000003f0: 30a5 96be e70e 88be fd2b 3b3b 4d24 4b3e

criticNet.2.bias f4 [32]
-0.32804266 0.06886418 0.27288547 -0.51170605 -0.21915384 -0.29606828 0.32573608 0.096132345
0.32098228 0.018642988 0.62001747 0.19082046 0.068193376 -0.2583862 -0.4295803 -0.040262297
0.07515395 -0.34286514 0.2749873 0.06852183 0.41119328 0.4675163 -0.30267072 0.4626883
-0.04414465 0.13993348 0.36610523 0.04980468 -0.29437125 -0.17685945 -0.18043293 0.109271415
00000000: 35f5 a7be aa08 8d3d a5b7 8b3e 2bff 02bf
00000010: dd69 60be 4396 97be e1c6 a63e 09e1 c43d
00000020: ca57 a43e 2eb9 983c 77b9 1e3f 7066 433e
00000030: f8a8 8b3d 324b 84be f3f1 dbbe 14ea 24bd
00000040: 50ea 993d 058c afbe 23cb 8c3e 2c55 8c3d
00000050: ed87 d23e 4c5e ef3e a8f7 9abe 7be5 ec3e
00000060: 05d1 34bd b94a 0f3e 2572 bb3e feff 4b3d
00000070: d4b7 96be a51a 35be 69c3 38be b1c9 df3d

criticNet.4.weight f4 [1, 32]
0.46323472 0.48827136 -0.4296076 0.470214 0.61209506 0.16616595 -0.19436719 -0.38214627
-0.38281375 -0.48818225 -0.4457365 -0.37911987 -0.24437316 0.5019497 0.43941128 -0.7186886
0.8317631 0.50487185 -0.12820587 -0.4033544 -0.5022833 -0.3480457 0.39349094 -0.5010946
0.69336504 -0.4074999 -0.39559862 0.6798103 0.5627993 0.4784273 0.036017932 0.20460507
00000000: 1a2d ed3e b4fe f93e 87f5 dbbe e4bf f03e
00000010: 43b2 1c3f 6827 2a3e 3108 47be ada8 c3be
00000020: 2a00 c4be 06f3 f9be 9337 e4be 001c c2be
00000030: f53c 7abe c77f 003f 84fa e03e fafb 37bf
00000040: 6dee 543f 483f 013f 6648 03be 7884 cebe
00000050: a395 00bf 0c33 b2be a577 c93e bc47 00bf
00000060: 5f80 313f d4a3 d0be e78b cabe 0c08 2e3f
00000070: 9d13 103f 6cf4 f43e 8a87 133d fe83 513e
